trained_models/find_alpha/alpha.pt (torch, 54407 bytes, 9 tensors)

f.0.weight f4 [64, 5]
000000 b1 e2 49 bd 91 80 b6 3d 04 3c 27 be 9c 6c 14 be
       -0.049288455 0.08911241 -0.16331488 -0.14494556
000010 87 1c 67 bd 09 e7 08 3d db fe a4 3d 4a e7 65 3e
       -0.05642369 0.033423457 0.08056422 0.22451511
000020 4f d4 3b bd 8e b4 75 3e 49 bd 91 3d 50 12 8e 3b
       -0.04585677 0.23994657 0.071161814 0.004335679
000030 ef be 83 be 6b 8e b6 bd e8 5b 5a bd b6 b9 3c bd
       -0.25731608 -0.08913883 -0.053310305 -0.046075545
000040 df ac 49 3e 2a 9f 25 3e b6 d5 55 be 5d e2 ef bd
       0.19694851 0.16173998 -0.20882306 -0.11713097
000050 fe 60 0a 3c f2 e7 5f 3e ee 67 83 bd 6b e5 69 3e
       0.008445976 0.21865824 -0.064163074 0.22841422
000060 6c a6 d9 3b 92 a2 8f 3d 76 2a 13 3e cc 91 80 be
       0.0066421535 0.0701343 0.14371666 -0.25111234
000070 47 a5 13 be 8c 05 e5 bd 51 ad c1 bc ba 70 3e 3e
       -0.14418517 -0.111826986 -0.023642214 0.1859769
000080 7b 19 01 be d6 d6 fb bd 25 bb 29 be 56 fc 6e be
       -0.12607376 -0.12296836 -0.16575296 -0.23338446
000090 83 50 cb bc e4 78 60 3e b4 e6 14 3d 69 ce 9f bd
       -0.024818664 0.21921116 0.03635283 -0.078030415
0000a0 5f 29 30 be 43 f3 80 be c5 b1 45 3c aa 9c 5b be
       -0.17203282 -0.25185594 0.012066309 -0.21446481
0000b0 df 71 9d be e2 48 f2 bd 60 14 0b 3e a4 10 b0 3d
       -0.3075094 -0.118303075 0.13581991 0.08596924
0000c0 8c 6e 90 bd 18 8e 1d bd 34 ab e2 3d 33 3e d5 3d
       -0.07052335 -0.03846559 0.11067811 0.10412254
0000d0 77 cb 79 3d 3c 4e 87 3d 21 75 0b 3e 81 de dc bd
       0.060985055 0.06606719 0.136189 -0.10784627
0000e0 6f bb 4a bc d4 37 5a be fd 8f d3 bd ff 5d e3 bd
       -0.012373789 -0.21310359 -0.10330198 -0.11101913
0000f0 be 91 10 3e 81 15 1e 3d b3 a9 db bd 75 93 80 3b
       0.14118096 0.038594726 -0.10725727 0.0039238282
000100 ee 6d e1 3d ff 7e 8c 3d 4b 03 d6 3b f7 35 e1 3d
       0.110072955 0.0686016 0.0065311543 0.10996621
000110 cb d7 c2 3d f6 ed 9d 3f 53 f9 82 be 6b 0a 62 bd
       0.095138155 1.2338245 -0.25580844 -0.055185717
000120 4a 28 eb 3d 59 81 3f 3e ce df 80 3e 71 49 7c 3e
       0.11482294 0.18701686 0.2517075 0.2463739
000130 a0 2a 5d bd 00 9e 69 be 30 54 2c 3c 28 9d 1d be
       -0.05399573 -0.22814178 0.010518119 -0.15391982
000140 1c c1 17 bf eb ef 4f 3e 78 ef fb 3d 28 45 1b be
       -0.59279037 0.20306365 0.123015344 -0.151631
000150 67 73 96 3d bb 91 94 bd a1 6b 99 3c c2 89 32 be
       0.0734623 -0.072543584 0.01872808 -0.17435363
000160 ba df 83 bd 45 31 fa bd c6 bc 96 3d 23 5d 07 3e
       -0.06439157 -0.12216429 0.073602244 0.13219123
000170 7f a9 34 3e 4e 20 86 3d fb 60 59 3d 70 b7 7d be
       0.17642783 0.065491304 0.053071003 -0.24777007
000180 f2 b2 4e 3e 42 f3 43 3d 72 9e 50 be 02 98 ab be
       0.2018545 0.04783941 -0.20372942 -0.3351441
000190 7d d2 96 3d 3f e8 48 bc 1e ee 29 bd cc e7 7b bc
       0.07364366 -0.012262403 -0.041486852 -0.015375089
0001a0 35 52 80 bf cf 4b 95 3d ef f4 f8 bd 1b e5 80 be
       -1.0025088 0.0728985 -0.121560924 -0.25174794
0001b0 f5 9b d7 3c 87 ed 78 bd 91 08 20 3c 85 05 3b 3d
       0.026319483 -0.0607734 0.009767667 0.04565956
0001c0 a1 b4 2e be 52 41 78 3e bd b7 ef 3e eb 04 93 be
       -0.17061092 0.24243668 0.4681987 -0.2871469
0001d0 97 6c 0a be db 6f dd 3c 57 11 8b 3d c3 8c ae 3d
       -0.13517986 0.027030876 0.06790417 0.08522942
0001e0 a7 ef 01 be 47 87 5d 3d dd 0a dd bd c6 18 a8 3d
       -0.12689076 0.05408409 -0.10793088 0.0820785
0001f0 61 fb 9c bf 40 a2 2d bd 1a 76 16 3a fe 2f 63 bd
       -1.2264215 -0.04239106 0.00057396444 -0.05546569
000200 c9 21 1f bd a7 04 69 bf 53 bb c3 bd 6a 11 40 bc
       -0.03885058 -0.91022724 -0.09557214 -0.011722902
000210 cf f6 25 be 1d 2b 72 3c 99 0d aa bc 58 18 9d bb
       -0.16207431 0.014780787 -0.020758437 -0.0047941618
000220 38 11 e8 bd eb 60 34 bd 0e 2d 0d bd 01 05 12 3e
       -0.11331409 -0.04403774 -0.034466796 0.14259721
000230 e2 cb 66 3e 9a 24 46 3e 03 0e 0c 3e 24 68 db bd
       0.22538713 0.193499 0.1367722 -0.107132226
000240 ab 66 bb be 0e 19 d0 bd de 9c 13 3e b5 a9 2c 3d
       -0.36601767 -0.10161029 0.14415309 0.042154033
000250 80 ac 63 bd b7 d6 4d bf 26 a3 93 be 87 0e 1c be
       -0.05558443 -0.80405754 -0.2883541 -0.15239917
000260 36 c3 9b 3b 00 2d 3c 3d 69 9a 4c 3d 27 e7 85 be
       0.0047534956 0.045941353 0.049951945 -0.26152918
000270 5f b1 bf 3d ec 43 3b be b2 17 a0 bd 14 3a ba bc
       0.09360003 -0.18287629 -0.078170195 -0.022732772
000280 b0 56 1a be 65 c1 bc bd a2 c8 47 be 31 33 0f be
       -0.15072131 -0.092165746 -0.19510129 -0.13984372
000290 47 2e 2c bd 77 8f d1 3d f9 5c b1 bc df 1a 0c 3e
       -0.04203632 0.10232442 -0.021650778 0.13682126
0002a0 1a 80 69 be 97 c8 4d 3c ec 8e 0b 3f 44 fc 18 3d
       -0.22802773 0.012560031 0.54514956 0.037349954
0002b0 94 5c 53 3d 69 6e 85 3d 25 94 6f bf c2 64 10 3e
       0.05160196 0.065152 -0.93585426 0.14100936
0002c0 f0 6a db 3d 21 42 7d bd 51 29 08 3e 42 49 f5 be
       0.10713756 -0.061830644 0.13297011 -0.47907454
0002d0 a9 e8 bc bb d4 14 a9 bb 9c 49 52 3e 2f af af 3d
       -0.00576504 -0.0051599536 0.20535892 0.085783355
0002e0 bf dd 48 3d 9e ea 89 3c c1 70 47 bd 71 4c 5a 3d
       0.0490396 0.016835507 -0.048691515 0.053295556
0002f0 5f 37 06 be fa ce 37 3e c6 cf 21 3e 72 ee c9 3d
       -0.1310706 0.17950049 0.15801916 0.09859933
000300 1a c9 6c be f8 18 05 bd e4 0c 3b be 7a 80 c3 bc
       -0.23123589 -0.032494515 -0.18266636 -0.023864973
000310 7f e4 6e bd ee db a3 3b 7d 23 46 bd 11 9e 22 3b
       -0.05832338 0.005000583 -0.048373688 0.0024813453
000320 5a 70 24 3d 7b 28 c3 3d f3 df 6f be 98 eb 1b be
       0.04014621 0.095292054 -0.23425274 -0.1522659
000330 06 36 de bd b5 5d a4 3d 5b 33 72 bc 4e 9c 50 3e
       -0.10850148 0.08025686 -0.014782752 0.20372126
000340 c9 d8 11 3e 13 dc 44 3d e0 e6 87 bd 06 0b fa bd
       0.14242853 0.04806144 -0.06635833 -0.12209134
000350 20 f3 28 3e e9 b0 a7 3d c5 e2 c9 3c 62 08 80 3c
       0.16498995 0.0818804 0.024644265 0.015628997
000360 53 22 2a be 07 2c 83 bd 34 8f 0f 3e 80 a2 cb bd
       -0.16614656 -0.06404882 0.14019471 -0.09943104
000370 69 d6 6a bc 21 3a b0 3e 5f a8 f6 3c 4a e9 dd bc
       -0.014333346 0.3441935 0.030109582 -0.02708878
000380 4e e2 fc bc 90 1e 3b 3e 09 07 e7 bd 7b 55 2b be
       -0.03086963 0.18273377 -0.11280639 -0.16731827
000390 74 83 44 bd 9a f9 67 bd 85 b2 82 ba e6 c0 29 3e
       -0.047976926 -0.056634523 -0.0009971416 0.16577491
0003a0 87 89 19 3d 92 e1 17 3e 7c 54 84 3e a6 08 e2 bc
       0.037484672 0.14832142 0.25845706 -0.027592015
0003b0 d0 fd a1 3d ad 75 63 be d5 97 da bd ca 4c 6e bd
       0.07909739 -0.22212858 -0.10673491 -0.0581787
0003c0 60 43 5f 3d 43 1b ca 3d 6c 4b 25 be 8b c2 c3 bd
       0.054507613 0.09868481 -0.16142052 -0.095585905
0003d0 77 99 1a bd b4 4e da be 98 7c 16 3e 56 df ed bd
       -0.03774401 -0.4263817 0.14695966 -0.116148636
0003e0 7f 86 19 3e 41 b7 67 bd e8 66 41 be ba d7 49 3d
       0.14992712 -0.05657125 -0.18886912 0.049278
0003f0 d0 a9 c0 3d 3c c4 0c be 04 1f c0 bd bd a1 c6 bd
       0.09407389 -0.13746732 -0.09380916 -0.09698818

f.0.bias f4 [64]
000000 db 05 6d 3e 3a f2 b0 3d 78 cd 1a bf 2d 40 b5 3d
       0.23146765 0.08639951 -0.6046977 0.08850131
000010 c2 02 77 3e 7d b8 21 3f fb ef 15 3f b5 ce 8b 3e
       0.24122146 0.6317213 0.58569306 0.27306142
000020 cb 32 bc 3d 3b f6 98 be 9c 39 eb be 32 66 11 bf
       0.091893755 -0.2987536 -0.4594239 -0.5679656
000030 1e a0 2f 3f 2c be 8b 3e 47 e6 de be 08 7a cb 3e
       0.68603694 0.27293527 -0.43535063 0.3974154
000040 2a c7 c1 3e b4 8f 2e 3f 00 e9 06 3f 69 8c 95 3e
       0.37847263 0.68188024 0.5269928 0.29208687
000050 2b 10 d5 bd 1e ab c7 be 79 84 6d 3e 02 a2 d4 3e
       -0.104034744 -0.3899774 0.23195066 0.41529852
000060 c1 a8 3b be 7d c2 25 3f fb df 93 3e 81 18 97 3e
       -0.18326093 0.6474989 0.2888182 0.29510882
000070 8f 39 f2 bd a0 3f 81 3d 98 83 dc be 5b 6d db 3e
       -0.11827385 0.06310964 -0.43069148 0.4285687
000080 04 e4 18 be 85 00 35 3e 56 e4 5a bd b2 ce 40 3e
       -0.14930731 0.1767598 -0.053440414 0.18828848
000090 d3 da 9b be 01 d5 e9 3c 21 67 1f bf 57 cf 12 3b
       -0.30440387 0.028543951 -0.6226674 0.0022401416
0000a0 03 b0 03 bf b5 17 2c bf c1 af 1f bf 43 47 02 3f
       -0.5144045 -0.67223674 -0.62377554 0.50889987
0000b0 53 b5 83 3e 4e b0 1a 3f 5b 03 c4 3e f3 39 17 bf
       0.25724277 0.6042527 0.3828381 -0.590728
0000c0 8c e4 03 bf d3 b6 74 be 1d 13 a0 be 5b bd d7 3e
       -0.5152061 -0.23897867 -0.31264582 0.42136654
0000d0 34 34 ea be fb 35 87 be a2 a4 27 bf b7 7d 0c bf
       -0.45742953 -0.2640837 -0.65485585 -0.54879326
0000e0 45 31 dc 3e ab a9 2c 3f e1 7d e8 3e 6c 15 fb 3e
       0.4300634 0.6744639 0.45408538 0.4903978
0000f0 ec 56 10 3f 33 08 62 bd 4c c0 cf 3e 7e 7a 1c 3f
       0.5638263 -0.0551836 0.40576398 0.6112441

f.2.weight f4 [64, 64]
000000 15 85 2e 3b 05 bc 13 3e f0 50 a8 3c a3 4a 6c 3d
       0.0026629616 0.14427193 0.020546407 0.057688367
000010 18 2f eb bd 9d c8 1f 3d 6f 64 32 bd ac 9c 9b 3c
       -0.11483592 0.03900968 -0.043552812 0.018995605
000020 15 83 99 3c 38 94 b8 bd e6 b3 cb bd 56 31 e2 3c
       0.018739263 -0.090126455 -0.09946422 0.027611416
000030 73 16 03 3e f7 04 62 bd 34 5d ea 3c 7e 10 e3 3d
       0.12801532 -0.055180516 0.028608896 0.1108713
000040 18 ad 0b 3c 11 8f d8 3c 5c bd 21 bc 49 a5 35 bc
       0.0085251555 0.026435407 -0.009871807 -0.01108677
000050 7b 45 74 bd ac 17 c1 bd ea dc 08 3e d1 24 b4 3d
       -0.059636574 -0.09428343 0.13365522 0.08796085
000060 67 3e ac bc 70 23 51 3e d3 a7 81 bd a8 16 7d bb
       -0.02102585 0.20423675 -0.06330838 -0.003861824
000070 10 2a a6 3d 6c 57 2d 3d fb 06 3f 3d d4 7a cb bd
       0.081134915 0.0423197 0.046637516 -0.09935537
000080 9d 34 a3 bd 98 65 7c ba 98 6a bc bd 06 2a f2 bc
       -0.079690196 -0.0009628176 -0.09200019 -0.029561054
000090 f8 5a 41 3b 02 79 1a be 9c a5 00 3c 89 d9 d0 3c
       0.0029503684 -0.15085223 0.007851984 0.025494354
0000a0 c0 2c 0e 3c 53 82 16 be 03 4d e0 bc 9b f0 ca bd
       0.008677661 -0.14698152 -0.027380472 -0.09909173
0000b0 06 2c 92 bd 2b fb 3d 3d 12 24 e0 bd e0 0b 54 3c
       -0.07137303 0.04638211 -0.1094438 0.012942284
0000c0 50 82 eb 3d 3a 99 bb 3d fe 8e 06 be 27 cd c7 bc
       0.114994645 0.09160085 -0.13140485 -0.024389816
0000d0 b0 b0 89 3d c8 bc 8c 3c 93 57 e7 3c 54 1e 2a be
       0.067231536 0.017179862 0.02824 -0.16613132
0000e0 34 82 42 be 80 b3 b3 bd 7b a9 13 bd 96 6a 95 3c
       -0.18994981 -0.08774471 -0.0360503 0.0182393
0000f0 02 92 d0 bd 59 88 d8 3d 73 8c 64 bd 3b 26 97 3d
       -0.10184099 0.10572881 -0.055798005 0.07380339
000100 be 13 2c bb ab 68 d6 bd 51 0e 73 3c ff a7 51 3e
       -0.0026256884 -0.104691826 0.014834956 0.20474242
000110 67 12 21 3e 9e 8d f5 3d fe 93 15 3e cc 98 57 3e
       0.15729676 0.11989902 0.14607236 0.21054381
000120 ca 17 e0 3d 9e c3 59 bb 05 51 a4 be 9c a6 0a be
       0.109420374 -0.003322817 -0.32093063 -0.13540119
000130 11 00 4a 3d 36 76 1d bc e5 ca cb bc c6 f7 d1 bd
       0.04931647 -0.009610703 -0.024877021 -0.10252337
000140 18 cf cd 3c 96 fd ff 3e 77 c8 03 3e 64 8b c2 bd
       0.025123164 0.49998158 0.1286944 -0.09499243
000150 ab c7 2e be 5f 96 00 be 80 38 38 bd fc 03 57 3e
       -0.17068355 -0.12557362 -0.044975758 0.20997614
000160 ce d2 6c 3d cd 00 88 3e 2f 24 59 3d 07 d1 59 bc
       0.057818227 0.2656311 0.053013023 -0.013294465
000170 61 d2 80 3d fc 0e 45 3d 7c 0f 48 be 71 0e d7 3c
       0.062901266 0.048109993 -0.19537157 0.026252003
000180 0a fe 15 be 8f 49 98 bc ba b0 8c bd fa 66 90 3d
       -0.1464769 -0.018589763 -0.068696454 0.07050891
000190 d7 84 6d bd 23 6f b0 3d 59 55 e7 3b 92 e0 35 3e
       -0.057988014 0.08614948 0.007059735 0.17761448
0001a0 46 ab 9b bd 46 81 89 be dc b2 d9 be aa 2f 3e 3e
       -0.07601027 -0.2685644 -0.4251927 0.1857287
0001b0 c9 82 d1 3d 95 e5 61 3e 73 d3 15 3e 94 dc d1 bd
       0.102300234 0.22060235 0.14631443 -0.1024715
0001c0 0a ee 18 be ab 44 bc bd fa cf 36 3b a4 0e 6f 3e
       -0.14934555 -0.09192785 0.002789496 0.23345429
0001d0 b7 89 7b be 50 26 bd 3d fc 56 ad bc 39 98 a1 bd
       -0.24564253 0.09235823 -0.021159641 -0.07890362
0001e0 53 36 ed bc 42 c8 df 3d 97 14 f1 3d 96 b2 d8 3d
       -0.028956568 0.10926868 0.11771505 0.105809376
0001f0 9d 27 84 3e 6d 64 20 bb 10 b8 0b bd 57 56 65 3e
       0.25811473 -0.002447392 -0.034111083 0.22396217
000200 b3 23 74 bd a5 fb 1a bd f6 59 07 bd f2 c9 d8 38
       -0.059604358 -0.037837643 -0.033044778 0.00010337298
000210 36 fb 87 bd 4b 6e 2f bc 0f df 81 3d 46 f3 9c bc
       -0.066397116 -0.010707448 0.06341373 -0.01915897
000220 d2 69 d6 3d b5 6c 31 bd ee 4e a3 3b 35 cc 03 be
       0.104694024 -0.04331656 0.0049837744 -0.12870868
000230 ab a7 97 bd c0 dc 60 bd 4a 08 be 3d b9 91 cb bb
       -0.07405027 -0.054898024 0.09278925 -0.00621244
000240 89 b0 4b bc 35 54 93 bd d9 1e 07 3e 8a 3a cb 3d
       -0.012432226 -0.071937956 0.13195361 0.09923275
000250 18 c9 c1 bd 2f 45 0a be 99 86 8c bd 17 45 47 3d
       -0.09462184 -0.13502954 -0.0686161 0.048649874
000260 90 20 f4 bc 8b f9 03 be 0b 43 86 bd 71 3a ee 3d
       -0.029800683 -0.12888162 -0.06555756 0.116322406
000270 6e 0a 15 be 96 b1 ce 3c 5d 10 79 3b c3 76 7a bd
       -0.1455476 0.025231164 0.0038004138 -0.061148416
000280 2f 49 80 3b 38 c7 96 3d 62 b5 ca bd 2f bd d9 3c
       0.003914974 0.07362217 -0.09897877 0.026579468
000290 77 12 c9 bc a9 e7 c1 3d f7 02 22 be 38 83 7b bd
       -0.024544938 0.09468014 -0.15821443 -0.061404437
0002a0 a6 13 91 3d 90 96 73 bd 61 7a 97 3d 80 72 0c 3d
       0.07083826 -0.05946976 0.07396389 0.034288883
0002b0 c7 ba 70 bd b6 9b 8d bc 9b 2f 91 3d 6a 5d ac bd
       -0.058771875 -0.017286163 0.07089158 -0.08416255
0002c0 67 ba 74 be 61 6f e0 bd d7 72 8d bd 9b 14 85 3d
       -0.23899232 -0.10958744 -0.069066696 0.06498071
0002d0 b6 ad dc bd f5 80 00 3e 6c ac 30 bd 9e 6d 98 bd
       -0.1077532 0.12549193 -0.043133184 -0.07442783
0002e0 30 64 0b 3e fe 44 cf 3d 08 dc 2e 3e eb f8 b1 3d
       0.13612437 0.10120581 0.17076123 0.086900555
0002f0 5e f1 53 bd 80 1e 4e bd d7 0d 84 bc c6 6d 63 3e
       -0.051743858 -0.050322056 -0.01611988 0.22209844
000300 a0 b1 b3 bd 7e e5 aa bd 75 a6 a8 3d 9d 56 d1 3d
       -0.08774114 -0.083445534 0.08234874 0.10221598
000310 67 36 f6 bd 6e b1 9d be a8 fc 65 be 88 09 76 3c
       -0.12022095 -0.3079943 -0.22459662 0.015016921
000320 37 00 6e 3d 21 2c 3f 3d 1f 8c c1 3d 72 11 ab 3d
       0.058105674 0.046672944 0.09450554 0.08352937
000330 2e 32 96 bd 44 f3 57 3d 19 c4 e7 bc ca 44 8e be
       -0.0733379 0.05272223 -0.028291749 -0.27786857
000340 a5 d1 94 bd 05 ea de bd 61 fa 8c 3c 02 cf b4 3d
       -0.07266549 -0.108844794 0.017209234 0.08828546
000350 de 1a 16 bd 23 ca d2 3d 7c 35 ec 3d bd f1 90 3d
       -0.036646716 0.10292461 0.11533639 0.07077358
000360 c9 53 9e bd 11 b1 1f be f2 7c 32 be dc 70 c5 bc
       -0.077308245 -0.15594889 -0.17430475 -0.024101667
000370 9f ad 35 bd 57 7f 93 3d 48 4f 73 3d 44 c0 35 3c
       -0.04435503 0.072020225 0.05940178 0.011093203
000380 57 ab 8f bd 3c 66 37 bd 1c 1e fb bd 77 12 02 be
       -0.07015102 -0.044775233 -0.12261602 -0.12702356
000390 e8 a6 62 3e 48 fe f1 bd 12 b9 d7 3d ab ff c9 3d
       0.22133982 -0.118160784 0.10533346 0.09863218
0003a0 10 ad c2 3d 9b 59 4a 3e f1 a4 ff 3e 1d 2f 82 bd
       0.09505665 0.19760744 0.49930528 -0.063566424
0003b0 01 94 e8 bc e6 24 91 bd 3e a4 27 3d ae bb b7 bd
       -0.028390886 -0.07087116 0.040928118 -0.08971344
0003c0 b7 4e 85 bc ea 7b 20 bd 74 e8 2d 3e 70 69 d1 bd
       -0.016272886 -0.039180674 0.16983205 -0.10225189
0003d0 66 a2 8d 3c c8 40 65 3e c6 78 c0 3d f6 35 c8 3d
       0.017289352 0.22387993 0.09398036 0.09775917
0003e0 23 99 35 3c ce 21 8b bd 0d cb 43 3d ee 51 f8 bc
       0.011083874 -0.06793557 0.047801066 -0.030312505
0003f0 bc 7f 4a be e9 40 b7 bc 4a 8c ad bd ae 69 3c bd
       -0.1977529 -0.022369819 -0.08474024 -0.04599922

f.2.bias f4 [64]
000000 27 fc 06 bd 05 03 ee 3d bd 7f 32 bc f0 61 83 be
       -0.032955315 0.1162167 -0.010894713 -0.25660658
000010 3b 85 7d 3e af 13 57 3e 2a 88 cb 3d 62 13 bd 3d
       0.24757855 0.21003602 0.099380806 0.092322126
000020 0a 49 fa 3d 2d fc 1e 3b 03 29 7d 3e 7f a3 d1 3d
       0.12220962 0.0024259195 0.24722676 0.102362625
000030 4a b4 43 be 80 5e 79 3e 68 64 3c be 97 49 10 bd
       -0.19111744 0.24352455 -0.18397677 -0.03522643
000040 d8 f6 71 3e a1 0f ee 3d 69 ad 0e 3d 57 a4 99 be
       0.2362932 0.11624075 0.034833346 -0.30008194
000050 b0 3f 38 3e 4e 71 1e 3e 52 44 98 3e 10 16 10 3e
       0.17993045 0.1547291 0.29739624 0.14070916
000060 d0 c8 86 3e 02 41 8b 3c d2 c3 ba 3e 9c 66 6a 3c
       0.26325083 0.016998772 0.36477524 0.014306691
000070 31 7c b0 3c c3 58 5a 3e 15 9a 40 3e ad 06 7b 3e
       0.021543594 0.21322922 0.18808778 0.24514265
000080 52 14 73 bd d5 73 09 be 30 a6 7c 3e 80 d8 9e be
       -0.05934555 -0.13423093 0.2467277 -0.3102455
000090 4f f7 8c bd f5 a7 8a 3e 17 d1 99 3e df 97 97 bc
       -0.06883108 0.27081266 0.30042335 -0.018505035
0000a0 cf 2f 42 be e4 9d 31 3e ff 72 72 3e be d0 31 3e
       -0.1896355 0.17345387 0.2367668 0.17364785
0000b0 79 f6 25 bd 5f 2d 33 3e 3c 2a a7 be 04 0a a7 bd
       -0.040518258 0.17497776 -0.3264941 -0.08156207
0000c0 32 b9 20 be 23 31 8e 3e 59 04 97 bd 19 ec 77 be
       -0.15695646 0.27771863 -0.07373876 -0.24211158
0000d0 67 ca 6f be 7a ec 85 3e e2 62 6c 3d e6 51 21 3d
       -0.23417054 0.2615698 0.05771149 0.039384745
0000e0 59 74 67 be f9 5d 1a be 3f b4 e4 3d 9b 3b 84 be
       -0.22602977 -0.1507491 0.11167192 -0.25826725
0000f0 af ed 24 3e f0 c4 43 3e 85 16 3e be fb 71 54 3e
       0.16106294 0.19118094 -0.18563278 0.20746605

f.4.weight f4 [64, 64]
000000 39 29 d6 bd d9 a7 f9 3b 37 57 9a bd 55 3d 88 bc
       -0.10457081 0.007618886 -0.07536166 -0.016630808
000010 a2 eb 88 bc 82 24 88 bc a9 06 58 3d da bd af 3c
       -0.016713921 -0.01661897 0.052740727 0.021452833
000020 f7 8e 93 bd 7c 7c ac bd b6 a9 d1 bc 86 87 0e be
       -0.07205003 -0.08422181 -0.02559362 -0.13918886
000030 16 10 ff bd ee 96 0c bd d7 c8 21 3d ff 74 46 bd
       -0.1245424 -0.034323625 0.039498176 -0.04845142
000040 50 21 e9 3c 74 99 ea 3d cb 14 29 3e 11 71 95 bd
       0.028458267 0.1145505 0.16511838 -0.07296956
000050 50 db ab bd e1 fb 8d bd 65 4d 51 3c ba ba 77 3d
       -0.0839144 -0.06932808 0.0127748 0.06048081
000060 11 fc 80 bc 9c 9f 10 be ef 3d 0a 3d 4f 88 6a bd
       -0.015745195 -0.14123386 0.03375047 -0.0572589
000070 c6 d6 37 3c e7 45 c6 bd 01 dc d6 3d 4c a8 04 3d
       0.01122064 -0.096813016 0.10491181 0.032387063
000080 90 df 46 bd 3d 1f 9f bd 53 ee 12 3e f1 7a 28 bd
       -0.04855305 -0.0776963 0.14348726 -0.04113287
000090 2e d8 f0 3d f1 05 69 bc 2b f3 18 be 32 ed fb bd
       0.11759983 -0.014222608 -0.14936511 -0.12301101
0000a0 83 05 43 bd af 21 d4 bd 03 d7 66 bd 62 08 b6 3d
       -0.04761268 -0.10357987 -0.056357395 0.08888318
0000b0 d0 85 f2 bd 90 bb 0a 3d 43 c0 07 3e 3e 93 57 3d
       -0.11841929 0.03387028 0.13256936 0.052630655
0000c0 35 d1 b9 bc df 4f 29 3d 8f 1c d9 bc 72 d1 13 3d
       -0.022682765 0.041335937 -0.026502876 0.036088414
0000d0 0b fc 6f bd 60 d9 9a bc 33 1b 61 bd 85 82 1a be
       -0.058589976 -0.01890248 -0.05495758 -0.15088852
0000e0 3c a8 15 3d fe d8 d2 bd 94 9b 0a bd 23 22 25 3d
       0.036537394 -0.10295294 -0.033839777 0.04031576
0000f0 5c 0a 87 3d da 0f 51 3d f7 11 4d bd b8 95 e8 3d
       0.06593773 0.051040508 -0.05006596 0.113566816
000100 b1 ec 1b 3e c3 7c 14 3e c8 3e b2 bb 72 65 71 bd
       0.1522701 0.14500718 -0.005439613 -0.058934636
000110 12 6d 13 3e 11 50 29 3d c1 74 a5 bd 3f 62 39 3b
       0.14397076 0.041336123 -0.0807891 0.002828732
000120 69 d3 37 bd 05 db 85 3d db b9 87 3e fa 34 2e 3e
       -0.04487935 0.06535915 0.26508984 0.17012396
000130 83 dd 4e 3d ef 9b b7 3c 9a 16 20 be 72 9d b6 3d
       0.05050422 0.022413222 -0.15633622 0.08916749
000140 c1 f6 b8 3d c8 77 fb 3c 94 d0 b8 bd 42 d6 22 3d
       0.090314396 0.030696765 -0.09024158 0.039755113
000150 9f 66 97 bd ff a8 02 3e 70 58 34 3e 29 55 32 3d
       -0.0739262 0.1275978 0.17611861 0.043538246
000160 d8 26 ec 3d 64 a5 66 3e 94 80 5f bc 6f 93 a6 bd
       0.11530846 0.22524029 -0.013641495 -0.081335895
000170 93 ee ec 3c 81 98 1f 3e 66 ff 94 bc 72 98 dc 3c
       0.028922355 0.1558552 -0.01818819 0.02692816
000180 9f a9 aa 3d 44 5b 8c bd c3 66 0d 3e 46 11 8a bd
       0.08333134 -0.06853345 0.13808732 -0.06741576
000190 b3 17 06 bd f6 c2 6e bb e2 ed a1 3d 9c 83 86 bd
       -0.032737445 -0.0036432124 0.07906701 -0.06568071
0001a0 53 09 e1 3b 3e ea 3c 3e da 94 30 3e 1b 2f ac 3d
       0.0068675666 0.18448731 0.17244282 0.08407422
0001b0 33 4b 43 bd 2a 68 26 bc 00 80 ec bd 6a b9 52 be
       -0.047679137 -0.010156671 -0.115478516 -0.20578542
0001c0 9d 49 29 be ae 89 7d bb c1 2d 2b 3c 75 1a a0 3c
       -0.16531987 -0.00386868 0.01044792 0.019543866
0001d0 eb 46 db bd de 2c af 3d 07 16 59 bd a6 15 cf bc
       -0.10706886 0.085534796 -0.052999523 -0.025278877
0001e0 d5 80 f7 bd 9a 0b 83 3c bf b6 8e 3d b4 e4 29 be
       -0.1208512 0.015996743 0.0696845 -0.1659115
0001f0 2a 61 0a 3e d3 6c 25 3d 59 f8 16 be 0e 17 03 bc
       0.13513628 0.040386986 -0.14743175 -0.008001102
000200 8b 4b dc bd d3 87 2f be 99 01 f0 bd 44 c7 9b 3e
       -0.10756596 -0.17141657 -0.11719055 0.30425465
000210 b4 60 da bd 3a ec 10 be b5 47 9f bc 0d 0e 3a bd
       -0.10662976 -0.14152613 -0.019443372 -0.045423556
000220 32 40 b0 bc 56 3b f7 bd b3 31 81 be ea 8f 2b be
       -0.021514986 -0.12071864 -0.2523323 -0.16754118
000230 e3 8c 14 3d b2 95 d1 bd ad fc 54 3e 77 af 12 3e
       0.036267173 -0.1023363 0.20799513 0.14324747
000240 3d 10 11 be e8 7c 8d bd 30 14 20 38 58 c3 1f 3e
       -0.1416635 -0.069085896 3.8165774e-05 0.15601861
000250 1c da dc bd 70 5b 2f be 76 c9 fa bd 7f ce 20 be
       -0.107837886 -0.17124724 -0.12245457 -0.15703772
000260 a5 14 c7 bd 20 54 48 be 73 ea 34 be c0 46 7d bd
       -0.097207345 -0.19563341 -0.1766756 -0.06183505
000270 fe 7a fc 3d 00 dd 84 be 87 8d ab 3d 5d 48 1d bd
       0.123281464 -0.2594986 0.083766036 -0.03839909
000280 83 6b c3 bd 2e e5 3b 3e 82 7d 0f be f0 90 b8 3d
       -0.095419906 0.18349144 -0.14012721 0.0901202
000290 8b a0 d8 bc 80 8e 16 bd 24 8f 92 be 94 aa 76 3c
       -0.02644374 -0.036756992 -0.28624833 0.015055317
0002a0 91 a5 21 3e 26 c4 59 be 37 4d 4c be e7 99 c1 bd
       0.15785815 -0.21266231 -0.1995133 -0.09453183
0002b0 c7 5e b2 bc 1e a3 0d bd 3a e9 03 3d 6d 33 97 3d
       -0.021773709 -0.03457939 0.032204844 0.073828556
0002c0 57 d7 bc 3d 07 bd 11 be b6 02 74 3d 37 6b 41 bd
       0.0922076 -0.14232264 0.059572898 -0.04722139
0002d0 25 05 47 3e 90 38 65 bc 02 e1 74 bd a3 78 f5 bd
       0.19435556 -0.013990536 -0.059784897 -0.119859
0002e0 e7 49 1b 3e 80 53 c5 3d bb 35 08 be 04 93 2a 3e
       0.1516491 0.09635067 -0.13301747 0.16657645
0002f0 0f cf ca be 6c eb 70 be e6 2c 4f 3e b1 5e ef 3c
       -0.39611098 -0.23527306 0.20231971 0.029219957
000300 99 9a d5 3b b4 25 cc 3c ff 90 c5 bd 37 2c 90 bd
       0.0065186736 0.024920322 -0.096467964 -0.07039683
000310 57 01 12 3d 09 96 3b bd 36 48 d8 3d e4 70 c3 3c
       0.03564581 -0.04579738 0.10560648 0.023857541
000320 7e c1 84 bd e4 49 68 3d a6 6a 91 bc 54 20 ad bc
       -0.06482218 0.056711093 -0.01775105 -0.02113358
000330 0f 3a d7 3c 10 78 99 bd c7 f9 cf bd ce 81 7d 3d
       0.026272802 -0.07493603 -0.10155063 0.06189137
000340 4b 67 d3 3c 99 60 46 bd c1 af 3e bd df 89 a4 3d
       0.02580609 -0.048431966 -0.04655433 0.08034109
000350 98 6c bc bd e2 f8 07 bc 76 c3 14 3e 8f d2 49 bd
       -0.092004 -0.008299084 0.14527687 -0.04927307
000360 c6 4c 31 bd 03 1c ff 3d 6b 91 20 3d b0 c4 90 bd
       -0.043286107 0.12456515 0.03920118 -0.07068765
000370 03 3a 03 bc f5 30 d2 bd 88 30 0d 3d da 8a 44 3d
       -0.008009437 -0.10263244 0.03447011 0.04798398
000380 ee 51 3f bd 9d 3a f9 3c 29 b7 4e 3c dd 9b dd bd
       -0.046708994 0.030423457 0.012616911 -0.10820744
000390 e4 1d 28 bc ab 71 15 3c 82 93 3f 3d c8 bc 17 3d
       -0.010261033 0.009121339 0.046771534 0.03704527
0003a0 6d 13 77 3d 11 4d 08 3e 9c ef 00 3e 92 9e fa 3c
       0.06032126 0.13310649 0.12591404 0.03059319
0003b0 ba 81 c4 3d f6 f8 75 bb 17 dd 41 3d b6 25 85 bd
       0.09595056 -0.0037532425 0.04732999 -0.065013334
0003c0 11 e4 fd bd 2b 4c 1b 3c 02 e4 a1 3d be f6 90 3d
       -0.12397016 0.009478609 0.07904817 0.07078312
0003d0 37 b2 c0 3d 34 b8 57 bd 60 00 53 3c 61 47 a9 3d
       0.09408992 -0.052665904 0.012878507 0.082655676
0003e0 de c1 4f bd 1c 22 48 3d 23 2c cb bb ee cf a1 bc
       -0.050721996 0.048860654 -0.00620033 -0.019752469
0003f0 01 4c 71 bd 4f f6 23 3d d9 2b fa 3c 4d c9 c4 bd
       -0.058910374 0.04002982 0.030538486 -0.096087076

f.4.bias f4 [64]
000000 20 0d 1e 3d 3b 31 1b 3e 1e 53 e9 bd bc bd 1b bb
       0.038586736 0.15155499 -0.113928065 -0.0023764214
000010 d7 be e7 bd ed e5 d2 bc 24 4f 14 be df c9 ae 3d
       -0.11315697 -0.025744403 -0.14483315 0.085345976
000020 49 9c e1 3d 67 1a 09 be 60 65 23 3e c5 b6 df bc
       0.11016137 -0.13388978 0.1595664 -0.027308831
000030 3e f3 49 3e d8 36 3d be d1 f8 c9 bd 10 42 1c 3e
       0.19721696 -0.18477952 -0.09861911 0.15259576
000040 ba ea da bd 85 b8 c2 3d 30 32 61 3d 1a c5 95 3e
       -0.10689302 0.095078506 0.054979503 0.2925194
000050 30 91 94 3e 63 4d 36 3d 15 6d 4e 3d eb e2 06 3b
       0.2901702 0.044507395 0.050396997 0.002058203
000060 85 de 3e 3d e2 29 fd bd 07 97 96 bd 38 74 4e 3e
       0.04659893 -0.12361504 -0.07353025 0.20161521
000070 da 95 61 3e 97 df 4a 3d 54 90 03 3e 59 2b 1a be
       0.2202982 0.04952964 0.12848026 -0.15055598
000080 93 d8 5c 3d 03 be fa 3d 13 0e c5 bd db 0e fa 3c
       0.05391748 0.12243273 -0.09621825 0.030524662
000090 d0 bf 8d be 1f c2 61 3e 74 9e 16 be d8 6c a6 3d
       -0.27685404 0.22046708 -0.14708883 0.08126229
0000a0 23 ec 7a be 54 15 b6 bd 48 29 b3 3e 5e 26 8b be
       -0.24504142 -0.08890787 0.34992433 -0.2717771
0000b0 02 75 76 3c f7 b0 c2 3c 25 46 43 3e 11 46 92 be
       0.015042545 0.023766024 0.19069727 -0.2856908
0000c0 49 67 79 3d 96 3f 17 3e 76 88 07 3e e1 87 97 bd
       0.060889516 0.1477035 0.1323565 -0.07398964
0000d0 34 66 82 3e 2b 1a 31 3e 8d fe 31 3d 39 e2 0b bd
       0.254686 0.17295139 0.04345565 -0.03415129
0000e0 7e 31 47 3e 28 c8 f1 bd d5 d8 7d 3e 97 6b 35 3e
       0.19452474 -0.11805755 0.24789746 0.17716824
0000f0 b6 45 a4 3e 46 34 8e 3c 38 0b 84 3d d1 18 64 3e
       0.32084435 0.01735891 0.06447452 0.22275092

f.6.weight f4 [64, 64]
000000 03 00 09 be 66 ec 70 3d f5 ec ef bc 6c f8 47 bc
       -0.1337891 0.058819197 -0.029287795 -0.0122052245
000010 18 a0 b6 3c 43 84 df 3d 66 4c 35 be ec 24 7a bc
       0.022293136 0.10913899 -0.17704925 -0.015267592
000020 c4 c0 f1 3d ac 31 5c be ed 39 9f 3d d9 48 3a 3e
       0.11804345 -0.21503323 0.0777472 0.18191852
000030 27 9b 47 3e 90 29 f9 bd e5 d1 29 be 42 14 41 3d
       0.1949278 -0.121661305 -0.16583975 0.04713846
000040 0d 33 7b bc 4b a7 dd bd 93 dc 85 be 06 d6 ca 3d
       -0.015331996 -0.10822924 -0.26144847 0.09904103
000050 24 d3 25 3d af 57 86 bd 43 8a 90 be 58 76 68 be
       0.040484563 -0.06559693 -0.28230485 -0.22701395
000060 36 b9 80 be af fc bb 3d ee d6 73 bd 03 14 6b 3d
       -0.25141305 0.09179055 -0.059531145 0.05739213
000070 6c c3 2a 3e 55 58 40 bd 3a 9d b3 bd e8 69 dc bd
       0.1667611 -0.04695924 -0.08770223 -0.107623875
000080 b6 14 4a be d1 fb 11 3d 85 a8 8a 3e 0d 2e f5 3d
       -0.19734463 0.03564054 0.27081695 0.11971674
000090 4a b8 d3 bd a4 9c 40 3e ce 29 65 bd 9c 08 e9 bd
       -0.10337885 0.18809754 -0.05594807 -0.11378595
0000a0 3c bf 06 3d 4c 42 bb ba a8 49 7a 3d a9 d0 54 bd
       0.03289722 -0.0014286726 0.0611054 -0.051956806
0000b0 c6 51 03 be 1c 38 07 be 54 18 21 3e 42 d3 f6 bc
       -0.12824163 -0.13204998 0.15731937 -0.030130032
0000c0 ec ea f7 3d 42 f0 cd 3b 89 a9 27 3d c9 a3 84 3d
       0.12105355 0.0062847445 0.040933166 0.06476552
0000d0 cd 02 25 3e 5b c8 06 be 8d e4 04 3e 54 fc 40 3e
       0.1611435 -0.13162367 0.1297781 0.18846256
0000e0 59 65 45 3d a9 44 c1 bd 0d 2c 28 3e b4 47 db 3c
       0.048192356 -0.09436924 0.16423054 0.02676759
0000f0 11 36 de 3d 95 bb 6e bd a5 db 5a be 43 25 34 3e
       0.10850156 -0.05828436 -0.2137285 0.17592339
000100 c4 65 40 3e 45 86 0b be 54 c1 72 3e a8 07 8f be
       0.1878882 -0.13625439 0.23706561 -0.2793553
000110 f2 2d 87 bd f3 35 8d be ed cc 71 3e 8e 3b 11 be
       -0.0660056 -0.27580222 0.23613329 -0.14182875
000120 dc 37 29 bd 9b 8a 24 3d 83 1d bf 3d 6e 37 4c be
       -0.041313037 0.040171247 0.09331801 -0.1994302
000130 cb ea c4 bc d4 0b 5b 3d cb 80 89 3d 85 8c 93 bc
       -0.02403774 0.053478077 0.067140184 -0.01801134
000140 93 ac 8c 3d ca 6a 1e 3e 2e ee 7e 3e 4f e7 9c be
       0.068688534 0.15470424 0.24895546 -0.30645224
000150 f0 5c e6 bd 65 b1 b3 3c 20 52 38 3e fa 82 1c 3e
       -0.11248195 0.021935174 0.18000078 0.15284339
000160 22 49 7a 3e 39 1d 5f bd 17 53 91 3b 74 b6 eb 3d
       0.2444196 -0.05447123 0.004434954 0.115094095
000170 00 cb 80 be 2c da 7b bd 33 cf ee bd 81 4a 80 3e
       -0.25154877 -0.06148736 -0.11660614 0.25056842
000180 84 43 a4 3e 88 c1 57 be ee d1 31 be 86 0b e1 bd
       0.3208276 -0.2106992 -0.17365238 -0.10988526
000190 56 37 99 3e 59 97 bf bd 5b 90 a5 3c 7e 3f 3d 3e
       0.2992503 -0.09355039 0.020210436 0.18481252
0001a0 0b 1f 4b bc 54 e0 36 bd ce 8a 8d bc 12 9c 8b 3e
       -0.012397538 -0.04464753 -0.017278101 0.2726751
0001b0 da 4a fb 3d a3 74 86 3e 7f cf 84 be 27 59 e2 bc
       0.12270136 0.26260862 -0.25939557 -0.027630402
0001c0 4b 24 a0 3d 41 ce e7 bd 9f 0e 3b be 67 b8 3f 3d
       0.07819422 -0.11318637 -0.18267296 0.04680672
0001d0 e3 6f 47 be b5 9f 86 3d b8 20 97 bd 2d 90 26 bd
       -0.19476275 0.065734304 -0.073792875 -0.04066484
0001e0 5d a3 c4 3d a3 94 ab 3d f8 3d 91 bc 43 17 ea bc
       0.096014716 0.083779596 -0.017729744 -0.028575545
0001f0 ba ff c1 bd 9a 6d 8b 3d 3d b7 58 3d 7d 38 7a be
       -0.09472604 0.06808014 0.052909125 -0.24435611
000200 65 b8 2b 3e 4f 2b 64 3d 93 ef 03 3e 0b d8 fd bd
       0.1676956 0.055705365 0.12884359 -0.123947226
000210 0b 59 ca be 74 88 a2 bd f0 0c 85 bc 32 53 23 3e
       -0.3952106 -0.079361826 -0.01624152 0.15949705
000220 fb 50 62 bb c4 02 02 bc b2 ab 81 3e 48 fc f0 bd
       -0.0034533131 -0.00793523 0.25326306 -0.11766869
000230 7f 15 94 3d 88 8f a0 bd 6d 2b 0c 3e ee 92 b4 3e
       0.072306626 -0.078398764 0.1368844 0.35268348
000240 2b 2d 2b 3b e1 cb ac 3e 1b 35 92 3d e7 65 bd 3d
       0.0026119452 0.33749297 0.07139035 0.09247952
000250 55 81 d5 3e 4d 9e 89 3d dc 06 9b 3d 70 86 db bb
       0.41700235 0.067196466 0.07569668 -0.006699376
000260 09 df 88 3e 5f 91 61 be b2 5b b6 be 42 97 93 3e
       0.26732662 -0.22028111 -0.35616833 0.28826338
000270 de 50 02 3d bc e3 af 3e 49 16 d6 3e e7 75 ae 3b
       0.031815402 0.34353435 0.41813877 0.0053241136
000280 e7 13 94 3d 57 02 38 bc ee 52 40 bc 14 5c 0c be
       0.072303586 -0.011231027 -0.011738522 -0.13707
000290 18 1a e0 bc c4 63 12 3d 68 c4 50 be 24 ea 35 3d
       -0.027356192 0.035739675 -0.20387423 0.044412747
0002a0 32 53 97 be d8 b4 f5 bd ea 5d e1 3e a9 46 a5 3d
       -0.2955566 -0.11997384 0.44016963 0.08070118
0002b0 08 91 2e 3e 60 46 13 3e 63 5a 17 bc 2b 47 8a be
       0.17047513 0.14382315 -0.0092378585 -0.27007422
0002c0 29 0b 2a 3e d6 ba be 3d 9c 0d 8a bd 54 24 c5 3d
       0.1660582 0.0931298 -0.06740877 0.0962607
0002d0 e7 0b 3e 3d 48 e2 b9 3e 4a f5 f9 bd 3b aa 29 be
       0.04639807 0.3630545 -0.12204988 -0.16568844
0002e0 7a 9b f6 3d 97 94 95 3b e2 b9 dd bd c9 97 4d 3d
       0.120413736 0.0045648324 -0.1082647 0.05019358
0002f0 b9 59 a8 3d 2a ad e3 3c 1a 75 4c 3e 3a e8 84 bd
       0.08220238 0.027792532 0.19966546 -0.06489606
000300 70 c1 a3 bd 7a 63 d9 3d a6 eb 34 be 4f 5c 71 bc
       -0.0799588 0.10614677 -0.17668018 -0.014731481
000310 1a 05 79 3d 64 ec 5e 3d 6d 41 31 bc d8 da da bc
       0.06079588 0.05442466 -0.010818821 -0.026715681
000320 94 b3 d5 bc bb 9e 3c be a1 75 50 3d 6e ac 0b 3e
       -0.026086606 -0.18419926 0.05089343 0.13639995
000330 f8 e9 68 bd 2b a7 29 be e1 a0 08 be c5 ea 61 3d
       -0.056863755 -0.16567676 -0.1334262 0.055155534
000340 23 de 94 3a ac 5f 5c bc 5a 3c 7d bb a7 40 92 3d
       0.0011357706 -0.013450544 -0.0038640709 0.07141238
000350 9f c3 52 bc bf 92 01 be e0 f8 ab 3c 3a 03 95 bc
       -0.0128640225 -0.12653635 0.020992696 -0.018190015
000360 29 0e 4e bd 30 92 d1 3d db 7e 06 3d 67 41 19 be
       -0.050306473 0.10232961 0.032835823 -0.14966355
000370 c6 b3 53 3d 0a 05 1c be 8f fe ef bd 87 f6 b3 bc
       0.051685117 -0.15236297 -0.11718475 -0.02196814
000380 6b a3 6a bd 76 8d 6b 3d 39 68 01 3e b7 0e e2 bc
       -0.057284754 0.057507955 0.12637414 -0.027594907
000390 b5 fd 0b be d9 04 1d bd 76 c8 5b 3e 25 91 44 be
       -0.13671 -0.0383347 0.21463189 -0.19195993
0003a0 e4 d0 17 3e cb d1 13 3e 96 8a 28 be 27 8f c7 bd
       0.14825779 0.14435498 -0.16459116 -0.09744101
0003b0 cd 5c 24 3d 62 da 1d be 21 f9 67 bd dd 29 1f 3d
       0.040127564 -0.15415338 -0.056634072 0.038858283
0003c0 66 f2 b3 bd e7 33 0b 3d 71 1f a3 3d b5 92 2e 3b
       -0.08786468 0.033985045 0.07964981 0.0026637737
0003d0 88 e6 02 3e e3 c0 03 bd 9f 38 0b 3e 97 53 1a 3c
       0.12783253 -0.032166373 0.13595818 0.009419343
0003e0 c4 67 55 bd 62 85 a7 bc 75 27 ec 3d 50 f1 3c 3d
       -0.05210091 -0.020449344 0.11530963 0.04612857
0003f0 55 20 29 3e 51 4d 3a be f0 fc d8 bd 1c 38 54 bd
       0.1651624 -0.18193556 -0.10595119 -0.051811323

f.6.bias f4 [64]
000000 ec f5 67 3d 87 50 62 be c4 75 2d 3e bb db 98 bd
       0.056631014 -0.22101031 0.16939455 -0.07463785
000010 fd 07 33 3d 95 e4 89 bd 3a 5b 20 be 6e 17 da bc
       0.04370879 -0.06733052 -0.156598 -0.0266225
000020 03 92 7c 3b b1 da 77 3d cd a8 23 3e c0 fa 04 3d
       0.0038539178 0.060511295 0.15982361 0.032465696
000030 a9 02 3e 3e 91 c4 36 3d 0f f9 02 3e 6e b6 45 39
       0.18555702 0.044621054 0.12790321 0.00018855344
000040 4a 78 2d bd 05 3e bc bd b1 7d 1a 3e 0a ee e3 bc
       -0.042351045 -0.09191517 0.1508701 -0.027823467
000050 65 8a 40 bd 41 25 33 b9 f7 c7 14 3d 32 0d 16 3d
       -0.047006983 -0.00017084648 0.036323514 0.036633678
000060 e5 78 9b 3d 33 13 37 3d 43 89 14 3c e2 1a 0e 3e
       0.07591418 0.044696044 0.009065929 0.13877442
000070 71 dc 4c 3d a2 ad 37 3d e0 13 91 bd 49 3c 3b 3d
       0.050014917 0.044843324 -0.07083869 0.04571179
000080 42 5f db bd 5b fe 2a 3d b1 c2 16 3e 37 dc 4c 3d
       -0.10711528 0.04174648 0.14722706 0.0500147
000090 58 94 9c 3d ce 7a 80 bd b6 9a a7 bd 0b d2 01 bd
       0.07645482 -0.06273423 -0.08183806 -0.031694453
0000a0 8c b6 3c 3d c5 46 dd be 25 2d 97 3e d0 9b 03 3e
       0.046072528 -0.43218055 0.2952663 0.12852407
0000b0 36 84 e2 bd a3 75 28 be 5a cf 90 bd 2c 4f 97 3c
       -0.110603735 -0.16451125 -0.07070799 0.01847037
0000c0 fb de a9 bd 68 a6 4b be 96 7b 23 bc f7 d3 6d 3d
       -0.08294483 -0.19887698 -0.009978196 0.058063474
0000d0 69 e1 c3 3d 2d 0e 0b 3e a1 47 ed bd bb 09 ae 3d
       0.09564478 0.13579626 -0.11585928 0.0849795
0000e0 76 f8 f3 bc af 14 a2 3d ed f0 5d 3e f3 05 38 be
       -0.029781561 0.07914101 0.21673937 -0.1797102
0000f0 c0 bb 5a bd 9d 9a 8c be c8 b2 e8 3b e2 c6 61 bd
       -0.05340171 -0.2746171 0.0071013905 -0.05512131

f.8.weight f4 [1, 64]
000000 a7 a3 32 bf 3d eb 7d 3f e9 69 3c 3f 2d cb 33 bf
       -0.69780964 0.9918707 0.73599106 -0.70231897
000010 ee b8 07 3f 0d 65 30 bf 20 40 61 3f a4 0c 0c bf
       0.53016555 -0.6890419 0.8798847 -0.5470679
000020 24 0e 24 3f 5a 20 23 3f 12 c6 33 bf b9 a2 17 3f
       0.64084077 0.6372124 -0.70224106 0.5923267
000030 72 89 51 3f 7a 06 12 3f 53 61 8a 3f 7c 02 13 3f
       0.8185035 0.5704113 1.0810951 0.57425666
000040 87 7e 1d 3f cb 7d 3c 3f b9 dc 58 bf c9 e2 18 bf
       0.6152119 0.73629445 -0.84711796 -0.59721047
000050 a1 cf 22 3f 8d 30 50 3f c4 83 25 bf 7e 1e dc 3e
       0.63598067 0.8132408 -0.64654183 0.42992014
000060 2e 62 2d 3f a7 e0 21 3f 58 ae 09 3f 2b e3 4d bf
       0.67727935 0.6323342 0.5378165 -0.80424756
000070 64 95 58 bf 71 08 13 3f 05 58 09 bf f7 29 04 bf
       -0.8460295 0.57434756 -0.5364993 -0.51626533
000080 02 45 28 bf c3 16 5a 3f b9 9b 5e 3f 4b 33 22 bf
       -0.657303 0.8519098 0.86956364 -0.63359517
000090 2a 1c 6f 3f 90 53 24 3f a7 9e 59 3f 0d 75 19 3f
       0.9340235 0.64190006 0.8500771 0.5994423
0000a0 7f 27 2c bf 6e f0 49 3f 17 55 18 3f d0 f9 f9 3e
       -0.67247766 0.7888249 0.59504837 0.48823404
0000b0 3a d7 f3 3e 67 95 33 3f 26 dd 12 3f a4 53 1c bf
       0.47625142 0.70149845 0.57368696 -0.61065125
0000c0 89 0a 17 3f 15 53 24 3f 5a 3d 05 bf 49 cd 32 bf
       0.5900045 0.64189273 -0.5204674 -0.6984449
0000d0 46 cb d3 be 3c 87 10 bf 3b 9c 1d bf a2 67 36 3f
       -0.41366023 -0.5645635 -0.61566514 0.7125188
0000e0 83 6a 0e bf 73 34 06 3f 36 1e 13 bf 31 9a 19 3f
       -0.55631274 0.5242378 -0.57467973 0.600009
0000f0 fa 7a 01 3f 7f d8 1c bf a7 27 f2 be 41 d7 0d bf
       0.5057827 -0.61267847 -0.47295877 -0.55406576
