trained_models/find_alpha/alpha_param.pt (torch, 54407 bytes, 9 tensors)

f.0.weight f4 [64, 5]
-0.021444093 0.07037511 -0.15658475 -0.15657973 -0.16199408 0.046957757 0.074757665 0.21193479
-0.05299064 0.22956336 0.0732145 0.008037453 -0.24923697 -0.08839007 -0.037000947 0.016694715
0.103589825 0.18155104 -0.2135471 0.043245584 -0.049653266 0.11469141 -0.018998954 0.07111303
-0.017123122 0.110291876 0.13509549 -0.22396524 -0.1432076 -0.12669748 -0.045304883 0.17000002
-0.123404406 -0.085464366 -0.11228229 -0.16163474 -0.07339292 0.22646403 0.06649406 -0.018699743
-0.02864931 -0.11464653 0.086051956 -0.34121224 -0.23485471 -0.10443739 0.12452599 0.13238074
-0.075937614 0.037684515 0.18245304 0.17689608 0.06443299 0.075559415 0.07513713 -0.11140594
0.009827888 -0.20812427 -0.119298026 -0.10413623 0.05986832 0.053649135 -0.1406744 0.073857404
-0.0034899518 0.035154287 0.0273201 0.11641058 0.09796028 0.6674653 -0.25470343 -0.07966119
0.067744024 0.14966005 0.20082282 0.17847231 0.026775388 -0.20852685 0.038972713 -0.22503395
-0.50628924 0.2591378 0.15255028 -0.3906446 0.05826717 -0.023446163 0.021623403 -0.16256726
-0.060671065 -0.09182355 0.086376354 0.109589614 0.17438196 0.07398346 0.10083751 -0.15966144
0.14025038 0.08745193 -0.3000903 -0.17947504 0.13859124 0.089592405 -0.04413711 -0.057095528
-0.48336405 0.052579563 -0.07929386 -0.24194498 0.027099105 -0.04781743 -0.011559397 0.20645383
-0.17448053 0.25388578 0.11559493 -0.29947573 -0.08865604 -0.01832171 0.07708792 0.021237291
-0.041182492 0.062702544 -0.08160052 0.038500573 -1.2333777 -0.0049288254 -9.888245e-05 -0.051651195
-0.03616697 -0.5714284 -0.06524107 -0.020814935 -0.14223239 -0.015028433 0.036212537 0.00048645597
-0.08198653 -0.05257402 -0.004446846 0.028574003 0.25083163 0.17289132 0.15312633 -0.19707625
-0.29906338 -0.114868104 0.091524646 0.057002693 -0.14263543 -0.6763013 -0.23287086 -0.19872
-0.021504736 0.010232971 -0.02971708 -0.21119817 0.14254697 -0.14366166 -0.13310628 -0.081438504
-0.13029043 -0.081887804 -0.18750864 -0.14303531 -0.09969795 0.034630857 -0.007974157 0.13556089
-0.23885854 -0.22638065 0.0049161897 -0.007863057 0.038403664 -0.065995164 -0.22785206 0.07850121
0.09114513 -0.057534568 0.16012274 -0.6192469 -0.012170109 0.018751003 0.18175873 0.08206269
-0.0006921622 -0.06292346 -0.04365826 0.0147466315 -0.1171233 0.12625039 0.16280045 0.09261293
-0.22821102 -0.01233059 -0.14827235 -0.1812092 -0.045338806 0.019678865 -0.11402363 0.19027342
0.062067576 0.10270421 -0.22335573 -0.15439017 -0.15775867 0.06460378 -0.003722889 0.17828502
0.12450799 0.06527872 -0.06100023 -0.110013545 0.16140579 0.07835797 -0.0062558833 -0.016083937
-0.21183427 -0.060647268 0.11898423 -0.12180127 0.034222484 0.32704568 0.021778561 0.029812576
-0.020962568 0.15639505 -0.0770402 -0.16170949 -0.056247663 -0.055392645 0.04313379 0.16266054
0.036584504 0.25078443 0.19723545 -0.045176066 0.0726851 -0.22321177 -0.13091765 -0.050033335
0.053633153 0.11713881 -0.15912138 -0.08952985 -0.03362383 -0.22167714 0.11269309 -0.09080816
0.06715889 -0.060687244 -0.12625082 0.056583323 0.14051874 -0.23934604 -0.059585553 -0.13265891
00000000: 86ab afbc d320 903d c157 20be 7056 20be
00000010: c7e1 25be c756 403d 8c1a 993d 6f05 593e
00000020: b70c 59bd a812 6b3e 7cf1 953d 85af 033c
00000030: fa37 7fbe da05 b5bd 4e8e 17bd 5bc3 883c
00000040: e726 d43d 84e8 393e 17ac 5abe 4822 313d
00000050: 3961 4bbd 54e3 ea3d b2a3 9bbc b5a3 913d
00000060: ca45 8cbc b5e0 e13d 7956 0a3e 2557 65be
00000070: 03a5 12be fcbc 01be 9d91 39bd 7c14 2e3e
00000080: 73bb fcbd f107 afbd 42f4 e5bd 9483 25be
00000090: 074f 96bd 30e6 673e 0a2e 883d 3430 99bc
000000a0: f5b1 eabc cdcb eabd 023c b03d 5fb3 aebe
000000b0: c17d 70be 45e3 d5bd 7b07 ff3d d18e 073e
000000c0: 2e85 9bbd 145b 1a3d f8d4 3a3e 3f24 353e
000000d0: 72f5 833d e5be 9a3d 7fe1 993d cc28 e4bd
000000e0: 2605 213c 871e 55be 8652 f4bd 6045 d5bd
000000f0: 7c38 753d 32bf 5b3d f30c 10be 8d42 973d
00000100: adb7 64bb f1fd 0f3d 67ce df3c ac68 ee3d
00000110: 669f c83d 02df 2a3f 7d68 82be 6825 a3bd
00000120: 61bd 8a3d 7c40 193e 7fa4 4d3e 72c1 363e
00000130: 0f58 db3c 1088 55be daa1 1f3d 4d6f 66be
00000140: 2c9c 01bf b6ad 843e 2436 1c3e 9202 c8be
00000150: 8ea9 6e3d 2b12 c0bc 9023 b13c 0878 26be
00000160: 3982 78bd fc0d bcbd 16e6 b03d 8570 e03d
00000170: 2f91 323e a484 973d e583 ce3d 4a7e 23be
00000180: cc9d 0f3e ff19 b33d 70a5 99be 4ec8 37be
00000190: ddea 0d3e 397c b73d 1dc9 34bd 00dd 69bd
000001a0: 7e7b f7be ab5d 573d d264 a2bd 6dc0 77be
000001b0: f1fe dd3c 36dc 43bd a063 3dbc a268 533e
000001c0: 06ab 32be 51fd 813e 09bd ec3d e254 99be
000001d0: 4c91 b5bd 6917 96bc 45e0 9d3d d4f9 ad3c
000001e0: f9ae 28bd 316a 803d 2c1e a7bd c7b2 1d3d
000001f0: 52df 9dbf fc81 a1bb 1c5f cfb8 3490 53bd
00000200: d123 14bd 2249 12bf 1c9d 85bd 1584 aabc
00000210: 5ea5 11be d139 76bc 9953 143d 040b ff39
00000220: 8ee8 a7bd db57 57bd d9b6 91bb 0714 ea3c
00000230: 016d 803e 6c0a 313e 26cd 1c3e 5bce 49be
00000240: d61e 99be f83f ebbd 4671 bb3d a87b 693d
00000250: 060f 12be 1522 2dbf b375 6ebe 417d 4bbe
00000260: b32a b0bc 31a8 273c 3c71 f3bc 5544 58be
00000270: d5f7 113e 0b1c 13be 034d 08be 3bc9 a6bd
00000280: db6a 05be cbb4 a7bd 4402 40be d977 12be
00000290: 702e ccbd 16d9 0d3d 0aa6 02bc 79d0 0a3e
000002a0: 5597 74be 54d0 67be fd17 a13b 0dd4 00bc
000002b0: 294d 1d3d 7928 87bd 0d52 69be 3ec5 a03d
000002c0: 4caa ba3d 5ea9 6bbd 37f7 233e f786 1ebf
000002d0: 2365 47bc b49b 993c f61e 3a3e 7c10 a83d
000002e0: 3872 35ba 04de 80bd 01d3 32bd db9b 713c
000002f0: 57de efbd c847 013e 29b5 263e d9ab bd3d
00000300: 26b0 69be 3e06 4abc b5d4 17be e88e 39be
00000310: 2fb5 39bd 9235 a13c 3985 e9bd 09d7 423e
00000320: 923a 7e3d 9656 d23d 5db7 64be 7518 1ebe
00000330: 7d8b 21be fd4e 843d b7fb 73bb 5990 363e
00000340: 0cfe fe3d d9b0 853d 61db 79bd c84e e1bd
00000350: 8f47 253e 257a a03d 27fe ccbb 76c2 83bc
00000360: 15eb 58be 4569 78bd 01ae f33d f272 f9bd
00000370: e02c 0c3d 8872 a73e f468 b23c 8139 f43c
00000380: b1b9 abbc 0626 203e 41c7 9dbd 2c97 25be
00000390: f363 66bd 66e3 62bd 0fad 303d 7c90 263e
000003a0: a2d9 153d d166 803e 17f8 493e 8a0a 39bd
000003b0: eddb 943d a091 64be 470f 06be c1ef 4cbd
000003c0: 70ae 5b3d 79e6 ef3d b7f0 22be 6d5b b7bd
000003d0: 24b9 09bd 55ff 62be a3cb e63d a1f9 b9bd
000003e0: 9a8a 893d 3093 78bd e547 01be eac3 673d
000003f0: 25e4 0f3e 2117 75be fb0f 74bd bdd7 07be

f.0.bias f4 [64]
0.26207566 0.024347898 -0.5980135 0.13295913 0.07466002 0.641225 0.62244874 0.23570025
0.2231412 -0.3701235 -0.48234895 -0.554853 0.6517082 0.2612534 -0.42264608 0.36804414
0.20532008 0.71928716 0.52005744 0.31775838 -0.25098854 -0.37128854 0.34196213 0.41291586
-0.18969238 0.66691464 0.31679213 0.27298442 -0.25219515 0.10565153 -0.27230266 0.46592054
-0.15472369 0.24715267 -0.0042316434 0.19044709 -0.32941326 0.12427384 -0.62300813 -0.17397974
-0.5036525 -0.7006517 -0.63202906 0.5032935 0.28016788 0.6241257 0.38497704 -0.5710734
-0.507197 -0.2582992 -0.4025535 0.41638166 -0.5183939 -0.3041728 -0.6387617 -0.55709267
0.43499607 0.6618858 0.45024556 0.494768 0.588798 -0.075228676 0.32472903 0.62062687
00000000: c82e 863e 3e75 c73c 6a17 19bf 7026 083e
00000010: 5ae7 983d 5227 243f cd58 1f3f 685b 713e
00000020: 207f 643e d480 bdbe 71f6 f6be d90a 0ebf
00000030: 59d6 263f 01c3 853e 1165 d8be 4870 bc3e
00000040: 6d3f 523e 3423 383f 7c22 053f 3ab1 a23e
00000050: 9281 80be 8819 bebe a915 af3e b569 d33e
00000060: b83e 42be ebba 2a3f 9432 a23e 9dc4 8b3e
00000070: b91f 81be d45f d83d 416b 8bbe 238d ee3e
00000080: e36f 1ebe 9715 7d3e 99a9 8abb 9004 433e
00000090: dba8 a8be 4883 fe3d 767d 1fbf bf27 32be
000000a0: 5fef 00bf e95d 33bf a8cc 21bf d8d7 003f
000000b0: 2a72 8f3e b4c6 1f3f b61b c53e de31 12bf
000000c0: aad7 01bf cb3f 84be 7e1b cebe fa2f d53e
000000d0: 76b5 04bf 8abc 9bbe e385 23bf a09d 0ebf
000000e0: ceb7 de3e 5971 293f 9686 e63e 3b52 fd3e
000000f0: 77bb 163f 7e11 9abd e242 a63e 67e1 1e3f

f.2.weight f4 [64, 64]
0.021765485 0.09988003 0.031808972 -0.019476471 -0.12784396 0.0414066 -0.021315545 0.026755525
-0.020109031 -0.046015818 -0.13232444 0.04707253 0.08627615 -0.0036692384 0.004378407 0.0036249293
0.027405692 0.02346949 -0.039726153 0.0031807548 -0.0069369166 -0.06911712 0.11742129 0.0710376
-0.025986895 0.13983837 -0.0746307 0.005925942 0.074636094 -0.031755105 0.036495853 -0.11248371
-0.055217892 -0.12404136 0.014375449 0.13641179 0.036281426 -0.17537247 -0.029686593 0.15965617
0.013329681 -0.11568066 -0.041674685 -0.0756218 -0.0049293013 0.027087947 -0.08651592 0.019333685
0.11280613 -0.024381196 -0.117495336 0.056391757 0.011523246 -0.02883816 0.061886214 -0.17863116
-0.21711011 -0.10379805 -0.018350556 0.0063870964 -0.11003554 0.13230613 -0.026566263 0.0820544
-0.0018131577 -0.1272897 0.06976619 0.11242524 0.14945766 0.111606725 -0.008005748 0.13348663
0.0042094216 0.07499063 -0.15542834 -0.08307929 -0.09138114 -0.026221655 -0.01401101 -0.1059456
-0.0766709 0.37018386 0.06878944 -0.09526997 -0.12499044 -0.06779216 0.1320188 0.1515393
-0.024293773 0.076942764 0.051368367 -0.09437327 -0.113019615 -0.107629925 -0.11833564 0.020318447
-0.10896811 -0.018319989 -0.038564432 0.10296945 -0.061592307 0.15525666 0.022366025 0.11424961
-0.03961492 -0.18472193 -0.38197637 0.021770248 0.12681782 0.06703535 0.14764404 -0.048330724
-0.1150597 -0.12095158 0.11352861 0.15217134 -0.18672912 0.004903904 0.027905924 0.016927589
0.12005661 0.044437505 0.07246187 0.086633764 0.1699458 0.012082697 -0.06544333 0.18193117
-0.06023688 -0.03722668 -0.02539505 0.018147387 -0.048046954 -0.016568502 0.062201068 -0.014559355
0.04647935 -0.031680185 0.0036039588 -0.1290779 -0.08375956 -0.028112851 0.10213427 -0.015208687
-0.026665458 -0.07174385 0.12952496 0.09973497 -0.07553524 -0.13124605 -0.011969388 -0.023811636
-0.044453166 -0.14515944 -0.07108866 0.0980915 -0.09269825 0.041120604 0.007103711 -0.05590642
0.0034372408 0.07040025 -0.043927286 0.0050602667 -0.020075426 0.10086657 -0.13962407 -0.10167847
0.0820308 -0.055236895 0.080326796 0.022008445 -0.0641331 -0.0335036 0.08749616 -0.07857649
-0.21595794 -0.0856112 -0.058520433 0.053987864 -0.086517215 0.124928944 -0.038989823 -0.08123831
0.11551295 0.09623448 0.16615956 0.096391805 -0.055759747 -0.045505457 0.0015741604 0.18859437
-0.0428599 -0.10205968 0.09882431 0.13454717 -0.08763115 -0.18968813 -0.20912066 0.0058467668
-0.040098283 0.08952713 0.14288253 0.10460082 -0.03900588 0.058587052 -0.039770022 -0.1572567
-0.085215025 -0.17150426 0.0002612792 0.07410288 -0.034369417 0.12422362 0.12868801 0.017312434
-0.0828173 -0.16446231 -0.19480145 -0.040140934 -0.06751138 0.059242677 0.0047499817 -0.04798795
-0.037385497 -0.019426128 -0.01725015 -0.121229075 0.1925865 -0.07765755 0.12910613 0.10588309
0.11477574 0.21214895 0.5010681 -0.08148909 -0.016115049 -0.07931256 0.0035007652 -0.07041033
0.01295805 -0.022809613 0.20881629 -0.089551754 0.008227484 0.061822996 0.111115426 0.10627103
0.0282181 -0.08881531 0.01969881 -0.06692944 -0.27380496 -0.06257705 -0.13581398 -0.0693144
00000000: 884d b23c e78d cc3d 204a 023d 1f8d 9fbc
00000010: 87e9 02be f899 293d f09d aebc 672e db3c
00000020: b2bb a4bc 157b 3cbd 0f80 07be 20cf 403d
00000030: 8db1 b03d 9b77 70bb bd78 8f3b 3990 6d3b
00000040: e781 e03c 1743 c03c e4b7 22bd 3674 503b
00000050: 134f e3bb 478d 8dbd 937a f03d 297c 913d
00000060: 78e2 d4bc ca31 0f3e fbd7 98bd 682e c23b
00000070: cfda 983d a411 02bd ad7c 153d dc5d e6bd
00000080: 282c 62bd 6609 febd 0187 6b3c 88af 0b3e
00000090: d59b 143d d794 33be 4c31 f3bc e87c 233e
000000a0: bc64 5a3c fbe9 ecbd 13b3 2abd 9adf 9abd
000000b0: fa85 a1bb 8be7 dd3c 422f b1bd ad61 9e3c
000000c0: e606 e73d 13bb c7bc 65a1 f0bd 0bfb 663d
000000d0: ffcb 3c3c 013e ecbc 667c 7d3d 16eb 36be
000000e0: 1d52 5ebe 1294 d4bd e853 96bc d94a d13b
000000f0: 505a e1bd 427b 073e 7ea1 d9bc 230c a83d
00000100: 7aa7 edba 3b58 02be 94e1 8e3d 343f e63d
00000110: 6e0b 193e 1192 e43d 8a2a 03bc b8b0 083e
00000120: 30ef 893b b094 993d 9b28 1fbe 7a25 aabd
00000130: 0926 bbbd ccce d6bc 6f8e 65bc 02fa d8bd
00000140: a205 9dbd bd88 bd3e 7ae1 8c3d e71c c3bd
00000150: fdfa ffbd 9ed6 8abd f02f 073e 1e2d 1b3e
00000160: bc03 c7bc 2b94 9d3d a367 523d c646 c1bd
00000170: d476 e7bd 146d dcbd f559 f2bd df72 a63c
00000180: ac2a dfbd cd13 96bc bdf5 1dbd a6e1 d23d
00000190: 3748 7cbd 9afb 1e3e f438 b73c b3fb e93d
000001a0: 4143 22bd bf27 3dbe 6892 c3be 8557 b23c
000001b0: 88dc 013e d449 893d 0030 173e 70f6 45bd
000001c0: 6ca4 ebbd 76b5 f7bd b081 e83d ced2 1b3e
000001d0: eb35 3fbe eeb0 a03b f79a e43c baab 8a3c
000001e0: 3de0 f53d 1a04 363d e466 943d 0b6d b13d
000001f0: 4606 2e3e 81f6 453c 2707 86bd 2a4c 3a3e
00000200: f2ba 76bd 017b 18bd 4809 d0bc d4a9 943c
00000210: e2cc 44bd abba 87bc 8cc6 7e3d 5c8a 6ebc
00000220: 2261 3e3d 15c3 01bd 6530 6c3b ff2c 04be
00000230: 228a abbd ec4c e6bc c62b d13d db2d 79bc
00000240: 8571 dabc 71ee 92bd 31a2 043e d941 cc3d
00000250: 38b2 9abd 5d65 06be 411b 44bc 9f10 c3bc
00000260: 8614 36bd ada4 14be ee96 91bd 32e4 c83d
00000270: 95d8 bdbd 146e 283d 3fc6 e83b 21fe 64bd
00000280: 5543 613b 022e 903d 19ed 33bd 98d0 a53b
00000290: 3875 a4bc 2293 ce3d 9df9 0ebe cd3c d0bd
000002a0: c4ff a73d 1540 62bd 6082 a43d 0e4b b43c
000002b0: 3758 83bd 123b 09bd 3031 b33d b6ec a0bd
000002c0: 1424 5dbe ed54 afbd 1fb3 6fbd 6122 5d3d
000002d0: f02f b1bd bfda ff3d cbb3 1fbd 4560 a6bd
000002e0: 0e92 ec3d 9516 c53d bb25 2a3e 1169 c53d
000002f0: 5564 64bd ee63 3abd 0f54 ce3a e21e 413e
00000300: dd8d 2fbd aa04 d1bd 6664 ca3d bcc6 093e
00000310: f677 b3bd 9b3d 42be ba23 56be 3c96 bf3b
00000320: 193e 24bd 005a b73d cc4f 123e f438 d63d
00000330: a1c4 1fbd faf8 6f3d e4e5 22bd e607 21be
00000340: 3785 aebd d09e 2fbe 4dfc 8839 40c3 973d
00000350: f2c6 0cbd f468 fe3d cac6 033e ced2 8d3c
00000360: 1e9c a9bd cf68 28be 087a 47be d26a 24bd
00000370: 6843 8abd 73a8 723d bca5 9b3b 038f 44bd
00000380: 8921 19bd 8b23 9fbc 3050 8dbc f346 f8bd
00000390: 6535 453e ec0a 9fbd 6634 043e 3cd9 d83d
000003a0: 8b0f eb3d 933d 593e 0046 003f c1e3 a6bd
000003b0: b503 84bc a06e a2bd 186d 653b 4b33 90bd
000003c0: 004e 543c 3adb babc f0d3 553e e966 b7bd
000003d0: 92cc 063c 1c3a 7d3d 7c90 e33d a0a4 d93d
000003e0: a529 e73c cde4 b5bd 665f a13c 4d12 89bd
000003f0: 2a30 8cbe 6528 80bd d212 0bbe b5f4 8dbd

f.2.bias f4 [64]
-7.051756e-05 0.08940996 -0.036086254 -0.28760335 0.26617283 0.21330087 0.023588555 0.09288376
0.08685991 0.020249687 0.29549366 0.11598952 -0.18953556 0.25614324 -0.18839888 0.020756107
0.2392379 0.09516644 0.017359793 -0.28495115 0.1741923 0.15166335 0.31174058 0.13711691
0.25067604 0.03530615 0.3624373 0.03346644 0.011776449 0.23117615 0.15562408 0.23745763
-0.10690473 -0.1739117 0.21584134 -0.32787934 -0.056386784 0.2553529 0.34991822 0.063659556
-0.23918821 0.19847234 0.24359864 0.18765897 -0.024360135 0.20378117 -0.32878733 -0.14282465
-0.19305412 0.27663508 -0.07855857 -0.23167275 -0.24532704 0.13054319 0.034301203 0.08730713
-0.23553517 -0.13316207 0.08713973 -0.28681612 0.1837345 0.21211459 -0.20137553 0.089403205
00000000: d4e2 93b8 921c b73d 2ecf 13bd bf40 93be
00000010: ce47 883e 8b6b 5a3e c93c c13c d739 be3d
00000020: 9ce3 b13d ace2 a53c f24a 973e ea8b ed3d
00000030: 9c15 42be 3525 833e a3eb 40be b608 aa3c
00000040: c8fa 743e 9fe6 c23d 2036 8e3c 1ee5 91be
00000050: 775f 323e a34d 1b3e 769c 9f3e 6068 0c3e
00000060: 9c58 803e 2e9d 103d 6291 b93e 1b14 093d
00000070: 02f2 403c 71b9 6c3e eb5b 1f3e 1828 733e
00000080: def0 dabd e915 32be 8305 5d3e cddf a7be
00000090: d4f5 66bd 9ebd 823e 7b28 b33e f15f 823d
000000a0: c1ed 74be 553c 4b3e ec71 793e ac29 403e
000000b0: e88e c7bc 03ac 503e d056 a8be a040 12be
000000c0: fbaf 45be 1da3 8d3e 51e3 a0bd 9f3b 6dbe
000000d0: 0337 7bbe 1dad 053e 6b7f 0c3d 15ce b23d
000000e0: 2230 71be a35b 08be 5176 b23d 90d9 92be
000000f0: e624 3c3e 9134 593e 6335 4ebe 0719 b73d

f.4.weight f4 [64, 64]
-0.074689135 0.013388774 -0.07319667 -0.006099299 -0.022570685 -0.008011315 0.061693143 0.034147598
-0.037508823 -0.07650331 -0.045036975 -0.1422593 -0.12443176 -0.040507343 0.036557272 -0.0901448
0.019417098 0.1091596 0.16221814 -0.07343447 -0.08145936 -0.061608758 0.018346062 0.061680894
-0.011019248 -0.14318535 0.027970942 -0.016952146 0.016796403 -0.08980815 0.09956623 0.04124607
-0.04294494 -0.08453939 0.15238288 -0.024909327 0.11225367 -0.0039737383 -0.15754315 -0.13049306
-0.03216349 -0.09645016 -0.0554755 0.08832967 -0.14059733 0.03186242 0.1327604 0.052479483
-0.03751509 0.053911656 -0.020141592 0.03157248 -0.06620161 -0.017330134 -0.037744198 -0.13586597
0.03940503 -0.122728586 -0.033627007 0.041794967 0.063870706 0.06327393 -0.054839745 0.11806222
0.20182244 0.15419984 -0.00916966 -0.09654648 0.17986585 0.07900302 -0.057926565 0.017204707
-0.06153835 0.082486324 0.31125346 0.15670718 0.036296424 0.038967278 -0.19515918 0.10682778
0.11467011 0.024735363 -0.118930265 0.022989495 -0.06255848 0.13581903 0.15492666 0.059856433
0.13357206 0.2353847 0.005930744 -0.11931933 0.032394584 0.15562052 -0.04232113 0.041430406
0.09289845 -0.056352705 0.14980201 -0.06898548 -0.02664394 0.01215218 0.082231544 -0.04538765
0.07307739 0.16010863 0.17176287 0.2265749 -0.053900268 0.0043647275 -0.08435327 -0.27924365
-0.23515008 0.010045525 0.01566243 0.010763977 -0.12232578 0.022029923 -0.09345573 0.060777627
-0.12681547 0.0096937455 0.068791136 -0.21194899 0.19788404 0.016916402 -0.18185972 0.029690623
0.035763867 -0.17393921 -0.09519608 0.21635525 -0.0140805505 -0.10018859 -0.019013852 -0.05674978
-0.04894943 -0.12472566 -0.12089252 -0.16352665 0.05885868 -0.11421357 0.064652264 0.10804001
-0.18330173 -0.051727317 0.022642914 0.18085764 -0.10916854 -0.10444714 -0.07927853 -0.14825991
-0.12111293 -0.17242046 -0.206223 -0.13778996 0.09776992 -0.17751195 0.12016147 -0.05529001
-0.001981533 0.15643655 -0.1486135 0.06407808 -0.003226234 -0.05805909 -0.23963952 -0.016262705
0.077957116 -0.14021395 -0.0614036 -0.12722214 -0.030432994 -0.021726042 -0.07030513 0.060622785
0.11477175 -0.15785705 0.046797436 -0.03791122 0.2017234 -0.0166749 0.036349658 -0.13983473
0.17000394 0.08748584 -0.121511966 0.07762865 -0.25003743 -0.1304057 0.11365633 0.0918433
0.033320088 0.08423766 -0.08519036 -0.16922876 0.071509875 0.037822694 0.11267584 0.050096914
-0.05750389 0.19876075 0.06597625 0.11542197 -0.025195427 -0.035645694 -0.1435282 0.061489295
0.070405126 -0.03124493 -0.06862346 0.034608044 -0.059278578 0.08387256 0.1771958 -0.029402277
-0.0041362625 0.24554335 0.08915172 -0.07120249 -0.0324417 -0.05335132 0.048952967 0.08298593
-0.023248356 -0.053220697 0.049216595 -0.14671414 -0.0031118873 0.04580379 0.07277045 0.07334618
0.009948516 0.1443587 0.20275342 0.13211183 0.07553206 0.052183293 0.012845463 -0.16970529
-0.2265619 0.044249233 0.086953565 0.049428802 0.05616804 0.055459403 0.030507397 0.17757441
-0.0895537 0.03127489 0.0054106233 -0.15857984 -0.005903271 0.04632499 0.0015178896 -0.08465312
00000000: 9ef6 98bd 975c 5b3c 23e8 95bd a1dc c7bb
00000010: 28e6 b8bc e441 03bc f3b1 7c3d 5ade 0b3d
00000020: daa2 19bd c4ad 9cbd b178 38bd 6cac 11be
00000030: 14d6 febd 07eb 25bd 14bd 153d d69d b8bd
00000040: 9b10 9f3c 128f df3d 831c 263e d064 96bd
00000050: 2ad4 a6bd 7759 7cbd 7b4a 963c 1ba5 7c3d
00000060: 138a 34bc 2e9f 12be 5123 e53c 3adf 8abc
00000070: 9c98 893c 56ed b7bd 61e9 cb3d a4f1 283d
00000080: 09e7 2fbd fd22 adbd 420a 1c3e a50e ccbc
00000090: 41e5 e53d 2236 82bb fe52 21be f99f 05be
000000a0: ddbd 03bd a987 c5bd 473a 63bd 30e6 b43d
000000b0: bff8 0fbe 2b82 023d 58f2 073e baf4 563d
000000c0: 6ca9 19bd 78d2 5c3d fbff a4bc 2552 013d
000000d0: b694 87bd edf7 8dbc a999 1abd 7320 0bbe
000000e0: 2b67 213d 2059 fbbd 79bc 09bd 3331 2b3d
000000f0: a5ce 823d c395 813d a49f 60bd 9bca f13d
00000100: 8baa 4e3e 90e6 1d3e 573c 16bc 29ba c5bd
00000110: c12e 383e 56cc a13d 6844 6dbd e3f0 8c3c
00000120: a30f 7cbd 97ee a83d 9d5c 9f3e d977 203e
00000130: 8fab 143d 279c 1f3d cfd7 47be 86c8 da3d
00000140: 2ad8 ea3d d1a1 ca3c b691 f3bd 7754 bc3c
00000150: a91e 80bd 2514 0b3e 18a5 1e3e 052c 753d
00000160: 1dc7 083e b008 713e b056 c23b b15d f4bd
00000170: 2fb0 043d fc5a 1f3e ec58 2dbd eeb2 293d
00000180: 8b41 be3d 18d2 66bd b365 193e 4248 8dbd
00000190: 6444 dabc f019 473c 0369 a83d 67e8 39bd
000001a0: 99a9 953d 84f3 233e 9be2 2f3e 4003 683e
000001b0: 87c6 5cbd fd05 8f3b 68c1 acbd 06f9 8ebe
000001c0: 2fcb 70be fc95 243c 7f4e 803c 645b 303c
000001d0: f085 fabd 1978 b43c b865 bfbd f6f1 783d
000001e0: eadb 01be 84d2 1e3c 5ee2 8c3d 2809 59be
000001f0: 1da2 4a3e 4494 8a3c 6f39 3abe c039 f33c
00000200: 227d 123d 1f1d 32be 2af6 c2bd 3b8c 5d3e
00000210: 1cb2 66bc ad2f cdbd f0c2 9bbc 7572 68bd
00000220: 337f 48bd 2b70 ffbd 7f96 f7bd 8873 27be
00000230: cd15 713d cee8 e9bd 6868 843d 1544 dd3d
00000240: 73b3 3bbe 06e0 53bd a27d b93c bf32 393e
00000250: c193 dfbd 62e8 d5bd c85c a2bd 72d1 17be
00000260: 0e0a f8bd fd8e 30be 1f2c 53be d018 0dbe
00000270: 993b c83d b1c5 35be 3717 f63d c777 62bd
00000280: 9bdc 01bb e730 203e 232e 18be 5e3b 833d
00000290: 3a6f 53bb 5ecf 6dbd 1064 75be 5d39 85bc
000002a0: fba7 9f3d 3f94 0fbe 5782 7bbd 8546 02be
000002b0: 9d4e f9bc d0fa b1bc 23fc 8fbd 994f 783d
000002c0: 740d eb3d 47a5 21be abae 3f3d cc48 1bbd
000002d0: 9490 4e3e cd99 88bc 61e3 143d d630 0fbe
000002e0: 8315 2e3e c72b b33d 44db f8bd c5fb 9e3d
000002f0: e804 80be 1289 05be a6c4 e83d 5718 bc3d
00000300: a57a 083d cb84 ac3d 4978 aebd 4e4a 2dbe
00000310: c573 923d f8eb 1a3d 97c2 e63d 6c32 4d3d
00000320: 3389 6bbd f087 4b3e 8e1e 873d 5b62 ec3d
00000330: a466 cebc 3801 12bd 0ef9 12be 33dc 7b3d
00000340: 9030 903d 5ef5 ffbc 758a 8cbd 2ac1 0d3d
00000350: 18ce 72bd 60c5 ab3d d172 353e 0bdd f0bc
00000360: 7c89 87bb b76f 7b3e 2d95 b63d 9cd2 91bd
00000370: 97e1 04bd ea86 5abd e882 483d 87f4 a93d
00000380: 5673 bebc f2fd 59bd 5797 493d 3b3c 16be
00000390: cef0 4bbb c19c 3b3d ac08 953d 8636 963d
000003a0: 1aff 223c c4d2 133e 989e 4f3e 5348 073e
000003b0: 8db0 9a3d 26be 553d c775 523c 39c7 2dbe
000003c0: d8ff 67be af3e 353d b614 b23d db75 4a3d
000003d0: 7510 663d 6629 633d a6ea f93c 11d6 353e
000003e0: ee67 b7bd 191a 003d 994b b13b c162 22be
000003f0: 3a70 c1bb 46bf 3d3d ecf3 c63a 9d5e adbd

f.4.bias f4 [64]
0.03504361 0.17121172 -0.15087596 0.04244454 -0.1228107 -0.013413928 -0.15175939 0.10175703
0.10315413 -0.15684515 0.18433094 -0.033286583 0.2054295 -0.1969524 -0.11081527 0.19591933
-0.09793457 0.092963554 0.057404332 0.31250632 0.2634289 0.035389226 0.051041204 0.009528093
0.05047334 -0.15050626 -0.0886604 0.14921579 0.26815373 0.05665735 0.044151414 -0.14474578
0.008656561 0.15055875 -0.0958125 0.03110251 -0.30714154 0.21216768 -0.15335017 0.08324759
-0.24106933 -0.08759892 0.3318362 -0.28191653 0.006497451 0.030297901 0.19332042 -0.2451222
-0.024289541 0.19281721 0.12824629 -0.15453212 0.29475757 0.18904676 0.03828036 -0.04126579
0.21360946 -0.11850747 0.28191778 0.20224148 0.36631465 0.023479527 0.06734327 0.26982415
00000000: e389 0f3d 2052 2f3e 3a7f 1abe 53da 2d3d
00000010: 2d84 fbbd 18c6 5bbc d066 1bbe fd65 d03d
00000020: 7942 d33d 049c 20be 40c1 3c3e 8357 08bd
00000030: 1c5c 523e e4ad 49be 1ef3 e2bd 149f 483e
00000040: eb91 c8bd ad63 be3d ce20 6b3d d400 a03e
00000050: 27e0 863e 4bf4 103d 9510 513d b81b 1c3c
00000060: 22bd 4e3d 501e 1abe 9593 b5bd 06cc 183e
00000070: 724b 893e 8a11 683d 1dd8 343d 3d38 14be
00000080: 40d4 0d3c 132c 1a3e 5839 c4bd b1ca fe3c
00000090: a841 9dbe 7c42 593e d407 1dbe b67d aa3d
000000a0: e1da 76be 1067 b3bd 6fe6 a93e 5d57 90be
000000b0: 92e8 d43b 4e33 f83c caf5 453e 5001 7bbe
000000c0: dcfa c6bc e071 453e ff52 033e ab3d 1ebe
000000d0: 77ea 963e 7995 413e decb 1c3d 5106 29bd
000000e0: 70bc 5a3e 0bb4 f2bd 8757 903e 6418 4f3e
000000f0: 988d bb3e 2358 c03c 45eb 893d 6426 8a3e

f.6.weight f4 [64, 64]
-0.1801652 0.060595665 -0.028346127 -0.017781407 0.030129079 0.07047322 -0.18158126 -0.023140328
0.11891854 -0.2130194 0.07166122 0.21212886 0.2076922 -0.121829726 -0.16559988 0.043939617
-0.023169626 -0.11408068 -0.26962385 0.09655038 0.030645229 -0.13894613 -0.2997163 -0.2397241
-0.25551647 0.09831391 -0.052549638 0.05144841 0.1651932 -0.054776847 -0.091190144 -0.13290448
-0.10402133 0.034887373 0.29223228 0.15426505 -0.10281641 0.19304778 -0.049292017 -0.1266385
0.038712453 0.06043281 0.058517788 -0.04791978 -0.15014932 -0.17092147 0.16659564 -0.02496256
0.053093307 0.0028916541 0.05615898 -0.0048950105 0.15807109 -0.13877569 0.11199191 0.18784715
0.041905586 -0.12013444 0.1651673 0.026575144 0.105422355 -0.08765687 -0.2530332 0.17303205
0.020785194 -0.09567197 0.27990866 -0.15997852 0.011911163 -0.13916565 0.24796146 -0.265412
-0.07076888 0.09392813 0.018305743 -0.04819517 0.008495759 0.08005533 -0.011304555 -0.10704727
-0.10453315 0.08217811 0.054336797 -0.33978358 -0.20989946 -0.07243198 -1.6056469e-05 -0.024800858
0.05515788 0.030565938 0.07538841 0.033801794 -0.2692411 -0.1360389 -0.21353972 0.07268312
0.1835762 -0.21573688 0.0077588833 0.055522226 0.42267686 -0.10007294 0.114849485 0.017538069
0.068874694 0.063311085 -0.11911486 0.29709142 -0.020408876 0.122161955 -0.20350489 0.06652846
-0.04604262 -0.13267468 -0.024303537 0.089753985 -0.23122692 -0.011595832 0.12592447 0.13071805
0.013650187 -0.092333496 -0.12157404 -0.080277994 -0.10031486 -0.10583003 -0.1010345 -0.34324685
0.049247008 0.12077638 0.055771086 -0.026413735 -0.16495532 0.028988011 -0.08057187 0.35287854
0.07727596 -0.07042233 0.18743639 -0.027668431 0.1275911 -0.16301197 0.09782329 0.2794174
-0.10250212 0.120430164 -0.04383376 0.17383532 0.5524413 -0.03607284 -0.012027504 -0.11267812
0.1601284 -0.20544773 -0.15785432 0.38243672 0.10869665 0.21644081 0.6201746 -0.107849255
-0.05211012 0.07232775 0.089066565 -0.040710356 -0.11322626 0.09760163 -0.22064516 -0.07105835
-0.3748415 -0.048518162 0.605118 -0.015831705 0.08191266 0.0717345 0.059367258 -0.28928927
-0.077263504 0.18959892 0.011494419 -0.011661721 0.11642448 0.23738511 -0.04797275 -0.08842771
0.13757655 -0.0686828 -0.034144204 0.1437475 0.16444066 -0.065246224 0.13100213 -0.0074412124
-0.090818994 0.11131933 -0.16660658 -0.003636173 0.060070734 0.036028445 -0.01912195 -0.0442393
-0.019209664 -0.17495903 0.040827703 0.13218199 -0.04464222 -0.16869052 -0.14737496 0.042350706
0.016233647 -0.019497257 -2.8352712e-05 0.060894534 -0.026110107 -0.12042637 0.020941539 -0.016851012
-0.03326489 0.11721602 0.03515471 -0.1645557 0.04068816 -0.1531877 -0.13272786 -0.0110482415
-0.034318626 0.046797592 0.12060688 -0.024248281 -0.12553175 -0.031916197 0.22472511 -0.1951533
0.1657503 0.15500982 -0.17873378 -0.08591317 0.046028487 -0.16244341 -0.04550508 0.058457423
-0.078203216 0.023527851 0.07616022 -0.0073022856 0.11824198 -0.039601047 0.12523265 -0.003756288
-0.06362506 -0.022433907 0.1136042 0.046743583 0.15296641 -0.17349897 -0.11941636 -0.064348094
00000000: 3a7d 38be 2933 783d 2336 e8bc 50aa 91bc
00000010: 42d1 f63c 4354 903d 70f0 39be c990 bdbc
00000020: 908b f33d c221 5abe 1ec3 923d 4f38 593e
00000030: 44ad 543e dd81 f9bd 0493 29be 07fa 333d
00000040: 3ace bdbc 22a3 e9bd 230c 8abe 35bc c53d
00000050: b40b fb3c e547 0ebe 6a74 99be 3c7a 75be
00000060: 0ed3 82be ce58 c93d 4a3e 57bd 91bb 523d
00000070: 6828 293e b05d 60bd e6c1 babd 1d18 08be
00000080: 2309 d5bd 10e6 0e3d 789f 953e a8f7 1d3e
00000090: 6991 d2bd 51ae 453e 6de6 49bd 86ad 01be
000000a0: f390 1e3d 6588 773d 59b0 6f3d 8847 44bd
000000b0: bec0 19be 0a06 2fbe 0c98 2a3e 487e ccbc
000000c0: 5e78 593d e881 3d3b f506 663d 5366 a0bb
000000d0: 63dd 213e 371b 0ebe 045c e53d 015b 403e
000000e0: 31a5 2b3d 0c09 f6bd 9e21 293e 1eb4 d93c
000000f0: ade7 d73d 7285 b3bd 918d 81be 502f 313e
00000100: b645 aa3c aaef c3bd 3050 8f3e 69d1 23be
00000110: 0a27 433c 7181 0ebe 9ce9 7d3e 15e4 87be
00000120: 46ef 90bd 645d c03d edf5 953c 4c68 45bd
00000130: cc31 0b3c 0df4 a33d be36 39bc 993b dbbd
00000140: 7a15 d6bd ff4c a83d 4390 5e3d 1df8 adbe
00000150: e2ef 56be 3857 94bd 01b1 86b7 2b2b cbbc
00000160: 3bed 613d 6b65 fa3c 3d65 9a3d c073 0a3d
00000170: f8d9 89be c84d 0bbe 28aa 5abe e3da 943d
00000180: 66fb 3b3e 21ea 5cbe 3b3e fe3b 466b 633d
00000190: 1a69 d83e 0bf3 ccbd 3536 eb3d ffab 8f3c
000001a0: 2d0e 8d3d 3ea9 813d 7ef2 f3bd 5e1c 983e
000001b0: 8430 a7bc 0c30 fa3d 9663 50be 1340 883d
000001c0: 3097 3cbd dfdb 07be 3618 c7bc f0d0 b73d
000001d0: c0c6 6cbe 72fc 3dbc 58f2 003e f4da 053e
000001e0: 09a5 5f3c 5819 bdbd cffb f8bd ca68 a4bd
000001f0: e171 cdbd 6abd d8bd 2deb cebd 0dbe afbe
00000200: 3bb7 493d 9b59 f73d 3970 643d 9e61 d8bc
00000210: 0cea 28be 4478 ed3c dd02 a5bd 7fac b43e
00000220: dc42 9e3d 9539 90bd 53ef 3f3e e8a8 e2bc
00000230: 3ea7 023e 9cec 26be 9457 c83d cc0f 8f3e
00000240: a2ec d1bd 17a4 f63d 078b 33bd e301 323e
00000250: cb6c 0d3f 1dc1 13bd 020f 45bc c9c3 e6bd
00000260: b3f8 233e e460 52be 90a4 21be bfce c33e
00000270: 599c de3d a9a2 5d3e c3c3 1e3f 12e0 dcbd
00000280: 6c71 55bd 9220 943d 8868 b63d e7bf 26bd
00000290: 2be3 e7bd 5de3 c73d cef0 61be 0a87 91bd
000002a0: 3aeb bfbe fbba 46bd 03e9 1a3f 7eb1 81bc
000002b0: d3c1 a73d 8ae9 923d 152b 733d b91d 94be
000002c0: 543c 9ebd 3826 423e 1653 3c3c ce10 3fbc
000002d0: f56f ee3d 1515 733e 137f 44bd 9619 b5bd
000002e0: dee0 0c3e 91a9 8cbd cbda 0bbd 8b32 133e
000002f0: 2263 283e d09f 85bd 6c25 063e 6ad5 f3bb
00000300: 4fff b9bd 64fb e33d ea9a 2abe dc4c 6ebb
00000310: bb0c 763d 9092 133d a3a5 9cbc 4534 35bd
00000320: 965d 9dbc 7628 33be f33a 273d b75a 073e
00000330: c3da 36bd 35bd 2cbe 76e9 16be ef77 2d3d
00000340: 6dfc 843c b6b8 9fbc fcd6 edb7 8c6c 793d
00000350: dde4 d5bc 1aa2 f6bd 978d ab3c 220b 8abc
00000360: c440 08bd f40e f03d 63fe 0f3d 4a81 28be
00000370: a1a8 263d 3ddd 1cbe d0e9 07be af03 35bc
00000380: b091 0cbd d5ae 3f3d bd00 f73d 55a4 c6bc
00000390: 658b 00be 8fba 02bd 571e 663e 44d6 47be
000003a0: 72ba 293e e5ba 1e3e fd05 37be 3ef3 afbd
000003b0: 5e88 3c3d 9157 26be 8963 3abd 0d71 6f3d
000003c0: 0229 a0bd 7bbd c03c e4f9 9b3d 0348 efbb
000003d0: da28 f23d b534 22bd fd3c 003e 0e2c 76bb
000003e0: db4d 82bd 50c7 b7bc 52a9 e83d 3376 3f3d
000003f0: 3aa3 1c3e b7a9 31be 9190 f4bd efc8 83bd

f.6.bias f4 [64]
0.054425187 -0.3127366 0.25589678 -0.08353407 0.051043637 -0.06162241 -0.22561646 -0.042291988
0.0010545772 0.06721691 0.14316125 0.037719816 0.19243328 0.05752788 0.13404456 0.004506733
-0.018476404 -0.14410166 0.1355652 0.010856283 -0.06834234 -0.09411464 0.031447772 0.04325243
0.08586841 0.06071416 0.013140478 0.36117035 0.047244135 0.057644837 -0.083095476 0.0702392
-0.1415442 0.037614226 0.1395411 0.038723625 0.077260755 -0.049712587 -0.06797754 -0.018790893
0.044429794 -0.33140284 0.25361004 0.08904786 -0.092255525 -0.18893719 -0.06450009 0.020475637
-0.07712792 -0.25829893 -0.0156137785 0.14004107 0.067924716 0.22425157 -0.12849525 0.0891771
-0.07448071 0.08854912 0.0743275 -0.17539553 -0.05849436 -0.19775985 -0.043910824 -0.09002746
00000000: f2ec 5e3d 031f a0be e704 833e e913 abbd
00000010: 2213 513d c867 7cbd 0008 67be 5d3a 2dbd
00000020: bd39 8a3a 05a9 893d dd98 123e 1880 1a3d
00000030: 3b0d 453e 5ba2 6b3d fa42 093e 37ad 933b
00000040: d45b 97bc 638f 13be 9bd1 0a3e 8dde 313c
00000050: 12f7 8bbd 2dbf c0bd 61cf 003d 7629 313d
00000060: c7db af3d 69af 783d 294b 573c 52eb b83e
00000070: 1183 413d fe1c 6c3d f62d aabd 92d9 8f3d
00000080: f6f0 10be 6011 1a3d dde3 0e3e aa9c 1e3d
00000090: e33a 9e3d 6d9f 4bbd cf37 8bbd 5cef 99bc
000000a0: 04fc 353d a2ad a9be 2dd9 813e b95e b63d
000000b0: 77f0 bcbd c078 41be a018 84bd 86bc a73c
000000c0: 3ef5 9dbd c23f 84be efd0 7fbc ed66 0f3e
000000d0: 1d1c 8b3d 34a2 653e 4294 03be 7ca2 b63d
000000e0: 5889 98bd 3e59 b53d 0439 983d e39a 33be
000000f0: c897 6fbd 8f81 4abe d6db 33bd 5160 b8bd

f.8.weight f4 [1, 64]
-0.93626475 0.49987867 0.6140817 -0.76077855 0.592743 -0.6352123 0.90187216 -0.60834754
0.70573354 0.71331567 -0.754632 0.65653366 1.0178946 0.62685645 0.993945 0.7921833
0.65474385 0.8555064 -1.0671039 -0.6207797 0.6780828 0.7185223 -0.70460767 0.48860818
0.74064404 0.7033878 0.5978406 -0.60327446 -0.91368246 0.63935995 -0.59276015 -0.9284576
-0.7312384 0.72294486 0.650792 -0.7012639 0.7921131 0.7067986 1.3108726 0.66488314
-0.7322105 0.79761 0.672355 0.8019686 0.5296922 1.2435416 0.629973 -0.8349122
0.6521071 0.5631602 -0.5788085 -0.5889781 -0.490216 -0.5006231 -0.6889527 0.6554235
-0.58004117 0.5824743 -1.1362993 0.9485646 0.5753686 -1.1051775 -0.52190137 -0.6336088
00000000: 0caf 6fbf 19f0 ff3e 7534 1d3f 62c2 42bf
00000010: 01be 173f 469d 22bf 18e1 663f aabc 1bbf
00000020: f4aa 343f db9b 363f 902f 41bf 9712 283f
00000030: 5f4a 823f aa79 203f 2e73 7e3f 86cc 4a3f
00000040: 4b9d 273f 7802 5b3f dc96 88bf 6beb 1ebf
00000050: d696 2d3f 14f1 373f 2b61 34bf da2a fa3e
00000060: d99a 3d3f 3911 343f 150c 193f 3270 1abf
00000070: 18e7 69bf 18ad 233f 21bf 17bf 66af 6dbf
00000080: 7132 3bbf ea12 393f 4e9a 263f 0886 33bf
00000090: edc7 4a3f c1f0 343f acca a73f c835 2a3f
000000a0: 2672 3bbf 2b30 4c3f 751f 2c3f d04d 4d3f
000000b0: e899 073f 5f2c 9f3f e945 213f cebc 55bf
000000c0: 7ef0 263f 442b 103f cb2c 14bf 45c7 16bf
000000d0: 97fd fabe d628 00bf 345f 30bf d6c9 273f
000000e0: 947d 14bf 091d 153f 4172 91bf 21d5 723f
000000f0: 5b4b 133f 7576 8dbf 549b 05bf 3034 22bf
