trained_models/leader/leader.pt (torch, 200995 bytes, 27 tensors)

rnn.weight_ih_l0 f4 [192, 1]
00000000: 28ca a73c 0479 8f3d 38f3 d6bd 3813 c4bd
00000010: e05b 6fbd c3c1 503d d4e3 c7bc 2af6 dd3d
00000020: 4350 85bc 461e d73c 2538 21bd 60ee ccbb
00000030: b1db f6bd dbd1 98bd e046 17bd 964f 59bc
00000040: 0c57 513d b029 bf3d 8888 a0bd 6476 4fbd
00000050: 345d a03d fc18 b23d 7653 aebc 7b8e c13d
00000060: 6f09 04bd 41ab 133c e0fd f43d 5b32 bebd
00000070: 5be8 a6bd db9b 0abd 8e50 3cbd f81f d73d
00000080: 65ed 99bd 2b80 8abd 4f94 d2bd e02a f2bd
00000090: 53c1 86bd eee4 da3d c918 683d d2fb 873d
000000a0: f4fe 2a3c cd6a 60bd c1ff fd3c 7f41 f4bd
000000b0: 7070 babd 88e5 ddbc 124d af3d d404 943d
000000c0: bc4c 63bd 48ae d03b 5c35 9f3d 32b2 093e
000000d0: d9e4 6b3d 1f77 0e3d 02c1 bb3d 42a1 90bd
000000e0: fac2 b23b d25e b9bd 9d90 b6bd ed2a 68bd
000000f0: d76c 623d 18fe 6d3d 88bf 87bd 06af 353d
00000100: bd22 813d 6efe 3d3d f516 c2bd 89db 233e
00000110: b283 cfbd b5c0 013e 1378 c0be ded7 cdbd
00000120: 160a 583e 9a8a 0a3e c874 5d3d 3fd2 093e
00000130: 4d6f 283d 8f02 48bd f227 453d ee74 b63e
00000140: 798a 84bd 8ea7 d33d f83e 123e a85c 01bf
00000150: eed6 5d3e 8fd7 17bf 6b6a de3c 940f fabd
00000160: 77e8 443d f242 693b f5f6 003e e590 92ba
00000170: 0676 823d deba c53d 3282 acbd 4608 9d3e
00000180: eb64 1a3d dc16 a03e 99eb 6fbe ed36 b0bd
00000190: 1fb5 f53e faf3 8b3d c0cf 29bd e64b 593d
000001a0: 3efe 1bbe bb2e 1b3e db64 37be b3f7 2bbf
000001b0: d035 ccbd 8200 8dbe da0c d4bd 21bf 453d
000001c0: cb9e 863e 491d ba3e 32c2 b13c 55e6 0dbe
000001d0: 2a23 703e b3dc 5f3d 9609 843c 0b78 573d
000001e0: 492e 3a3f 2515 963d e0f7 1a3e 46ae fa3d
000001f0: b26d c2bd baac 13be d9f8 27be 97bc f5bd
00000200: 487f 32bd 2402 e4bd 0c31 efbc e81d 0b3d
00000210: d731 bdbd 35a7 53b9 9e01 6c3e 917b 95bc
00000220: 4edb 0f3c 67b3 6ebc 1f49 af3c fe4a af3d
00000230: 4d32 f83d 6696 9e3d 2b6b ee3d 4917 99bc
00000240: 1c1d e8bd 4c3f b3bd 0b21 ae3d f725 7e3b
00000250: 71bb a3bd 6a48 10be 7299 f8bd b9cc abbd
00000260: ab31 89bc 5df9 843d e397 893d 3f22 f1bd
00000270: c2c5 953d 72b5 c9bd 29dd f4bc c8c5 68bd
00000280: 43d6 dcbc 9868 acbc 155e febd 1981 dfbd
00000290: 7555 febc 6ba0 153c f3c0 7fbd 1b1f 1c3d
000002a0: 8eaf e3bd 480f 4abc 6f2a e63d 0ee0 2dbd
000002b0: 8907 f43d 2fc9 f93d 9f48 f7bd 914a ac3d
000002c0: 8bec 61bc 7fdb 8dbd e3ab cf3d 9bbd dbbd
000002d0: 45e9 d63c a1a8 cabc 2699 b53d dedc 0d3d
000002e0: ac7f 8d3d 200f 443d 1538 b0bc 2874 51bc
000002f0: 5931 d4bd e34a 7a3d 7ac0 c23d 907e a63d
0.020482138 0.07005504 -0.10495609 -0.09573978 -0.05843723 0.050966036 -0.02440063 0.10837968
-0.016273623 0.026259553 -0.039360184 -0.0062540025 -0.120536216 -0.07461902 -0.036932826 -0.013263604
0.051108405 0.09334123 -0.07838541 -0.050650015 0.07830277 0.08696172 -0.021280032 0.09451004
-0.03223556 0.009012998 0.11962485 -0.09286948 -0.08149787 -0.03384004 -0.04597526 0.105041444
-0.075159825 -0.06762727 -0.10282194 -0.11824584 -0.065798424 0.10688196 0.056664262 0.06639828
0.010436762 -0.054789353 0.031005742 -0.11926555 -0.09103477 -0.027086988 0.08559622 0.072274834
-0.0554931 0.006368432 0.07773849 0.13446882 0.057591293 0.03478157 0.09167673 -0.070620075
0.005455372 -0.09051289 -0.089143015 -0.056681562 0.05527958 0.05810365 -0.066283286 0.04435637
0.06305454 0.04638522 -0.09477035 0.16001715 -0.10132541 0.12671168 -0.3759161 -0.10050939
0.21097597 0.13529435 0.05406645 0.13459109 0.04112177 -0.048830565 0.048133798 0.35636085
-0.06471724 0.10334693 0.14281833 -0.5053201 0.2166402 -0.5931329 0.027150353 -0.122100025
0.04807326 0.003559288 0.12594207 -0.0011182098 0.063701674 0.09654783 -0.0842327 0.30670375
0.0376939 0.3126744 -0.23429717 -0.08604226 0.47989747 0.06833644 -0.04145789 0.053050898
-0.15233704 0.15154545 -0.17909567 -0.67174834 -0.099712014 -0.2753945 -0.10354014 0.048277978
0.26293024 0.36350468 0.021699045 -0.13857396 0.23450914 0.054653835 0.016117852 0.052604716
0.72726876 0.07328252 0.1513362 0.12240271 -0.09493579 -0.14421359 -0.16403522 -0.11998861
-0.043578416 -0.11133221 -0.029198192 0.033964068 -0.09238022 -0.00020184818 0.23047492 -0.018247398
0.008780314 -0.01456914 0.021397172 0.085592255 0.12118969 0.0774353 0.116415344 -0.018687861
-0.11333677 -0.08752307 0.08502396 0.0038779953 -0.07994736 -0.14090124 -0.12138642 -0.08388657
-0.016747316 0.06492875 0.06718423 -0.1177411 0.0731311 -0.09849061 -0.029890614 -0.056829244
-0.026957637 -0.021045968 -0.124202885 -0.10913295 -0.031046608 0.009132485 -0.06243987 0.038115602
-0.11117469 -0.012332745 0.11238562 -0.042450003 0.119155 0.12196576 -0.12074398 0.0841266
-0.013789306 -0.06926631 0.10140207 -0.10729524 0.026234278 -0.024738612 0.08867101 0.034634463
0.06909117 0.047865987 -0.021511117 -0.012784041 -0.10360975 0.061106574 0.09509368 0.08129609

rnn.weight_hh_l0 f4 [192, 64]
00000000: a06f a5bd d267 46bd 4997 74bd a655 213b
00000010: b5b8 82bd 367a 233c 8466 a2bd 9b83 e1bb
00000020: 2992 aebc a93e c93d 2b3a 04be a4c4 8abd
00000030: 9409 12bd 04ba 083e e0b0 bc3b 6c92 993d
00000040: 267a 4f3b f36c 313d 29a5 453d c5cb 53bd
00000050: 11f8 54bc 8bc3 843b f946 3bbd 1bd2 083d
00000060: 7ec5 a8bd a5c2 01bd 8db2 0e3e 9d91 ddbd
00000070: 8beb 44bc 45d4 8e3d 6647 fa3b e3f3 e7bc
00000080: ddca b9bd 7aba ee3c 5841 bcbd d501 5dbd
00000090: 043e abbd 9601 b2bc 237d 2bbd 624c 163e
000000a0: 0f69 5a3c b97f b33d a05b 973d e3fd 79bd
000000b0: ef64 863d 293b 0abe bc18 46bd 4bfe 0a3d
000000c0: 29eb 823c 6a9a 4d3d 8397 60bd 5632 94bc
000000d0: bc5d 093e fa8f 3abe 4d76 d43d 4404 82bd
000000e0: 166d bf3d 1129 933c acb0 c5bd 6e6f 163b
000000f0: 38f7 523d dfbb 6abd a46d aebd 32bb 7bbd
00000100: a645 ddbd f02b 833c 1066 50bd 7a1f 3cbd
00000110: 1d9d 8cbd 4dff 633d 6fd8 fe3d 888b d03d
00000120: 6e15 a03c d099 edbc 6b68 f7bc 2561 353d
00000130: 7eae fc3d 5581 8e3d 88ca 43bd b5c9 8abd
00000140: d150 09be aaaf 66bc d928 3dbd a6ad 00be
00000150: 5d62 523d 5dd8 d5bd c13e adbc 1137 1f3d
00000160: 71b5 a03c 290d 68bd eeca 8fbd 31df c23d
00000170: c561 803c e7f1 9c3d 4e45 9fbd 42ec 1c3b
00000180: a1cf f8bc bc89 82bc e52a 90bd e45e 203d
00000190: 7799 083c 2aec 863c efe6 5ebd 45eb 81bd
000001a0: f628 a73d b5e8 d6bd 1a9f 523d fe3c 9fbc
000001b0: 8a59 6ebd b637 0d3e 994f 85bd b290 d63c
000001c0: ee6c fb3b 9a97 fabd 4021 733c e022 283d
000001d0: a3a6 973d 84d9 073c efd8 c7bd 0ced a43b
000001e0: 1039 a53d ca23 91bc 3b0e cd3c 841b b73d
000001f0: d6cb 9ebd f03a 10bc 19bd 513d d574 a93b
00000200: bda8 21b9 2221 b63c c377 dcbd 61cc f33a
00000210: 47d7 a73d f7bb ff3d eeca 6e3d 92e1 b13c
00000220: d8a2 813d 32f0 94bd b509 c0bd 4d90 e3bd
00000230: c69d f53d 7676 943d 9431 bcbd fd9c 5b3d
00000240: f57b cd3d 9cec 073e 4cd3 d33d 661d d83d
00000250: 7903 b6bc 8879 19bd 0df1 da3d 23a1 8d3d
00000260: ea9f a6bd fd43 d73d 00f4 5a3d 26b5 903d
00000270: 5735 9abd c329 2d3d 66ac 12bd cbed d23d
00000280: 99fc dabc 3d7e 6e3d 49ad bb3c 8a2f 5f3d
00000290: b658 0abd 4500 763d d4a6 a5bd 4b23 b53c
000002a0: ae23 abbd 48cb eebd 436b cabd 22b9 b53d
000002b0: b0cb 8c3d 8e4b d53d 563b ca3d cdad e5bd
000002c0: 85bf 99bd f6c0 66bc b7b1 92bd 711f ba3d
000002d0: 9fb9 d0bd 7fda 6abd 796e fbbd b80c 9dbd
000002e0: a1c1 ca3d 3704 c63d bd35 c73d ffb5 ca3d
000002f0: e641 ef3d cdda afbc a2ea 663d b3ab f03d
00000300: d4a5 1b3d f07b 083e 6032 863d 04c2 953d
00000310: bb42 24bd 336d 7c3d f76c 7bbc 16e6 f3bc
00000320: a7ce 84bd c293 8dbd bb9e dbbd d632 a63d
00000330: 8715 a93d 79a4 99bc 9979 97bd 5ba0 d23d
00000340: 5d80 ac3d 0f50 ec3c ec3d 7cbd ef84 f03d
00000350: 91da 883d 7e06 a3bd d6e1 f83d b681 ca3d
00000360: d831 4bbd 3e0a 853d ded5 99bd 360e 85bc
00000370: 58bf d53d 9069 093c 0169 a3bd 921a 03bd
00000380: 7fc0 debc 8634 f8bc f4ed 413c ea86 f33d
00000390: b4cb 633c 05ee b2bd 436d 623c 3406 743d
000003a0: 0dc7 8a3d 4f19 eabd aaaf d7bc cdd5 c7bd
000003b0: 1b06 70bd abae 9fba 46ad acbd 7c4a 303d
000003c0: c8fe d83d f8cd 413c 64c1 afbd 0933 19bd
000003d0: 1a1b cc3c 1005 dbbd 581d 733d ef6a efbd
000003e0: a430 e7bd 853e ffbd 5a94 aebc 5721 b23d
000003f0: 34d5 f1bd e7d8 d03d 0608 62bd baae 083d
-0.080779314 -0.048438855 -0.05971459 0.00246177 -0.06382886 0.009977868 -0.079297096 -0.0068821437
-0.021309929 0.098264046 -0.12912814 -0.067757875 -0.035653666 0.1335221 0.00575839 0.07498631
0.00316585 0.043316793 0.048253212 -0.051708 -0.012998597 0.004051631 -0.04572198 0.033403497
-0.08240794 -0.031679768 0.13935299 -0.10818789 -0.012019048 0.06974081 0.007637906 -0.028314536
-0.09071896 0.029141653 -0.09192151 -0.053956825 -0.08361438 -0.021729272 -0.041867387 0.14677575
0.013330712 0.087645955 0.07390523 -0.06103314 0.0656222 -0.1349913 -0.048363432 0.03393392
0.015981274 0.05019609 -0.054831993 -0.018090408 0.13414663 -0.18218985 0.103741266 -0.0634847
0.09346978 0.017963918 -0.09652838 0.00229546 0.051505297 -0.057308074 -0.08517006 -0.06145782
-0.108043 0.016012162 -0.050878584 -0.045928456 -0.068659045 0.055663396 0.12443625 0.101828635
0.019541468 -0.029004008 -0.030201158 0.044282097 0.12337969 0.06958262 -0.04780057 -0.06776754
-0.13409735 -0.0140799675 -0.046181533 -0.12566242 0.051363338 -0.10441659 -0.021148087 0.038870875
0.019617768 -0.056653176 -0.07021128 0.09515227 0.01567162 0.07663327 -0.07776891 0.0023944532
-0.030372443 -0.015934817 -0.070394315 0.039152995 0.00833737 0.016470034 -0.054419454 -0.06343702
0.081621096 -0.10493604 0.051421262 -0.019438263 -0.05819086 0.13790783 -0.06509323 0.026192043
0.0076728975 -0.12235947 0.01483947 0.041048884 0.0740483 0.008291606 -0.09758174 0.005033141
0.080675244 -0.01771726 0.0250312 0.08940795 -0.07753722 -0.008803114 0.05120573 0.005171398
-0.00015417016 0.022232596 -0.1076503 0.0018600338 0.08195358 0.12487023 0.058298998 0.021714006
0.06329888 -0.07272376 -0.093768515 -0.111115076 0.119929835 0.07249157 -0.09189144 0.053616513
0.100334086 0.13273853 0.10343036 0.10552482 -0.022218453 -0.037469417 0.10690508 0.069155
-0.0813597 0.105110146 0.053455353 0.07065801 -0.07529705 0.042276155 -0.035808943 0.10299262
-0.026731776 0.05822586 0.022909777 0.054488696 -0.033776008 0.06005885 -0.080884606 0.022111556
-0.08356415 -0.116598666 -0.0988374 0.08873202 0.06874788 0.104148015 0.09874599 -0.112147905
-0.075072326 -0.014084091 -0.07162803 0.09088028 -0.101916544 -0.05733728 -0.1227693 -0.076684415
0.09900213 0.09668773 0.09727047 0.09897994 0.11682491 -0.021466637 0.056376107 0.11751499
0.037999943 0.13328528 0.06552577 0.07312396 -0.0401027 0.061627578 -0.015345803 -0.0297728
-0.06484728 -0.06912948 -0.10723635 0.08115165 0.08256059 -0.018755184 -0.0739624 0.10284492
0.08422921 0.028846769 -0.06158249 0.11744105 0.06682313 -0.07960223 0.1215245 0.09888022
-0.04960808 0.06496094 -0.07511495 -0.016242128 0.104368865 0.0083869845 -0.07979012 -0.03200776
-0.027191399 -0.030298483 0.011836518 0.11890967 0.013903547 -0.08736805 0.013819995 0.05957623
0.06776247 -0.114306085 -0.02632888 -0.09757576 -0.058599573 -0.0012182792 -0.08431487 0.043039784
0.10595471 0.011828892 -0.08581808 -0.037402187 0.024915267 -0.10694325 0.059354156 -0.11690318
-0.11288574 -0.124630965 -0.021310974 0.08697765 -0.118082434 0.10197621 -0.055183433 0.033369757

rnn.bias_ih_l0 f4 [192]
00000000: 689b 763d 0bca e73d 536d 2bbd be0b bd3c
00000010: 4456 b2bd 44dd edbd 217c a53d 5453 bebd
00000020: cdb2 0f3d e6a0 b53d b0e9 9b3c 4588 cfbd
00000030: f6c0 463d 4e71 fb3d b986 af3b c94b cbbd
00000040: 38fa 06bd 4f5f 433e 5e68 8fbd 003d cebd
00000050: 3e7b e03d c1b1 d53d c8f9 5cbb 2e09 f23d
00000060: 4e29 ecbd 24f2 a23d 1355 f6bd bb9f 1bbc
00000070: 58ab c83d 70eb 8cbd 5d59 b9bd 04ca 653c
00000080: aea4 fb3d bedc 33bd 5279 fbbd 8e46 953d
00000090: 6edc da3d e9c3 88bd 8cd9 6abd afe0 743d
000000a0: 8eba 153d 1541 d3bd cd8d 8fbc 4415 b93c
000000b0: c7ea f43b 543f 193e 8257 7d3d 7405 0b3c
000000c0: bc32 c13d 455b f9bd 81cb 4e3c 2041 b6bb
000000d0: f7e0 98bd dd77 debc 6249 0cbd 9e55 f6bd
000000e0: 1824 acbc 991d f13d e5db a3bd a3e7 2f3c
000000f0: 6ba9 d8bc 22de 91bd 5c58 683d 8e2e 00be
00000100: 427c a13e 22ca 593c be7f a53e 5b18 253e
00000110: 65dc d73d 3bd5 0c3e 6fe7 cc3e 4dbe 0d3e
00000120: 4ae0 373e ab3d 233e c585 81bd e28e 113e
00000130: af81 c2bd cb85 a63d 5ce8 db3d b48a 7d3e
00000140: e151 4f3c b16c 823f ec27 f13d 3d8c 0a3f
00000150: c817 4b3f 6b93 553f 260d 423d f494 403e
00000160: 32ff 773e e952 7dbd 5ffd a6bd 0914 24bd
00000170: 62d5 5d3d 940b c33d 1211 dabd 68d0 ba3e
00000180: 8b0a 4e3e 1467 823f ebdb 0b3e 0dc0 043d
00000190: 9061 1a3e 65a6 743e 8b0a e6bd 123f cf3c
000001a0: b0a1 213e 5621 6b3e ff4d 333e 36c0 453f
000001b0: 3d85 673d 4d0c 013f 67b5 0f3e 3329 6c3d
000001c0: dc9d cd3e 1b24 783d 3de4 4f3c 8154 6b3e
000001d0: 7057 cb3c 7253 133e 0fb0 99bd f9d8 c63c
000001e0: 3fab fe3e 0846 733e 7cb6 623e 4954 593d
000001f0: f046 963d 827d 6f3d 0dd9 803d 23d2 2c3e
00000200: f379 c23d cff4 4cbc e53b 07bc 1992 a83d
00000210: 25df 553a 3162 babc ca06 423d 574b ea3d
00000220: ae56 81bc 4a2c 993d cf15 5dbd 816a bdbd
00000230: 58aa 053c a2de 7e3c 7a49 493d f91f cebd
00000240: dbfe d2bd 8c0e 57ba 0d08 243d bcaa efbd
00000250: 711f b6bd a87e a9bd 6a7d 8abd 35ac ab3d
00000260: 8646 7d3d 8d18 e63d e655 ef3d bd2e 593d
00000270: 829a 8abd 4018 febd 0a6e c0bd 7d7e d1bd
00000280: cee1 d03d 6737 a2bd 016e 763d da69 d6bc
00000290: b909 9abd a8bb 963c ca41 1bbd 4f81 003c
000002a0: 5e5a 033d 0fb8 ebbd 2661 ebbd 2491 e23d
000002b0: 05d7 0b3d 7bcc c9bc 1a0d 8d3d f3d0 e3bb
000002c0: d7f5 f13c 1719 adbd 2d16 88bd 2e23 3a3d
000002d0: 9132 383c 317d c1bc ee2b 05bc c511 563d
000002e0: 25d2 043e 1be6 a83d ca0c 98bd 9071 1dbd
000002f0: b8a4 05bd 3f00 2ebd 63a9 97bc b47c b4bb
0.0602068 0.113178335 -0.041852307 0.023076888 -0.0870786 -0.11614469 0.08080316 -0.09293237
0.035082627 0.088685796 0.01903233 -0.10133413 0.048523866 0.122774705 0.0053566364 -0.09926564
-0.03295347 0.19079326 -0.07002328 -0.100702286 0.109610066 0.104342945 -0.0033718217 0.11818157
-0.11531316 0.07956341 -0.12027945 -0.009498532 0.09798306 -0.06880844 -0.09050248 0.014025215
0.122872695 -0.043911688 -0.122789994 0.07288848 0.10686575 -0.06677992 -0.057336375 0.059784587
0.036554866 -0.10315148 -0.01752367 0.022593148 0.0074742767 0.14965564 0.061851032 0.008485187
0.09433505 -0.121756114 0.012621761 -0.0055619627 -0.07464784 -0.027156765 -0.03424967 -0.12028049
-0.021013305 0.117732234 -0.08000926 0.010736379 -0.026447972 -0.071224466 0.05672489 -0.12517759
0.31540114 0.013292821 0.32324022 0.16122572 0.10540084 0.13753216 0.4002032 0.13842125
0.17956653 0.15941493 -0.06324343 0.14214662 -0.094973914 0.08130988 0.107376784 0.24759942
0.012653799 1.018942 0.117751926 0.54120237 0.7933316 0.83428067 0.04737582 0.18806821
0.24218443 -0.061846647 -0.081537955 -0.04005817 0.054158576 0.09523693 -0.10647787 0.36487126
0.2012121 1.0187707 0.13658111 0.032409716 0.1507628 0.238916 -0.1123248 0.025298629
0.15784335 0.22961935 0.17510222 0.77246416 0.05652355 0.50409395 0.14034043 0.057656478
0.401595 0.060581308 0.012688694 0.22981454 0.024821967 0.143873 -0.07504284 0.024273382
0.49740025 0.23757184 0.22139925 0.053058896 0.07337749 0.058469303 0.06291399 0.16877036
0.09495916 -0.012509539 -0.008254026 0.08230991 0.00081585563 -0.0227519 0.047369756 0.11440151
-0.015788402 0.074791506 -0.053975876 -0.0924883 0.008158289 0.0155560095 0.04914234 -0.10064692
-0.10302516 -0.0008203767 0.04004674 -0.11702487 -0.08892716 -0.08276111 -0.06762202 0.08382455
0.061834835 0.112351514 0.11686306 0.05302309 -0.06767751 -0.12406969 -0.09395988 -0.10229204
0.10199319 -0.079207234 0.0601635 -0.02617352 -0.07521386 0.018400028 -0.03790454 0.00784333
0.032068603 -0.11509716 -0.11493139 0.110628396 0.034140605 -0.024633637 0.068872645 -0.006952399
0.02953617 -0.08452051 -0.06644855 0.045443706 0.011242525 -0.023619266 -0.008128149 0.05226304
0.12970789 0.08247014 -0.07424314 -0.03843838 -0.03262779 -0.042480703 -0.018513387 -0.00550803

rnn.bias_hh_l0 f4 [192]
00000000: 8127 e53d 5d36 83bd 9125 d43d 5b8d be3d
00000010: 623d d73d dcfb 953d f3b1 253e b435 b8bd
00000020: 5378 b53d 04b9 f0bd 1bf5 853c 89f5 103e
00000030: d57c 6e3c d46e b13c 8f18 c1bd 3370 bdbd
00000040: 69fb 263c d41f ed3d 3155 8cbd 6ee3 153c
00000050: dc0b db3c 77db 83bd 50b7 a33c 1829 d2bd
00000060: b30a 813d e6f6 97bd 2f25 b73d 9b8a 063e
00000070: 6657 943d 2794 c2bd 2934 b83d bc9e c3bb
00000080: 2e51 f9bd 02b4 ce3d a4ab d33d 0b3e 6b3d
00000090: ac4a c4bd 4d3e 9dbc 56c4 b5bb 4d89 e53d
000000a0: b2d6 c9bd 3b72 c3bd 8444 923d aea6 293d
000000b0: 72bd 30bd 5e61 42bd 2ef2 9abc f967 973d
000000c0: ae98 ef3d 96bc e1bb 6a69 a8bd 4e8a 0b3d
000000d0: 77b7 ca3d bdda a4bd 08d8 043d 40a2 8e3d
000000e0: 4ce7 44bd 0b71 dfbd e5ae 7abd 6d29 c6bd
000000f0: 0ea5 91ba 58b2 b63d a826 17bc b72c b83d
00000100: a415 be3d d085 723e 5d62 9a3e b9e9 283e
00000110: 7dc6 923e f340 743c 9be4 d23e 5a00 103e
00000120: 7764 553e 4d3c 1a3e 72c4 713d 092b 1f3e
00000130: d74d e5bc 0184 bc3d 6cda 0ebd 3824 b03e
00000140: a733 de3d 0d12 8b3f c193 e2bc dc96 f03e
00000150: 43f6 733f 8574 553f 2399 c7bd f94c f13c
00000160: ee09 8b3e 137f 5dbd 52d5 923d d6d5 c43d
00000170: d654 dd3d e4f7 5d3d 740c e73c 11f4 f33e
00000180: 2b7f 743e 9806 653f 8f02 4b3e 9388 d63d
00000190: 887b 983e 5fba d63e 9f7b 22bd 7db0 963c
000001a0: 7099 1f3e d3c5 d73d aaa7 c43c c825 0b3f
000001b0: 0fae 493d 97c3 133f 1da8 2a3e 131b e4bd
000001c0: 80aa 033f 66df 6a3e 30a5 ca3d 83c3 4b3b
000001d0: 4bb5 d83d facd 49bc cd2f 16bd 5fe5 003d
000001e0: bf19 f63e b514 b23d 6869 493e cc23 343d
000001f0: 79a9 d93c c108 c7bc 9421 653d 97f9 283d
00000200: 496f acbc 5f16 e7bd eb12 ec3d db19 b6bd
00000210: 66be c13d 4b49 1b3c 15cd b4bd c48b d0bd
00000220: 75f4 2dbd fd82 fb3d a250 df3d e39a a43d
00000230: 6cdf e43d 5b77 b03d bcd0 2a3d 614d ff3d
00000240: 7bfa 863d ce31 473c bd7b 473d 1475 cc3b
00000250: bdd7 49bd 57cd 643d fa8c 543d 1dd4 823d
00000260: c4e2 9a3d fdb1 ee3d f59a 233d cb9f 64bd
00000270: 3323 333d 4135 773d 910c bcbd 3ef3 89bd
00000280: 4608 c1bd 18d1 a2bd 0343 cb3d ad28 893d
00000290: 6c2d 13bc fe89 b6bd 2628 0a3d 0999 023d
000002a0: 469d 9e38 5e20 99bd dd98 023e 2916 433c
000002b0: 46c8 cabd bf75 9a3d bd86 c3bc 5b3f a5bd
000002c0: cf39 c8bd 00c4 b3bb 59ce 75bd 2e4a a6bd
000002d0: 703c 643d aaa1 2bbc f0d0 8dbd 3029 993b
000002e0: 545c c2bd fa4d c23d ded8 f5bd e0b1 6fbd
000002f0: 095d fabc 76ab f1bd 8d9f dbbd a7b9 babd
0.111891754 -0.06406853 0.10358728 0.09304305 0.10509755 0.07323429 0.16181163 -0.08994618
0.08860841 -0.11754039 0.016352227 0.14156164 0.014556129 0.021659292 -0.09428512 -0.09249916
0.010191777 0.11578336 -0.068521865 0.009148462 0.026739053 -0.06438344 0.019984871 -0.10261744
0.06300869 -0.07420139 0.08942639 0.13138811 0.072432324 -0.09500914 0.08994324 -0.0059698503
-0.12173687 0.100929275 0.10335472 0.057432216 -0.09584555 -0.019194746 -0.0055470867 0.11207829
-0.09855403 -0.09543272 0.071419746 0.041418724 -0.04314942 -0.047456138 -0.018914308 0.07392878
0.11699043 -0.0068889363 -0.08223231 0.034067445 0.098982744 -0.080495335 0.032432586 0.069645405
-0.048072144 -0.10910233 -0.06120195 -0.0967587 -0.0011111812 0.08920735 -0.009225525 0.08992904
0.09281471 0.23683858 0.3015317 0.16495408 0.2866706 0.014908063 0.41190037 0.14062634
0.20839106 0.15062065 0.059025235 0.1554376 -0.027991218 0.09204865 -0.034876272 0.34402633
0.10849696 1.0864884 -0.027658345 0.46990097 0.9529764 0.8338092 -0.097460054 0.029455649
0.27156013 -0.054076266 0.07169594 0.096110985 0.10807197 0.054191485 0.02820418 0.47647145
0.23876636 0.89463186 0.19825195 0.10475268 0.29781747 0.41939065 -0.039668676 0.018394703
0.15585876 0.10535779 0.02400573 0.54354525 0.04923826 0.5772032 0.16665693 -0.111379765
0.5143204 0.22936782 0.09894788 0.0031091876 0.10581454 -0.012317175 -0.03666668 0.031468745
0.48066518 0.08695356 0.19669116 0.04397945 0.026570069 -0.024296166 0.055940226 0.041253652
-0.021049159 -0.11283564 0.11527046 -0.0889165 0.09460144 0.009477924 -0.08828179 -0.10182908
-0.04246946 0.122808434 0.10904051 0.08037355 0.11175427 0.08616515 0.04170297 0.12465931
0.06590744 0.01215787 0.04870199 0.0062395427 -0.04927801 0.05585989 0.05189226 0.06388114
0.07562783 0.11655042 0.0399427 -0.055816453 0.04373474 0.06035352 -0.09182084 -0.06735848
-0.09425406 -0.07950038 0.09924891 0.066972114 -0.008982997 -0.08913039 0.033729695 0.031884227
7.5633216e-05 -0.07476877 0.12753625 0.011907139 -0.099014804 0.075419895 -0.02386796 -0.08068725
-0.09776651 -0.0054860115 -0.06001124 -0.081196174 0.0557217 -0.010475555 -0.06924617 0.0046740994
-0.094902664 0.09487529 -0.12004255 -0.058519244 -0.03056194 -0.11800282 -0.10723791 -0.091174416

mlp.f.0.weight f4 [64, 65]
00000000: c052 b5bd c3d2 293d 7d8e 893d 84dc b4bd
00000010: b72f 573d 3357 66bd 8923 a93d 369c 23bd
00000020: 0288 763d f8ec da3c 6090 52bd d097 7b3c
00000030: a4b3 603d a9e8 9a3d e037 d23c 6c7c 803d
00000040: 28fd 243d ddf5 e13d 19ea b5bd 610d 4cbd
00000050: 400c d73b 5589 b63d e152 f7bd 7ae3 4d3d
00000060: eade e33d 058c 9a3d 8718 d83d fb58 4dbd
00000070: 7838 a63c 40ae e03d f150 91bd d25d 9bbc
00000080: 1fd1 6cbd daea c43d 9884 863c 0c53 e1bd
00000090: 82ed c43d 9ff4 c93d f4fd 27bb 529c e73d
000000a0: 1ad3 e1bd a1b3 7d3c 9743 b13c dec8 c03c
000000b0: 6336 6b3d eebc cf3b d64b e23d 6c92 7fbd
000000c0: e893 e33c 63a5 663d 3add bebd c740 2fbd
000000d0: 58cb cfbd 2679 59bd bbaa 86bd 14a7 b83d
000000e0: c72f 66bd d769 eb3c ab59 4dbd edd7 aa3d
000000f0: 38db 19b8 3966 a1bd fe62 17bd 6058 96bd
00000100: 70e5 c33c 9b16 d43d 6ac0 303d 3c41 e83c
00000110: f147 cdbd d9ac fb3b 653d 4f3d 44e4 ae3c
00000120: 0e4c 02be 7a9e 96bd 20a0 fbbd 6ace d13c
00000130: b5a5 3a3d 4a6f 6e3d 2845 983d 4476 afbd
00000140: 0fa8 313d 963b fb3d 9b9a 75bd 1cfb 02be
00000150: b438 01bd bc22 47bd 75e4 af3d 54b2 c33d
00000160: d8ea e13d 68a5 a23d ad68 6f3b a456 8dbd
00000170: 7a5b 863c 78fb a1bc ee8a 53bd fb16 cfbd
00000180: 18d8 e33d f6bc f1bd 4ec8 f5bc 08dc ea3c
00000190: 0532 99bd 5b99 e7bc 45b1 c9bd 5d1f fd3c
000001a0: 7e47 e63d 89ad 153d 6812 2ebc c4cc bd3d
000001b0: 77b0 c43d e015 d63d 866c 15bd d38c 223d
000001c0: a1cb 113d 86aa fb3c d31e c53d 567a 3fbd
000001d0: c5cf abbd d804 363d 8177 e23c 544d 69bd
000001e0: aa3d 993d f968 fdbb effe d83d c4e9 c4bd
000001f0: e83f 44bd 9bb9 753d 7dd8 82bd 1380 3f3a
00000200: 499a bcbc 53b6 0b3e e509 dabd d73a b6bd
00000210: 0a3f cabd e178 8e3c 5864 15ba ab3f 50bd
00000220: 4b2d c9bd 88b5 923d c72b b2bd 8a95 9bbd
00000230: 6d9f a3bc 2efb 05be ba1a 15bd 5a40 853c
00000240: 72d7 8b3d 771e 1cbb 3449 f03d f194 b6bc
00000250: 1b91 4d3d 96fd a8bd 811a a5bc a613 cc3d
00000260: 5df4 ad3d a129 e0bb 9569 67bd 91d1 1abd
00000270: 4317 c7bd 9ccd 8a3d e6d1 e23d fc82 89bc
00000280: fd8a 9abd 376a f23d f456 31bd b684 e0bc
00000290: 683f 9dbd adb9 d73d e324 903c 6cb1 03be
000002a0: a75d ec3d ee47 983d 236e 4f3d 4ee7 f03d
000002b0: 01ac ab3c ea99 62bd e01b 51bd 9ab0 923d
000002c0: 04b8 82bd c3d5 993d 0c7b 93bd 1ab5 c73d
000002d0: e35f eebc 7092 be3d f027 86bd 547c 2c3d
000002e0: fa3f a73d 8fa2 013d 9b59 c9bc 66fc 90bd
000002f0: 124a 79bd 0a6a 323d e60a d13d f494 97bd
00000300: 92ba 84bd 6ad7 a5bd 0884 55bc d142 36bd
00000310: 8328 343d ca7a 37bd e62b 15bd dcac eb3d
00000320: 4bfb a9bd d026 98bd 5903 963c 900d bebd
00000330: bfa3 00bd a3bc cdbd ee36 bebd 9d18 963b
00000340: e647 5f3d b648 20bd 3c46 f6bd 325c c5bd
00000350: 9f30 a9bc 5bb4 673d 7e44 07bd 7590 493d
00000360: 460e 973c bbbb ef3d a680 783d 57d9 ba3c
00000370: f84b 83bd bf0a 57bc 6a5e dc3d 989a 0e3d
00000380: 3ea5 9fbd 8ded c53d a055 8e3d 05ec 80bd
00000390: 9b16 ff3b 80be 483d bbee 7b3d 562c abbc
000003a0: 2029 60ba 9d33 9f3d 0085 55bb e411 5bbd
000003b0: a835 bb3d 4e7a a63d 6166 39bd 5b1b fcbd
000003c0: 4f05 66bc 42e1 a7bd 2ada d0bc 8c14 e7bd
000003d0: e743 b5bd 6f85 fb3c ce0d e3bb 7f65 b2bc
000003e0: 253b fb3c 10ef 053d 5ed0 aa3d d1ef aebc
000003f0: 16ac 43bc 33fd f0bd 9f18 eabd c18b 9dbd
-0.08853674 0.041460764 0.067166306 -0.088311225 0.05253574 -0.056235503 0.08258731 -0.039943896
0.0601883 0.026724324 -0.051407218 0.015356019 0.05485882 0.07563908 0.025661409 0.062737316
0.04028049 0.11033223 -0.08882541 -0.049817447 0.0065627396 0.08912913 -0.12076355 0.050265767
0.11126502 0.07546238 0.10551553 -0.050133687 0.020290598 0.109707355 -0.070955165 -0.018965635
-0.05781662 0.09615107 0.016420648 -0.11002168 0.096156135 0.09861111 -0.0025633546 0.113091126
-0.110265926 0.015484721 0.021638675 0.023533281 0.057424914 0.006339661 0.11049621 -0.0623955
0.027780488 0.05631007 -0.09319539 -0.042786386 -0.101462066 -0.05309405 -0.06575533 0.090162426
-0.056197908 0.028736992 -0.050134342 0.08341966 -3.6682206e-05 -0.078808255 -0.03695964 -0.07341075
0.023913115 0.10355874 0.04315225 0.028351419 -0.10023487 0.007680517 0.05059566 0.02134908
-0.12724325 -0.07354446 -0.12286401 0.025611121 0.045568187 0.058211602 0.074350655 -0.08567479
0.043373164 0.122672245 -0.059961896 -0.12791103 -0.031548217 -0.04861711 0.085884966 0.09555498
0.11031121 0.07941705 0.0036530897 -0.06901291 0.016401041 -0.01977323 -0.051646166 -0.10111805
0.11125201 -0.118036196 -0.03000274 0.028669372 -0.074802436 -0.028271368 -0.098482646 0.030898744
0.11244105 0.03654245 -0.010624506 0.092675716 0.096039705 0.10453391 -0.03648045 0.03968508
0.035594586 0.03072096 0.0962502 -0.046747528 -0.08389238 0.044438213 0.027644875 -0.05695851
0.074824646 -0.007733461 0.105955 -0.096149 -0.04791251 0.05999146 -0.06388948 0.00073051563
-0.023022788 0.1364377 -0.106464185 -0.088979416 -0.09875305 0.017391624 -0.00056988513 -0.05084197
-0.09823092 0.071635306 -0.08699756 -0.07596882 -0.019973481 -0.13084099 -0.03640244 0.016266037
0.06828202 -0.002382187 0.117327124 -0.022287818 0.05018721 -0.08251493 -0.02015424 0.09964685
0.08493874 -0.0068409 -0.056497175 -0.037797514 -0.09721234 0.06777498 0.11075191 -0.016786091
-0.07546041 0.11836665 -0.043295816 -0.027407032 -0.076781094 0.10533462 0.017595714 -0.1286065
0.115413 0.074355945 0.050642144 0.11762868 0.020956041 -0.055322565 -0.051051974 0.0716259
-0.063827544 0.07511475 -0.07201204 0.09751339 -0.029098457 0.093052745 -0.06550586 0.042110756
0.081664994 0.03164917 -0.02457886 -0.07079391 -0.060861655 0.043558158 0.10207157 -0.074014574
-0.06480898 -0.080977276 -0.013031967 -0.044497315 0.043983947 -0.044794835 -0.036418818 0.1150758
-0.082998835 -0.07429278 0.018312143 -0.092799306 -0.03140616 -0.10045745 -0.09287821 0.004580571
0.054511927 -0.039131843 -0.12025115 -0.096367255 -0.020653067 0.056568485 -0.033024304 0.04921003
0.018439423 0.117057286 0.060669564 0.022808714 -0.06410974 -0.013125121 0.107601956 0.0348154
-0.07795189 0.0966445 0.069499254 -0.06295017 0.007784677 0.0490098 0.061506968 -0.020895164
-0.000855105 0.07773516 -0.0032580495 -0.05348386 0.091410935 0.081287965 -0.04526365 -0.12309905
-0.014039352 -0.081972614 -0.025494654 -0.11283216 -0.08850842 0.030703275 -0.006929136 -0.021776913
0.03066785 0.03269869 0.08340524 -0.021354588 -0.011942884 -0.11767044 -0.11430477 -0.076926716

mlp.f.0.bias f4 [64]
00000000: 0d03 9cbc 6d16 e83d 42b7 6dbd fcfd 983c
00000010: d904 ef3c 869b ecbd 6427 923d 6017 a23d
00000020: 8d5c c23d 2179 a73d 9c0b 973d b8f0 a5bd
00000030: 1d45 b13d 6afa 49bd 1a19 123d 86e4 dabd
00000040: a7a6 31bc aae1 74bd c8dc 82bd f451 afbd
00000050: c82c 01bc 2431 a6bd 8cd6 95bd 85c8 e2bd
00000060: 22ba a73d 5998 ad3d e340 ffbc 5b1c 863d
00000070: 1e62 c83c ad7d 9dbd 8c27 a7bc 711b 483d
00000080: 4ff0 38bb f5c4 56bc f49a 7bbc 39e1 be3d
00000090: 7416 aebd b295 c93b 074d 99bd 0237 983d
000000a0: a167 cabb d1ec 9dbd fdb2 9ebd 080f 6dbc
000000b0: 48ea 9b3b 3489 8e3d 5dc3 9abc 43ca 77bd
000000c0: dfe4 e7bd bc15 18bc 5041 cb3d 2a46 f3bd
000000d0: ccb9 b6bc dffc c23d 5b27 e23d a3a2 abbd
000000e0: a013 e8bd 4611 023e 3cc7 5fbd cd19 1a3d
000000f0: 66c8 f7bd f0a7 523d c049 d3bb 86ab 8cbc
-0.019044423 0.113324024 -0.058036096 0.018675797 0.029177116 -0.11553101 0.071364194 0.07914615
0.09490309 0.081774004 0.07375261 -0.08102554 0.086557604 -0.04931108 0.03566847 -0.10688119
-0.010842956 -0.059785523 -0.06389767 -0.08560553 -0.007884212 -0.081148416 -0.07316312 -0.11073402
0.08189799 0.08476324 -0.03115887 0.06548377 0.024460848 -0.076899864 -0.0204046 0.048854295
-0.0028219407 -0.013108482 -0.015356768 0.093203016 -0.08500376 0.0061518783 -0.07485395 0.07432367
-0.0061769043 -0.07711185 -0.07748983 -0.014468916 0.004758153 0.06959763 -0.018891985 -0.060495626
-0.113229506 -0.009282526 0.09924567 -0.11878617 -0.022305392 0.095208876 0.11042663 -0.0838063
-0.11331868 0.12701902 -0.054633364 0.03762226 -0.1209877 0.05142969 -0.0064480007 -0.017171632

mlp.f.2.weight f4 [4, 64]
00000000: ac5b fabc 069e 923d 4568 61bd 5010 053e
00000010: 7bde 07bc 033c 123e 669c 77bd de8b 48bd
00000020: 2331 293c d5b3 6d3e bb18 ffbd 317a fc3c
00000030: 08b2 3a3d 0c1d 773d dbff 6abe 8c88 f5bd
00000040: 607b 8d3b 0035 183e def9 6cbd 3db2 93bd
00000050: 217f e2be dd13 283d 7f60 c7bd 912d f33b
00000060: 4bf8 c43d d8fd e0bd afc3 42bf 683d f73d
00000070: 89f6 953d 3314 b83d cb15 26be 798a ba3c
00000080: e5e7 84be d43f d73d 03ed aabd f396 193e
00000090: e3b1 233c da0a a03d 6dd2 c5bd 4fed 633c
000000a0: a890 03be abd7 353e a203 03bd 5668 0b3e
000000b0: d250 463d 1a16 8f3d e9cb 403d f419 ccbd
000000c0: 9b88 613c ac32 2fbe 8e32 4d3d 2f43 153e
000000d0: 0999 46bd 8102 dcbd ceb4 c53d 049f ee3c
000000e0: 8f0a 12bc 2ad2 963d a355 08be f1fa 04bc
000000f0: 44af 0d3d 1704 91bd 1ccf 2fbe 9a1a 78bd
00000100: f992 c63d b5a3 26bd 7a23 0ebc d125 913d
00000110: ae32 c13c 2a7f 99bd ff83 1bbe 7f4e e83b
00000120: a8ed 833c 5d93 c43d 0e29 613d 0d53 ec3d
00000130: df87 453d c56d 663d 76dd d33d 0602 40bd
00000140: d729 9c3d 72a1 afbc 9ba5 f13c de3d bd3d
00000150: f0c3 f7bd 52ce 993d 218f cb3c 9120 d5bc
00000160: 7837 37bd 04cb a7bd 4d37 f13d cef7 3fbc
00000170: 7e2e 4e3d 5776 c3bc 67a5 1fbb ef90 bb3d
00000180: 6f81 15be b6e8 e1bd ae08 7a3d 4c04 653d
00000190: 5235 553d 5b86 c03d 3b0f d9bd b971 8bbd
000001a0: 5db5 f9bd 19a8 0f3e 020d af3d 8410 b73d
000001b0: 412f 043e 12c4 7abd 6fe5 153e aadf 953c
000001c0: 6edf 113d e257 15bd a5ff 4dbd 8a39 71bd
000001d0: deaa 053d f618 823d cb89 a5bd 6467 2ebd
000001e0: fedf aabc ab67 fbbd 2878 24bc 1938 d43c
000001f0: 816d 0bbc 2559 00bd a640 773d 2095 6cbd
00000200: e550 1bbd 313d a0bc 8192 3d3d b7e6 153d
00000210: 5e7a d9bd cc68 84bc 8d0c bdbd 4165 b6bd
00000220: 7d5e aa3c aacf 6fbd 4326 d03d a216 83bd
00000230: 95a3 95bc bb92 6f3d 5f6e 033d 8c22 b23b
00000240: 4d92 45bb 49ed ecbc 9994 86bd a0c2 d23d
00000250: 537c 8d3d 2839 80bd 67c0 713d e30a 0d3d
00000260: 8907 9abd 6d48 58bd c11f 8ebd dab2 8abd
00000270: 055c a5bd f6ac eebb ebb0 ecbd 4d1a 99bd
00000280: 187e 1f3c b3d2 8d3d 738e 673d 4a5f c13d
00000290: 53ef 903d 56ea 6fbd 370a 29bb d602 39bd
000002a0: d6db b93c 90cc ecbd 632f c63d c1f0 b13d
000002b0: 5b6d c9bc e0da 0abd 1587 cb3d 9732 7d3d
000002c0: 91a7 ea3d 57b7 a2bd 4805 a8bd c0d2 e6bd
000002d0: aec5 adbc d849 6b3b 9b49 d93d 7f52 90bd
000002e0: c32d e7bd d55b 313c f342 8c3b f749 0c3d
000002f0: f5ec 46bd 634a 90bd 71d9 efbd 1ab2 c83d
00000300: 9f6c e9bc 383d a0bc 5329 803d 5885 86bd
00000310: 5338 e1bd 7ea2 fcbd 3c15 39bb c6d1 3a3d
00000320: e8e4 7d3d 03bf 40bd a04c 233c ae24 a23b
00000330: 8bf3 a33d 59d9 9bbd 13e9 b83d 1d3e 0ebd
00000340: 3216 533d 3f88 d7bd 0d2a 45bd 912b 9cbd
00000350: 2758 95bd fff4 c8bd a11c 8f3c 7258 f03d
00000360: e629 c83d 43ba 95bd 29f6 edbc d6b6 fbbc
00000370: eba4 46bd d051 6abd 0ab3 ed3c 565c 4abd
00000380: a726 b9bd ddf9 0e3d 1f3a e93d fada 1dbb
00000390: f06c ed3d aa8f a6bd 6fb5 c63d 4fc8 8cbb
000003a0: 2794 ac3d 5cf1 853c a1d3 f93c 3182 cfbd
000003b0: 8211 a9bc 4f98 b93b 52a8 b3bc def4 9c3d
000003c0: 1714 50bd 316a 57bd dfc4 b3bd c094 253d
000003d0: 96cc cd3d ba33 c83c c171 97bd 7b11 3a3d
000003e0: c9fb 7c3c c2ff a63d 6689 08bc 18f8 ea3d
000003f0: 62d1 d93d 1345 89bd 9497 c03d c019 52bd
-0.03056129 0.07159047 -0.05503108 0.12994504 -0.00829279 0.14280705 -0.060451888 -0.048961513
0.0103266565 0.23213132 -0.12455889 0.030819984 0.04557994 0.060330436 -0.22949164 -0.11988935
0.004317686 0.14863968 -0.05785548 -0.07211731 -0.44237617 0.041034568 -0.09735202 0.0074212034
0.096176706 -0.10985917 -0.7607984 0.12072259 0.073224135 0.08988228 -0.16219251 0.022771107
-0.2595817 0.10510221 -0.08345988 0.14998989 0.009991142 0.0781457 -0.09659276 0.013911559
-0.1284815 0.17758052 -0.031985886 0.1361402 0.04841692 0.069866374 0.047069464 -0.09965888
0.013765479 -0.17109174 0.05009704 0.1457641 -0.04848579 -0.10742665 0.096536264 0.029128559
-0.00891365 0.07364304 -0.13313918 -0.00811647 0.034590974 -0.07080858 -0.1716885 -0.060572244
0.096960016 -0.040683467 -0.00867545 0.07087291 0.023583736 -0.07494958 -0.15187071 0.0070894356
0.016104534 0.0959842 0.054970793 0.11539278 0.04822528 0.056257028 0.10344975 -0.04687693
0.07625168 -0.021439288 0.029497912 0.09240316 -0.12097919 0.075100556 0.024848523 -0.026016505
-0.044730633 -0.08193019 0.11778126 -0.011716796 0.050337307 -0.02386014 -0.0024360062 0.09158503
-0.14600156 -0.11030714 0.061043434 0.0559123 0.052052803 0.09400626 -0.10598608 -0.068088
-0.121927954 0.14028968 0.08547403 0.08938697 0.12908651 -0.061222143 0.14638303 0.018295128
0.03561347 -0.036460765 -0.05029263 -0.058892764 0.032633655 0.06352417 -0.080829225 -0.04257907
-0.02085876 -0.122756325 -0.010038413 0.025905656 -0.0085099945 -0.031335015 0.060364388 -0.057759404
-0.037918944 -0.019560428 0.046282295 0.03659698 -0.10619043 -0.016163252 -0.092309095 -0.089060314
0.020797009 -0.058547653 0.10163548 -0.06400801 -0.018266479 0.058489542 0.03208768 0.005436247
-0.0030147017 -0.02892174 -0.065713115 0.10291028 0.069084786 -0.06260902 0.05902138 0.03443421
-0.075209685 -0.052803446 -0.0693965 -0.067723945 -0.08074192 -0.007283802 -0.11557182 -0.074757196
0.009734653 0.06924953 0.056532335 0.09442003 0.070768975 -0.05857309 -0.0025793442 -0.04516872
0.022687834 -0.11562455 0.09677007 0.08688498 -0.024588278 -0.03390014 0.09937874 0.061815824
0.11457742 -0.079451256 -0.08204132 -0.11270666 -0.021212425 0.0035902169 0.10609742 -0.07046985
-0.11288025 0.010825117 0.004280442 0.034250226 -0.048565824 -0.07045438 -0.117113955 0.09799595
-0.028494177 -0.019560441 0.06257882 -0.06568402 -0.10997071 -0.123356804 -0.0028241416 0.04561021
0.06198588 -0.047057163 0.009966999 0.00494822 0.080054365 -0.07609815 0.090288304 -0.034727205
0.05153484 -0.10524034 -0.048135806 -0.07625497 -0.07292204 -0.09812354 0.017469706 0.117356196
0.097736165 -0.07310917 -0.029048042 -0.030726831 -0.04849712 -0.05720693 0.029016037 -0.049404465
-0.090405755 0.034906257 0.11388039 -0.002408682 0.11593044 -0.081328705 0.097025745 -0.0042963396
0.08426695 0.01635044 0.03049642 -0.10132254 -0.020638231 0.0056639086 -0.021930847 0.07663892
-0.05080041 -0.052591506 -0.087777846 0.040425062 0.10048787 0.024438728 -0.07394744 0.045426827
0.01544089 0.08154251 -0.00833354 0.114731014 0.1063564 -0.06702628 0.09403911 -0.05129409

mlp.f.2.bias f4 [4]
00000000: c5b4 00be 1de6 e13d ddf4 7ebd 158f bd3c
-0.12568958 0.11030219 -0.06224524 0.023139516

rnn_control.weight_ih_l0 f4 [192, 6]
00000000: e4d0 1a3e fdfa 43bd 6c7d 713d 2e2e 153d
00000010: aedd 093d 6111 5b3d 72c2 29bd 2a94 3bbd
00000020: 203b c1bd 0827 a03d e344 14bd 0a50 e43d
00000030: aac3 fa3a 8a59 06bc f966 e03d acb2 5a3d
00000040: 2788 913d 1d0c 04bc aaa5 433d e522 f9bd
00000050: d376 563c 99f1 95bc 1e4b cbbd ad36 95bc
00000060: 998b c73c 504b 9b3d c957 bc3c 6388 e6bc
00000070: 0a79 93bd c906 97bd a6c8 33bd 8a41 7ebd
00000080: 4543 31bd ebfa 123d a977 55bd 2929 9a3c
00000090: 34f4 883d d8df b6bd 3875 ba3d 4ce3 a7bd
000000a0: 3079 0ebe 0989 053e da4b 4abd 3880 de3d
000000b0: 045a ae3d dfb7 7e3c 7a15 3dbd ed2e d83c
000000c0: 8f4c b23b 7a03 163d 51e8 353d 9d5d 403e
000000d0: 870d e1bd a58e 703d 109c 17bd be36 0dbd
000000e0: 8d9e ad3d 4e02 afba 52d1 213d 97e2 86bd
000000f0: ca5d 4f3b 6a5d ddbd 92cc 113d 1153 6cbb
00000100: a7f7 9fbd 5eee 313d c4c3 9d3d bce4 c43d
00000110: c3ae 06be caf7 c4bc 7b5d 8b3d 5335 943d
00000120: e508 dbbd a417 86bc fdef debb 6bee babc
00000130: 201c 7c3d f143 793d 20c1 2abe 782f 543c
00000140: 6a56 6bbd 52c1 b93d 70a7 d3bc 5e5d 303d
00000150: 1534 173d 7e6c cf3d 3422 8bbd 08cf ad3c
00000160: c8b1 1a3e 8ba9 1abd 557e 3a3c c66b 97bd
00000170: 7b40 7f3c 9edf a4bd 7585 343d 0d96 c83d
00000180: d271 86bc a035 76bc 8378 dbbd 82fc e63c
00000190: 1571 803d 2aef b8bb 91c4 86bd e7d0 8a3d
000001a0: 0082 bfbd 0b95 063d ccc0 dcbd 2917 fe3c
000001b0: 9fe6 d0bd 644f 0ebc bc67 243e 85ba 763d
000001c0: f358 17be 40be bebc af5f 9b3c 115c 16bd
000001d0: bbf0 be3d ec1d f93d d2e2 c4bd 2681 c2bd
000001e0: 93f2 12ba 1c58 2f3d 9cf5 acbd e26c 8b3d
000001f0: 4aa7 8f3d 78c4 a4bd 3d72 8abd 7e17 093d
00000200: 9f47 f53d 2229 b3bd b1ae aa3d 8882 cb3d
00000210: 269e c3bd 11c0 87bd 0df1 bf3d 9f75 6ebd
00000220: 2bc0 d63c 0e98 f03b ac1f 3abe 8b1f 1e3d
00000230: 0b1c 923c fa40 15be 577a 0abd 95b8 e6bc
00000240: 4998 81bd 90fa 86bc 3df2 ccbd f077 3abe
00000250: 3c63 1c3c 43c6 98bd 33ed 783d e7d7 b53d
00000260: 68f3 a03b 6883 7cbd c14e e6bd 20c0 673d
00000270: 8b8f 9e3c 6fa7 d5bd 5397 9fbd 1d24 083d
00000280: eb7f cb3c abac 693d 1805 e53d 2ac8 4cbd
00000290: 3154 a7bc d538 febd 7f15 eb3d 6f88 0bbc
000002a0: 349f 8e3c 2658 0b3c 12e1 99bd 4ed4 193d
000002b0: 97de db3d 041f 103d 96f3 df3b 189b 1abd
000002c0: 2c99 d23d 5f6b ba3d 7db8 51be 9b49 ecbd
000002d0: 4bd4 e93d 1774 d13d 007c 6c3c f496 cd3d
000002e0: 73f3 96bc 6397 c33c 383d 633d 4425 d93d
000002f0: 1fce 51bd b6eb 623d 01f9 ae3d d70f f0bc
00000300: 9fb7 dcbc 0219 7d3d 9ea2 95bd 9e15 6a3d
00000310: bf84 023e f6e9 653d d437 92bd f5a5 fd3d
00000320: fd31 a73d 0a53 2ebe ee5d 01be e8aa 243d
00000330: eedd 7e3d f236 e23d ca15 6b3d 5ba4 c73d
00000340: 5115 11bd 23b8 38bc dfd3 a2bd 2239 9bbb
00000350: f86a 233d 4220 5a3d 3056 9a3d fc7e 0b3d
00000360: 1854 763d e2fb fabd 28c5 473d 563d 04bb
00000370: e679 aa3d bdec d83c 66fd 5dbd 4139 35bd
00000380: 5799 44bd ac3d d13d 5e63 e63d 1cd4 dbbd
00000390: f49b 60bd c0f0 043d 854c 31bb d0c8 c0bd
000003a0: b10d 18bd 6ef8 a33b d88c 463d a007 093e
000003b0: 664a 81bd 6511 eebb 4465 e9ba 85d5 96bc
000003c0: b72d b13d 709d 00be 8486 903d b10e 7abd
000003d0: 42fb de3d b77e c1bc a890 11be 4cd1 00bd
000003e0: dc1a fbbd 316c 513d 562c e0bd bb18 f4bd
000003f0: 23b2 95bd aa5d 183d 2c00 98bd 9ff1 d2bd
0.15118748 -0.047846783 0.058957502 0.036420994 0.033658676 0.05348337 -0.041445203 -0.045795597
-0.09435105 0.078199446 -0.036198508 0.11148079 0.0019131799 -0.008200059 0.109571405 0.05339305
0.07106047 -0.008059529 0.04776541 -0.12164859 0.013089853 -0.01830368 -0.09926437 -0.018214548
0.024358558 0.07582724 0.022991078 -0.028141206 -0.07200821 -0.07374341 -0.043892525 -0.06207422
-0.043277044 0.035883825 -0.05211607 0.018818455 0.06687203 -0.089294136 0.09104389 -0.0819765
-0.13913417 0.13040556 -0.049388744 0.108642995 0.08513263 0.015546768 -0.04616306 0.026389563
0.0054412554 0.03662441 0.044411007 0.1878571 -0.10988908 0.058729786 -0.037014067 -0.034476034
0.08477507 -0.0013352127 0.039506264 -0.06586187 0.0031641596 -0.10808833 0.035595484 -0.0036060254
-0.07810908 0.043440215 0.07703355 0.0961394 -0.13152604 -0.024043936 0.06804939 0.07236733
-0.10695056 -0.016368695 -0.006803511 -0.022818765 0.06155026 0.06085581 -0.16675234 0.012950771
-0.057455458 0.09070076 -0.025836676 0.043057792 0.036914904 0.10128115 -0.06793633 0.021216884
0.1510688 -0.037759345 0.011382659 -0.07393603 0.015579338 -0.08050464 0.044072587 0.09794245
-0.016411696 -0.015027434 -0.10716345 0.028196577 0.06271569 -0.005643745 -0.06580461 0.06778126
-0.093509674 0.032856982 -0.107789606 0.031016903 -0.102002375 -0.00868592 0.16055197 0.060236473
-0.14780025 -0.023284078 0.018966524 -0.036708895 0.093232594 0.1216391 -0.09613575 -0.09497289
-0.00056056044 0.042808637 -0.08445284 0.06807877 0.0701433 -0.08045286 -0.067600705 0.03346967
0.11976551 -0.0874808 0.08334101 0.09937006 -0.09551649 -0.06628431 0.09372149 -0.05821764
0.02621468 0.007342345 -0.18176144 0.0386043 0.017835638 -0.14575568 -0.03380808 -0.028164187
-0.06327874 -0.0164769 -0.10007141 -0.18209815 0.009545144 -0.074596904 0.060773086 0.08879071
0.004911829 -0.061648756 -0.1124549 0.05657971 0.019355556 -0.10432326 -0.07792535 0.033237565
0.02484127 0.057049435 0.11182612 -0.04999558 -0.020425888 -0.124131836 0.114787094 -0.008516415
0.017409898 0.008504903 -0.07513632 0.037555985 0.10735815 0.03518583 0.0068344576 -0.037745565
0.102831215 0.09102511 -0.20480533 -0.11537477 0.11417445 0.102272205 0.014433861 0.10038558
-0.018426633 0.023875898 0.055478305 0.10602811 -0.051221963 0.055400573 0.085435875 -0.029304428
-0.026943026 0.061791427 -0.073064074 0.057149522 0.12745951 0.056131326 -0.071395546 0.123851694
0.081638314 -0.17023864 -0.12633488 0.04020205 0.062223367 0.11045636 0.057393827 0.09748145
-0.03542072 -0.01127437 -0.079505675 -0.0047370354 0.039896935 0.05325342 0.0753597 0.03405665
0.06013879 -0.12255074 0.048772007 -0.002017816 0.083240315 0.026480073 -0.054196738 -0.044244055
-0.0479978 0.10216841 0.112494215 -0.10733816 -0.05483623 0.03245616 -0.0027053666 -0.09413302
-0.037122432 0.0050039804 0.048474163 0.13381815 -0.063130185 -0.007265257 -0.0017806669 -0.01841236
0.086512975 -0.12560058 0.07056907 -0.061049167 0.108877674 -0.023619993 -0.14215338 -0.0314496
-0.122609824 0.05112857 -0.109459564 -0.119187795 -0.073093675 0.0371987 -0.07421908 -0.10299992

rnn_control.weight_hh_l0 f4 [192, 64]
00000000: 66e1 cc3d 2ece c23d 5243 08be aba3 4d3d
00000010: a5ba 163b 505a 633d 651c b2bd c608 f2bc
00000020: 4e61 13be d495 6bbc 6490 3bbd 066b c4bc
00000030: f51d c0bd 1a24 1c3c d749 073d 073d 1bbc
00000040: cfe4 7f3d 279a edbd 6f7d d73d 7ba8 f0bd
00000050: 1903 aabc 1de6 2dbd fa47 bfbd b6ef 263d
00000060: 8929 acbd 83c1 c0bc 6e98 063e d9bf 3f3d
00000070: 2f6c ba3c 7542 bebc 12b4 843c 2f2d 25bd
00000080: effe d33d 520a fbbd 3c2f 0ebe c408 b43d
00000090: e821 a13d af5e bd3d 8b8d 44bd b967 81bd
000000a0: 6c01 dfbc 8623 bebd 66fb 943c 47a1 8d3b
000000b0: 8289 583d 4d6e f93d 90ca 073e 3d28 18bd
000000c0: c651 b33a ce05 dfbc dc70 233d 974a 2abe
000000d0: eba9 16bd d7d9 db3b 5427 853c 2726 3c3d
000000e0: 93e2 9d3b 108c 94bd 9d77 c73d 6e4b 08bd
000000f0: 5be5 3fbd 401b 9bbd 2267 4c3d c782 c43d
00000100: e21b 573d d9f3 a43c ecbe c1bd cbb9 f53d
00000110: 2727 9d3d db85 d23d 698e 8e3d 51d6 213c
00000120: 82af 893d b4e5 babc b2b2 e7bd e928 dcbb
00000130: bb53 c8bd 9c45 e33d 02f4 d1bd 9024 64bd
00000140: 80f6 343c 16bb 3d3d 44d6 0c3e f975 093e
00000150: f2e2 ae3c c837 e33d c66f d139 2c89 6ebd
00000160: 8074 b8bc 74c4 c03b 5c4c 223c d831 09bc
00000170: 5647 a9bd d7ce 463d ab1d 1a3d 7596 8f3d
00000180: c13f b0bd 0a0b 9a3d b303 8a3d 9c38 5bbd
00000190: 4fb8 c1bc c14e a43d 9cbb 74bd 3c02 2b3c
000001a0: efca 82bc 1525 44bd 4369 f2bd f3df 413d
000001b0: 8884 65bb 28a6 debd 28aa e3bc 2c0e aabc
000001c0: 614d 9a3c 97ff 7fbd 018f bbbb b09c a73d
000001d0: e1da a8bd 7896 aebd 73a5 af3d 0037 69bd
000001e0: dc51 92bd f9fd adbd fb8b bd3d b27c b93b
000001f0: d922 c2ba 7969 253d 7616 2ebd 575b 84bd
00000200: 6a4d 45bc 349a d7bd 8bbc 05be 5645 ae3d
00000210: b974 17ba 9d00 b1bd 6404 43bd b344 013e
00000220: f5e9 11be 85d6 85bd 453b b43d 57c0 8bbc
00000230: 0bb4 4cbd 78ec 8f3d d61f dbbd 5232 2fb9
00000240: eb9d 1f3e c434 c5bc 7c2a 58bd 2711 d4bd
00000250: 9905 24bb 5d21 a93d 898f 5039 de87 a13d
00000260: 29bc 3bbd e795 a5bd 81f9 63bc 8cf1 413c
00000270: af6d 9a3d 8cbf ef3d f7e6 7abd a6dc e8bd
00000280: 432c 913d 9f78 82be 6c8c 3e3d 30d3 c53b
00000290: df0d 84bd cc13 6cbc 5ccb 54bb 2c6b d6bd
000002a0: b3f2 7cbd 9873 25bd 84ee 773d b6cc 343e
000002b0: 0a1b d53d 4aa5 db3d aff7 10bc 5d7e ec3d
000002c0: 7aa9 f6bd 93cd 30be 5a37 0a3e 89d9 833d
000002d0: 1652 e63d ff7d 8e3d 1989 71bd d429 05be
000002e0: 02e1 003e 8e0d 25be 898a 97bd b888 12be
000002f0: 1486 cc3c 3c53 903d 5b51 843c 2e19 6e3d
00000300: 12dd 25bc 1596 83bd a208 f83d d707 9f3d
00000310: defa 3bbd 10f3 90bd d50d 6bbd fb73 f9bc
00000320: f53a 013e 1879 c2bc b8a7 ed3c 5aa0 893d
00000330: ee01 16bc 8606 853d 8a03 89bd 1194 a4bc
00000340: f253 f13c 1612 873d a5df da3d c438 8abd
00000350: 5e99 f4bc 67fa 64bd 9492 f83d ad1a cb3d
00000360: b771 c33d 85e2 0e3d a1e7 25bd 207c fd3c
00000370: e724 c6bd 03c7 11ba 79ce 99bd cf35 bcbd
00000380: 4ff0 0cbe 3a8c a23d 8258 b93d 9d27 26bd
00000390: f89d aabd 88ca 46bd ef27 463d 834e f63d
000003a0: 59cd 953d 77bf 3bbd 033e ea3d 4624 963d
000003b0: ed9c 1b3c 7e10 a33d f1ea b3bd b5c5 33b9
000003c0: 5cb7 5f3c fc2e 493c a997 b53d fb04 913d
000003d0: 57cf 0a3d 685c 173d 852e a3bd f4be bc3d
000003e0: 028f babb ffef 68bd c73d 4f3d 14e7 39bd
000003f0: 6ace 213c 6302 1b3c 15a4 58bb a49f ba3d
0.10003929 0.09511982 -0.1330693 0.050204914 0.0022999432 0.05550605 -0.08696822 -0.0295452
-0.14392588 -0.0143789835 -0.045792 -0.023976814 -0.09380714 0.009530092 0.033029404 -0.009474999
0.06247407 -0.11601668 0.105219714 -0.11750885 -0.02075343 -0.04245578 -0.093399 0.04075595
-0.0840636 -0.023529774 0.13144085 0.04681382 0.022756664 -0.023225049 0.016199145 -0.040326294
0.10351359 -0.12257828 -0.13885206 0.087907344 0.07867795 0.09246575 -0.04798655 -0.06318612
-0.027222358 -0.09284119 0.018186282 0.0043222043 0.052865513 0.12179241 0.13260865 -0.03714775
0.0013680987 -0.027224448 0.039902553 -0.16630016 -0.03678314 0.006709318 0.016254105 0.045934822
0.0048182695 -0.07253277 0.09739611 -0.03327506 -0.04684959 -0.07573557 0.049903043 0.09595256
0.052516825 0.020135807 -0.094602436 0.11998328 0.07673483 0.10279437 0.06960756 0.009877757
0.067229286 -0.02281461 -0.1131338 -0.006718744 -0.09781595 0.11097261 -0.10251619 -0.05569893
0.011045098 0.046320997 0.13753611 0.13423909 0.02134845 0.11094624 0.00039946864 -0.058236286
-0.022516489 0.005882794 0.009905901 -0.0083737 -0.082655594 0.0485371 0.03762595 0.07011119
-0.0860591 0.07521637 0.06738987 -0.053520784 -0.023647455 0.080228336 -0.05974923 0.010437544
-0.015965907 -0.047886927 -0.11836483 0.047332715 -0.0035021622 -0.108715355 -0.027791098 -0.02075871
0.018835725 -0.06249961 -0.0057238345 0.08184183 -0.08244873 -0.085247934 0.08576479 -0.056937218
-0.0714452 -0.08495707 0.09255215 0.005660617 -0.0014811411 0.04038379 -0.04250189 -0.06462734
-0.012042383 -0.10527459 -0.13060205 0.085093185 -0.0005777586 -0.08642695 -0.04761161 0.12623863
-0.14249404 -0.06535057 0.08800367 -0.017059488 -0.04997639 0.07027525 -0.106994316 -0.00016708046
0.15587585 -0.024073012 -0.05277489 -0.10354834 -0.002502775 0.08258317 0.00019889897 0.07887243
-0.04583374 -0.08085232 -0.013914467 0.011837374 0.07540452 0.117064565 -0.06125542 -0.1137021
0.070885204 -0.25482652 0.046520635 0.0060371384 -0.06447958 -0.014409017 -0.0032469844 -0.1046966
-0.061754894 -0.040393442 0.0605302 0.17656216 0.10405548 0.10724886 -0.008848115 0.115475394
-0.12044044 -0.1726592 0.13497677 0.06437976 0.112461254 0.069576256 -0.058968637 -0.13004237
0.12585834 -0.16118452 -0.0739947 -0.14309967 0.024966277 0.07047126 0.016152075 0.058129482
-0.010123508 -0.0642511 0.121110216 0.07765167 -0.045893542 -0.070776105 -0.057386238 -0.030450812
0.12620147 -0.023739383 0.029010639 0.06720038 -0.0091557335 0.06495385 -0.06690128 -0.020090135
0.029458974 0.065952465 0.10687188 -0.067491084 -0.029858287 -0.055902865 0.121373326 0.099171974
0.09543174 0.034883995 -0.0405041 0.030942976 -0.09675007 -0.0005560966 -0.07510085 -0.09189951
-0.13763545 0.07936902 0.09050085 -0.040565122 -0.083309114 -0.048532993 0.048377927 0.12026694
0.073145576 -0.045836892 0.11437609 0.07331137 0.009497863 0.0796213 -0.08785046 -0.00017144422
0.013654556 0.012279268 0.088668175 0.07081028 0.03388914 0.03695336 -0.07967857 0.09216109
-0.0056933174 -0.056869503 0.050596025 -0.04538639 0.009875873 0.009461018 -0.0033056785 0.0911248
