trained_models/find_p/P.pt (torch, 57284 bytes, 11 tensors)

par f4 [4]
1.4257625 0.0009366764 35.577126 0.002308891
00000000: 637f b63f 4a8b 753a fa4e 0e42 c350 173b

model.f.0.weight f4 [64, 5]
-0.05845898 0.118493766 -0.2930851 0.062748544 -0.094290964 0.026819011 -0.059173282 0.2751651
-0.30220538 0.11504867 0.12866151 0.07449799 -0.62071025 0.26890463 0.15254381 0.016603077
0.2842475 0.99771476 -0.12938456 0.06803282 0.19036649 -0.18033762 -0.5015075 0.049153812
0.041982405 -0.0027888215 -0.058485825 -0.3332084 -0.10064626 0.04303008 0.0039444333 -0.0116105275
-1.1388017 0.038799334 -0.029787226 -0.032840773 0.04686325 0.9498214 -0.07492452 -0.05115442
0.1255887 -0.01575132 0.23586118 -0.039990373 0.020954747 -0.041835982 0.09498042 0.635551
-0.029328814 0.015571329 0.03267683 0.07817117 0.31663036 -0.07963342 -0.015329384 -0.072906196
0.13862792 -0.20100012 0.046532013 0.028947422 -0.01581473 -0.0119104255 -0.5004944 0.038438324
-0.06724141 -0.112512186 0.32208127 0.33814383 0.15758547 0.20897368 -0.13472435 -0.009960647
1.1616737 0.46351302 0.16411719 0.043096725 -0.092780404 -0.7826005 -0.0025935979 0.022125436
-0.053442452 0.17598255 0.6971811 0.043734163 0.0023715214 0.08251182 0.105358064 -0.50125974
0.086044945 -0.09876404 0.2760716 0.030423079 -0.28428826 -0.029757962 -0.038567744 -0.036400333
-0.057267852 -0.11068578 0.0050797886 -0.0916502 0.039004926 -0.19947319 -1.1179516 0.068098605
-0.009484602 0.028303772 0.32964742 0.36008507 0.12042917 0.058966707 0.0032796706 0.054224573
0.35559762 0.0031503725 -0.029529192 -0.28266394 -0.4484767 1.1300646 0.2819099 -0.010896068
0.0060551325 -0.015830623 -0.59998006 -0.023547834 0.044544082 0.03983596 -0.09663386 -0.52854246
-0.003192004 -0.06701878 0.084513634 0.05479813 -0.63229835 0.25815046 -0.019822475 0.09987688
-0.12838131 0.25335136 0.023937909 0.026822198 0.09745321 0.2643061 -0.93141156 0.29876733
-0.19411464 -0.0028413823 0.091274746 0.7733009 0.020212179 0.08192548 0.032815307 0.05983235
0.25407517 -0.034753025 -0.013417275 0.024848886 -0.0072595174 -0.47592902 0.026993018 0.021376744
0.012984915 0.094519176 -0.5108788 0.14035326 -0.11567029 -0.042536493 0.0015803351 -0.6532559
0.07840067 -0.009294811 0.022442024 -0.12662196 -0.33791792 0.03104932 0.031953942 -0.08303524
0.020730184 0.01660181 0.09042091 0.05770857 -0.040182576 0.19414088 0.5816306 0.0037818654
-0.04520488 -0.05138709 -0.06724501 0.0046687676 -0.03947345 -0.0071998956 0.051339146 -0.02924097
-1.270135 0.06435238 0.045807634 0.08010277 0.0649461 -0.7514464 0.13480501 0.001012915
0.05703721 0.042130575 -0.48000756 -0.10798978 0.0072500887 0.012695729 0.06294234 0.4699722
0.017299281 0.08704494 -0.019166827 -0.051947743 0.14763913 -0.036830597 0.013175742 0.10953757
-0.22282265 -1.6690094 0.3000932 -0.03003909 -0.023744568 0.12471049 0.45393074 0.052964836
0.002078652 -0.060289796 -0.12276316 -0.91543317 0.08211993 -0.07184104 -0.00038012624 0.117195204
0.54279286 -0.07957315 -0.066946484 -0.1445233 0.27459696 -0.28860542 0.039902557 0.02696113
-0.047431912 0.039717164 -0.051514935 0.0037011714 -0.015751153 -0.043128222 0.0951578 -0.23425801
-0.07913455 -0.15920097 -0.06703345 0.066966034 0.76313615 0.026441421 -0.010803624 -0.071820736
00000000: af72 6fbd dcac f23d 400f 96be 4f82 803d
00000010: 9f1b c1bd 8bb3 db3c af5f 72bd 71e2 8c3e
00000020: aaba 9abe a39e eb3d d8bf 033e 6792 983d
00000030: dee6 1ebf dead 893e 7234 1c3e 2d03 883c
00000040: e388 913e 3c6a 7f3f 637d 04be cb54 8b3d
00000050: 6fef 423e 6daa 38be cc62 00bf 8255 493d
00000060: bef5 2b3d a9c4 36bb d58e 6fbd 4b9a aabe
00000070: a01f cebd 4f40 303d 4e40 813b 153a 3ebc
00000080: 41c4 91bf 0dec 1e3d 5704 f4bc 0c84 06bd
00000090: aef3 3f3d 7f27 733f 0772 99bd 4c87 51bd
000000a0: 539a 003e ea08 81bc 9885 713e f2cc 23bd
000000b0: 4aa9 ab3c 355c 2bbd 1885 c23d 78b3 223f
000000c0: fb42 f0bc e31e 7f3c 24d8 053d 3518 a03d
000000d0: 601d a23e d916 a3bd 1928 7bbc d84f 95bd
000000e0: 7af4 0d3e fad2 4dbe 5a98 3e3d 2523 ed3c
000000f0: e58d 81bc f223 43bc 6720 00bf 8171 1d3d
00000100: ddb5 89bd ca6c e6bd d6e7 a43e 3021 ad3e
00000110: 165e 213e 32fd 553e 2ef5 09be fb31 23bc
00000120: b9b1 943f 9451 ed3e 560e 283e 3186 303d
00000130: a703 bebd 8258 48bf 5af9 29bb 6740 b53c
00000140: 79e6 5abd c534 343e 767a 323f 9822 333d
00000150: 876b 1b3b f5fb a83d f8c5 d73d 8f52 00bf
00000160: 5538 b03d cd44 cabd 4259 8d3e d239 f93c
00000170: 3b8e 91be f8c6 f3bc 36f9 1dbd 8418 15bd
00000180: b291 6abd 3aaf e2bd 5b74 a63b 1ab3 bbbd
00000190: a1c3 1f3d b342 4cbe 0a19 8fbf 4877 8b3d
000001a0: 4e65 1bbc 50dd e73c 8cc7 a83e 125d b83e
000001b0: 92a3 f63d 1387 713d beef 563b 961a 5e3d
000001c0: e410 b63e 7b76 4e3b 34e7 f1bc 54b9 90be
000001d0: bd9e e5be f5a5 903f 7f56 903e 6c85 32bc
000001e0: 226a c63b 39af 81bc 4b98 19bf 63e7 c0bc
000001f0: db73 363d 082b 233d f9e7 c5bd 8f4e 07bf
00000200: f130 51bb 2441 89bd 7c15 ad3d 0174 603d
00000210: 4ede 21bf 4c2c 843e be62 a2bc 408c cc3d
00000220: 6476 03be 45b7 813e 6f19 c43c 3aba db3c
00000230: 8c95 c73d 2153 873e fd70 6ebf 08f8 983e
00000240: fdc5 46be 7c36 3abb 41ee ba3d 0cf7 453f
00000250: 0394 a53c 8cc8 a73d 5869 063d c412 753d
00000260: 2416 823e 3059 0ebd 21d4 5bbc e48f cb3c
00000270: 3fe1 edbb f8ac f3be 7620 dd3c 481e af3c
00000280: aebe 543c 4593 c13d f4c8 02bf c4b8 0f3e
00000290: 8ce4 ecbd bf3a 2ebd 3f23 cf3a c73b 27bf
000002a0: 8890 a03d 4349 18bc 56d8 b73c 30a9 01be
000002b0: 9403 adbe 255b fe3c 23e2 023d 610e aabd
000002c0: 59d2 a93c 8500 883c 992e b93d d25f 6c3d
000002d0: 7c96 24bd decc 463e bee5 143f 2cd9 773b
000002e0: c128 39bd 457b 52bd c0b7 89bd 76fc 983b
000002f0: eaae 21bd 1aed ebbb ff48 523d c28a efbc
00000300: c993 a2bf 2ecb 833d c9a0 3b3d ec0c a43d
00000310: 7602 853d cb5e 40bf 530a 0a3e cac3 843a
00000320: d99f 693d 1c91 2c3d 8dc3 f5be bf29 ddbd
00000330: 2792 ed3b bf01 503c eae7 803d 32a0 f03e
00000340: 39b7 8d3c 9e44 b23d c003 9dbc 28c7 54bd
00000350: b62e 173e aedb 16bd 11df 573c 3c55 e03d
00000360: 9f2b 64be 1aa2 d5bf d1a5 993e 8a14 f6bc
00000370: f883 c2bc 3768 ff3d 9c69 e83e a8f1 583d
00000380: fe39 083b 6ff2 76bd 406b fbbd d459 6abf
00000390: 7e2e a83d 6521 93bd ae4b c7b9 0a04 f03d
000003a0: 79f4 0a3f 3ff7 a2bd 3d1b 89bd eafd 13be
000003b0: f997 8c3e 17c4 93be dd70 233d 96dd dc3c
000003c0: f747 42bd 77ae 223d 5301 53bd 5a8f 723b
000003d0: 9008 81bc 38a7 30bd 18e2 c23d 55e1 6fbe
000003e0: 4c11 a2bd 9405 23be d548 89bd 7d25 893d
000003f0: e45c 433f ae9b d83c af01 31bc c016 93bd

model.f.0.bias f4 [64]
0.38556382 0.09481912 -0.02197298 -0.078171834 0.56908894 0.08910181 0.3730883 0.068223365
0.34273106 -0.4208562 0.08125402 -0.48165452 0.09750702 0.093769416 -1.0005525 0.23835967
0.09203656 0.292943 0.4445277 0.5901263 0.19884959 0.3073313 0.3774492 0.703771
0.20669909 0.586999 0.38126296 0.35975984 -0.5683725 -0.06390892 -0.45895043 0.2471558
0.2975952 -0.410676 0.24175744 0.43679786 -0.26444495 -0.25321415 -0.349251 0.16679557
-0.30384603 -0.36741215 -0.49328306 0.6220241 0.09548892 -0.26207107 0.19916949 -0.554137
-0.19221717 -0.07772906 -0.24794775 0.01270141 -0.024258927 0.07028117 0.18144973 0.24106157
0.065048076 0.31815782 0.30583778 0.51635575 0.40965948 0.20404857 -0.13277668 0.406076
00000000: 9f68 c53e 8730 c23d ae00 b4bc 8e18 a0bd
00000010: d0af 113f 027b b63d 6e05 bf3e b1b8 8b3d
00000020: 727a af3e 777a d7be 8268 a63d 6c9b f6be
00000030: c3b1 c73d 2e0a c03d 1b12 80bf 8f14 743e
00000040: aa7d bc3d a0fc 953e 2299 e33e 8412 173f
00000050: 3a9f 4b3e 875a 9d3e 0641 c13e 562a 343f
00000060: eda8 533e 9145 163f e634 c33e 7132 b83e
00000070: dc80 11bf aee2 82bd 8dfb eabe 6916 7d3e
00000080: 665e 983e 2044 d2be 438f 773e f8a3 df3e
00000090: 5465 87be 49a5 81be 07d1 b2be 75cc 2a3e
000000a0: b591 9bbe 721d bcbe 998f fcbe f93c 1f3f
000000b0: b28f c33d 2e2e 86be 16f3 4b3e ecdb 0dbf
000000c0: 94d4 44be 6a30 9fbd 04e6 7dbe 9319 503c
000000d0: a8ba c6bc 93ef 8f3d f5cd 393e d8d8 763e
000000e0: ed37 853d 95e5 a23e c596 9c3e e42f 043f
000000f0: e3be d13e 1cf2 503e 9cf6 07be 32e9 cf3e

model.f.2.weight f4 [64, 64]
0.14757673 0.20751059 -0.1042883 -0.089676365 0.2604243 0.08074 -0.0038380506 0.16211075
0.018930063 -0.27161703 -0.16079609 -0.13765736 0.1351582 -0.0059779445 -0.35678393 -0.088483535
-0.09213147 0.07064406 0.102298364 0.2026768 0.10146539 0.06961304 0.20256926 0.22946721
-0.047409445 0.1792856 0.110036984 0.1057634 0.18158379 0.0033391493 -0.26791948 -0.14283715
0.07775776 -0.20048329 0.12528995 0.31740874 -0.049852423 -0.12058321 -0.107240856 0.0713086
-0.13219336 -0.1577601 -0.18363641 0.026310392 0.055236056 0.0032497612 -0.08624555 -0.2738724
0.09588507 0.016370386 0.0079836035 -0.14437929 0.073200576 -0.025672201 0.040467322 -0.020252578
-0.06250928 0.11786532 0.06761114 0.27034932 -0.015948564 0.2862835 0.091136746 0.06177818
0.025987856 -0.0025564607 0.14364497 0.03713787 0.078503184 0.092320286 -0.063147135 0.007498704
-0.0036627562 0.07811423 -0.18952638 0.052046224 -0.049718548 0.111725055 0.22566554 -0.065222606
-0.061452158 -0.018156392 -0.1423685 -0.28241804 -0.04982486 -0.015872484 0.03446711 -0.103386305
0.109927 -0.21540745 0.101670116 -0.10258614 -0.17775038 0.20147191 -0.1262282 0.021027062
-0.1761907 -0.05248743 -0.07348614 0.074390195 0.009927012 0.0514759 0.2663849 0.10634292
0.10979189 0.08078601 0.04159468 -0.085010804 0.1790141 -0.09839907 0.009374037 0.09459792
-0.1795932 -0.15883449 0.042865913 0.07553462 -0.14711158 0.11672648 -0.10330354 0.105170734
0.0027500223 -0.12906456 -0.1228378 0.029599305 -0.21625377 -0.023839824 -0.073467925 -0.054231998
0.025552396 0.03516396 0.013541057 -0.055866882 -0.17694145 0.12538576 0.045695618 -0.0031722102
-0.03331647 0.07253179 0.22488344 -0.0032564288 0.0016985539 -0.23927125 0.20207465 -0.030452939
-0.06605751 -0.114855364 -0.042186067 0.06421776 -0.091165885 -0.29359022 -0.011949161 -0.1616768
-0.038636774 -0.18839735 -0.06397666 -0.040468596 -0.013713775 -0.15966828 0.034754273 0.030984767
0.018997213 0.08451589 -0.16460866 -0.15917325 -0.057423983 0.18105939 -0.12898833 -0.035025857
0.122234195 -0.11812864 0.019776002 -0.118622415 -0.08604154 0.03098079 0.17847936 0.10826789
0.091134526 0.034522716 -0.08990362 0.043946795 -0.03742372 0.069839 0.071987405 -0.08620781
0.15548046 -0.040195562 0.07716901 -0.060626313 -0.02031191 0.019481456 0.09254343 -0.099671915
0.18458617 -0.5957405 0.06459461 0.21433343 -0.37672678 -0.44831198 -0.29349634 0.028545396
-0.057981167 0.13945292 -0.012569451 0.26824898 0.1645229 0.051169965 -0.08110187 -0.18540055
0.15275486 0.26105148 -0.16328739 0.093526624 -0.20767651 0.24137414 -0.05861257 0.31547594
-0.24377006 -0.09550948 0.034032963 -0.08715518 0.19742401 0.084535964 0.18556148 -0.0015098022
0.28940699 0.116500854 -0.10408624 -0.07263624 0.33867887 -0.07484192 -0.012854974 0.40801954
0.09206884 -0.07826239 0.06757142 -0.11426977 0.025260134 0.16597092 -0.036698133 0.16843683
0.14003351 0.15008132 0.20355968 0.21678448 -0.33325022 -0.13939492 -0.0702747 -0.2002872
-0.12708344 -0.07573094 -0.00544697 -0.14273876 -0.14426835 -0.43152815 -0.21749085 -0.06512496
00000000: 5b1e 173e a87d 543e 1b95 d5bd 3ea8 b7bd
00000010: 5556 853e 035b a53d ce87 7bbb 5c00 263e
00000020: 3813 9b3c 6311 8bbe bba7 24be 0df6 0cbe
00000030: e966 0a3e a2e2 c3bb 62ac b6be db36 b5bd
00000040: 6daf bcbd d5ad 903d ce81 d13d 828a 4f3e
00000050: 16cd cf3d 4891 8e3d 516e 4f3e 74f9 6a3e
00000060: 6830 42bd a596 373e 125b e13d 7b9a d83d
00000070: 1af1 393e a1d5 5a3b be2c 89be e743 12be
00000080: 763f 9f3d 7e4b 4dbe 024c 003e 6683 a23e
00000090: 0e32 4cbd 54f4 f6bd 18a1 dbbd 3e0a 923d
000000a0: b25d 07be dd8b 21be 2f0b 3cbe e488 d73c
000000b0: 343f 623d f2f9 543b 82a1 b0bd 0139 8cbe
000000c0: 645f c43d 301b 863c a9cd 023c 2ad8 13be
000000d0: 2fea 953d 824e d2bc 10c1 253d bce8 a5bc
000000e0: de04 80bd 5f63 f13d b677 8a3d 3a6b 8a3e
000000f0: 90a6 82bc c093 923e e7a5 ba3d 1e0b 7d3d
00000100: 7ce4 d43c 4b8a 27bb ab17 133e e11d 183d
00000110: 47c6 a03d 6b12 bd3d 4953 81bd b0b7 f53b
00000120: da0a 70bb 5afa 9f3d 3413 42be 6c2e 553d
00000130: ada5 4bbd 1bd0 e43d de14 673e 6e93 85bd
00000140: 42b5 7bbd b7bc 94bc 0cc9 11be 1999 90be
00000150: 2715 4cbd 0307 82bc 622d 0d3d 33bc d3bd
00000160: 6821 e13d c593 5cbe 6c38 d03d af18 d2bd
00000170: 3204 36be a74e 4e3e f741 01be f240 ac3c
00000180: 566b 34be 0ffd 56bd e77f 96bd e359 983d
00000190: e8a4 223c 65d8 523d 9a63 883e 51ca d93d
000001a0: 92da e03d 2373 a53d 2f5f 2a3d 251a aebd
000001b0: 794f 373e 7485 c9bd 9095 193c 8ebc c13d
000001c0: 48e7 37be 82a5 22be 2b94 2f3d e5b1 9a3d
000001d0: 6ba4 16be 4b0e ef3d ce90 d3bd c163 d73d
000001e0: b839 343b 8029 04be 6292 fbbd 3e7a f23c
000001f0: a171 5dbe bc4b c3bc 5a76 96bd 5f22 5ebd
00000200: 4253 d13c 1608 103d 4fdb 5d3c acd4 64bd
00000210: 2430 35be 2065 003e 542b 3b3d dbe4 4fbb
00000220: da76 08bd 8c8b 943d d847 663e cf69 55bb
00000230: 03a2 de3a 8603 75be a8ec 4e3e 7178 f9bc
00000240: 2949 87bd 4a39 ebbd 4ccb 2cbd 9a84 833d
00000250: 2eb5 babd 7551 96be 6ac6 43bc 9a8e 25be
00000260: 9841 1ebd 3ceb 40be 3206 83bd 66c2 25bd
00000270: beaf 60bc 1580 23be 7f5a 0e3d c4d3 fd3c
00000280: 0ba0 9b3c ab16 ad3d 2c8f 28be 50fe 22be
00000290: 6935 6bbd a267 393e 8415 04be 4677 0fbd
000002a0: ec55 fa3d 6eed f1bd 4801 a23c 4ff0 f2bd
000002b0: 8c36 b0bd 6dcb fd3c 4bc3 363e 8ebb dd3d
000002c0: bda4 ba3d b167 0d3d 641f b8bd 8e01 343d
000002d0: 9d49 19bd c007 8f3d 226e 933d b88d b0bd
000002e0: 4536 1f3e 1aa4 24bd c90a 9e3d 4c53 78bd
000002f0: 2a65 a6bc 9397 9f3c 6987 bd3d ca20 ccbd
00000300: 2804 3d3e 7382 18bf 2e4a 843d 397a 5b3e
00000310: 55e2 c0be 2689 e5be 2745 96be 09d8 e93c
00000320: a97d 6dbd bfcc 0e3e 19f0 4dbc ee57 893e
00000330: b178 283e 9997 513d bd18 a6bd a4d9 3dbe
00000340: c56b 1c3e 8aa8 853e cf34 27be e38a bf3d
00000350: 27a9 54be c82a 773e bc13 70bd 1086 a13e
00000360: dc9e 79be 799a c3bd 2666 0b3d 6a7e b2bd
00000370: 8529 4a3e 3121 ad3d d403 3e3e 8ee4 c5ba
00000380: 272d 943e 0098 ee3d 2b2b d5bd 4fc2 94bd
00000390: 5167 ad3e b846 99bd ab9d 52bc f0e7 d03e
000003a0: 978e bc3d 0848 a0bd e262 8a3d 4506 eabd
000003b0: 57ee ce3c 48f4 293e c850 16bd b47a 2c3e
000003c0: f264 0f3e ebae 193e f371 503e c0fc 5d3e
000003d0: c69f aabe 8bbd 0ebe 2fec 8fbd 1618 4dbe
000003e0: 2922 02be d318 9bbd 7f7c b2bb 1c2a 12be
000003f0: 15bb 13be 42f1 dcbe ecb5 5ebe 3c60 85bd

model.f.2.bias f4 [64]
0.29369804 -0.36398634 -0.35052124 -0.13536294 0.051667064 -0.5112814 0.11246712 0.107526585
-0.18288742 0.15979072 0.09114619 -0.037493538 0.2267739 -0.007331353 0.12496097 0.259989
-0.30493915 0.22899522 0.12939085 0.2562602 0.32573137 0.21409218 -0.33237946 0.18695742
-0.23498513 -0.4775587 0.39961323 -0.15962292 0.18238822 -0.2644735 0.1744035 0.4345735
-0.20762718 -0.35279754 0.0023667824 0.14946431 -0.20280759 -0.18470784 -0.21363656 -0.34981224
0.12622026 -0.122912064 0.10092994 0.38393676 0.29885048 0.16092846 0.3294437 -0.1723828
-0.010855496 -0.066667065 0.123678215 -0.32304692 -0.19235323 -0.26811594 0.020695155 0.099061996
0.20476429 -0.3476593 -0.22181153 -0.3573412 0.3650789 0.23585433 0.40335217 0.08995248
00000000: 975f 963e 6b5c babe 8577 b3be 959c 0abe
00000010: d8a0 533d 56e3 02bf 2955 e63d e636 dc3d
00000020: d746 3bbe 2ea0 233e dbaa ba3d d392 19bd
00000030: 6b37 683e d93b f0bb 89eb ff3d 471d 853e
00000040: fc20 9cbe b97d 6a3e 097f 043e 8934 833e
00000050: 43c6 a63e fb3a 5b3e a42d aabe c471 3f3e
00000060: f19f 70be 9382 f4be 1b9a cc3e 3174 23be
00000070: fac3 3a3e 1269 87be d596 323e 6b80 de3e
00000080: 389c 54be e1a1 b4be 051c 1b3b 2c0d 193e
00000090: cbac 4fbe 0d24 3dbe 8bc3 5abe 971a b3be
000000a0: e23f 013e 52b9 fbbd 5bb4 ce3d 5c93 c43e
000000b0: ee02 993e 6eca 243e d8ac a83e 1e85 30be
000000c0: 40db 31bc be88 88bd 014b fd3d 6866 a5be
000000d0: 3ff8 44be 7e46 89be e388 a93c 04e1 ca3d
000000e0: bbad 513e 6600 b2be 9022 63be 6df5 b6be
000000f0: 9feb ba3e cc83 713e 2d84 ce3e 0139 b83d

model.f.4.weight f4 [64, 64]
-0.2227132 0.12236451 0.20454834 0.13587208 -0.23060852 0.11688951 0.027788205 -0.06758003
0.23116949 0.01641382 -0.043132264 0.04596076 -0.2582017 0.16526678 0.01927253 -0.25561437
-0.0045093857 -0.03724301 -0.07360058 -0.12466967 -0.11736052 -0.16683276 0.04492876 0.13783634
0.14668877 0.055493586 -0.20693445 0.04934003 -0.02759777 0.25200737 -0.09363189 -0.106001854
0.075373486 0.046441823 0.16121368 -0.041468862 0.12596266 0.06899864 0.07275117 0.13460763
-0.028699433 0.05396799 -0.023972629 -0.09306271 -0.31403288 -0.15600438 0.14557517 -0.095706664
0.053228192 -0.11870257 -0.10563606 0.38539526 0.14457181 -0.006448577 -0.02517157 -0.04011932
-0.22737159 0.16053979 0.11861995 0.30108032 -0.006868643 -0.0120073855 -0.17699581 -0.028829724
0.24908333 -0.06514042 -0.11531797 0.07160914 0.09454004 -0.19305791 -0.055562664 0.01663104
-0.061290547 -0.066457555 -0.04118093 -0.07768088 0.006462391 -0.068725 0.05844404 -0.0076231062
-0.015375094 0.19151278 0.015585737 0.05539074 -0.08037963 0.06488984 -0.038826812 0.074719526
0.14688905 -0.13619174 0.109515965 -0.1088873 0.0042356923 -0.056047384 0.08801614 0.1659776
-0.020038705 -0.006963781 -0.005805308 0.0943481 -0.089657575 -0.15660161 -0.20513755 -0.10803462
0.018316135 -0.11921986 0.15349582 0.04481249 0.028230205 -0.03978829 0.026790313 0.03460922
0.11003763 -0.1296341 0.24971953 0.056669075 -0.15546307 -0.15908983 -0.09452895 -0.08266366
0.023677342 -0.10674526 -0.0078224065 -0.16421275 0.21201217 -0.0148609765 0.08979 0.08890365
-0.089952305 0.24225144 0.14735484 0.114958115 -0.107011415 0.11754083 0.019487811 -0.14259176
0.072764516 -0.0333817 -0.14837995 0.05808003 -0.07232113 0.033033952 0.047991335 0.013408025
0.11188957 0.036290493 0.016404497 -0.12045052 -0.11524419 -0.10552805 0.041641053 -0.021868473
-0.07232983 0.031107299 -0.20705776 0.05232048 -0.10531335 -0.056438215 -0.0025727225 -0.20653422
0.06791927 0.03990622 0.05901184 0.06874999 0.21519974 0.15854211 0.017065564 0.06502074
0.039336376 -0.034266517 0.049816538 -0.10628942 -0.099428095 0.057492126 0.05060941 -0.024140647
-0.036118228 -0.10633069 -0.13896926 0.15797235 0.2253439 0.0007960472 0.002213828 -0.07181411
0.0368975 0.10827776 -0.08299514 0.12196038 -0.025774848 -0.0659145 -0.019622952 0.06863203
0.138599 -0.008684928 -0.13764703 -0.15545404 0.015936414 -0.1691329 0.13512856 0.029257663
-0.15249087 -0.066750705 -0.23937592 0.06142886 0.08134884 -0.0598922 0.03848504 0.05360791
0.15883636 0.099707626 0.0098351585 0.011209491 -0.07963763 0.21879302 -0.08353781 0.11684998
-0.01160776 -0.08690346 0.18713465 -0.0789967 -0.0014623412 -0.15088315 0.11384545 0.0397867
-0.13740939 -0.079218626 -0.050464947 0.15851524 -0.015736638 -0.038893532 -0.16262768 -0.110559806
0.12192764 -0.10415948 0.12433675 0.009934232 0.020010065 -0.021200748 0.014089786 0.07963143
-0.07567068 0.071580596 0.17571214 -0.12110315 0.06619896 -0.09902077 0.05054546 0.035007697
0.039282866 -0.19579993 -0.1498022 -0.14506763 0.15476754 0.09829727 0.20516308 0.110224165
00000000: ee0e 64be 3f9a fa3d 1f75 513e 0d22 0b3e
00000010: a424 6cbe c463 ef3d 17a4 e33c 6667 8abd
00000020: b2b7 6c3e 4776 863c 75ab 30bd 5a41 3c3d
00000030: 0333 84be b23b 293e 6de1 9d3c e3df 82be
00000040: 78c3 93bb 208c 18bd e7bb 96bd d052 ffbd
00000050: b65a f0bd 35d6 2abe 3807 383d f824 0d3e
00000060: 9535 163e 3e4d 633d a0e6 53be c518 4a3d
00000070: b814 e2bc 1c07 813e 14c2 bfbd 8017 d9bd
00000080: 6a5d 9a3d c839 3e3d 3315 253e 41db 29bd
00000090: 5bfc 003e 294f 8d3d 91fe 943d 95d6 093e
000000a0: 131b ebbc 8a0d 5d3d 3f62 c4bc a997 bebd
000000b0: ebc8 a0be 9dbf 1fbe a811 153e db01 c4bd
000000c0: ce05 5a3d 551a f3bd b857 d8bd 8752 c53e
000000d0: a20a 143e 964e d3bb 9c34 cebc 2854 24bd
000000e0: 19d4 68be 8b64 243e 04ef f23d 3327 9a3e
000000f0: 5b12 e1bb a0ba 44bc 643e 35be 502c ecbc
00000100: b30f 7f3e 5768 85bd d42b ecbd d0a7 923d
00000110: 359e c13d f9b0 45be ad95 63bd d23d 883c
00000120: cc0b 7bbd e61a 88bd 56ad 28bd 2717 9fbd
00000130: 77c2 d33b b1bf 8cbd 0563 6f3d 40cb f9bb
00000140: d1e7 7bbc ed1b 443e 525b 7f3c 67e1 623d
00000150: 139e a4bd f7e4 843d dd08 1fbd 8d06 993d
00000160: 156a 163e d975 0bbe e849 e03d 4e00 dfbd
00000170: 90cb 8a3b f191 65bd ce41 b43d 08f6 293e
00000180: 3628 a4bc 6e30 e4bb 743a bebb 9439 c13d
00000190: 649e b7bd 2c5c 20be 940f 52be 4141 ddbd
000001a0: b80b 963c 8b29 f4bd 022e 1d3e 4d8d 373d
000001b0: 0843 e73c 0cf9 22bd 5c77 db3c 66c2 0d3d
000001c0: 695b e13d cdbe 04be 7ab6 7f3e d51d 683d
000001d0: b631 1fbe 72e8 22be 6598 c1bd 914b a9bd
000001e0: fcf6 c13c 429d dabd 8d29 00bc 6327 28be
000001f0: b819 593e 747b 73bc d2e3 b73d 1e13 b63d
00000200: ea38 b8bd c310 783e 30e4 163e 296f eb3d
00000210: cd28 dbbd 3fb9 f03d e7a4 9f3c 9303 12be
00000220: 9005 953d 40bb 08bd eaf0 17be 53e5 6d3d
00000230: 1a1d 94bd 9c4e 073d 9092 443d 55ad 5b3c
00000240: 5c26 e53d 57a5 143d b962 863c c3ae f6bd
00000250: 2505 ecbd 171f d8bd cf8f 2a3d 8325 b3bc
00000260: a921 94bd bcd4 fe3c f306 54be 004e 563d
00000270: 87ae d7bd c22b 67bd 1f9b 28bb b57d 53be
00000280: 4219 8b3d b474 233d 66b6 713d cbcc 8c3d
00000290: 525d 5c3e dd58 223e 15cd 8b3c 9829 853d
000002a0: 2e1f 213d 0c5b 0cbd 6d0c 4c3d 44ae d9bd
000002b0: f5a0 cbbd dd7c 6b3d d04b 4f3d 9bc2 c5bc
000002c0: b5f0 13bd e8c3 d9bd f54d 0ebe 81c3 213e
000002d0: 8dc0 663e d3ad 503a df15 113b 4713 93bd
000002e0: d521 173d bbc0 dd3d 5bf9 a9bd 5dc6 f93d
000002f0: c625 d3bc 2efe 86bd 50c0 a0bc f38e 8c3d
00000300: e5ec 0d3e 3a4b 0ebc 58f3 0cbe 582f 1fbe
00000310: 158d 823c 2d31 2dbe 245f 0a3e c4ad ef3c
00000320: 9126 1cbe 98b4 88bd f61e 75be d49c 7b3d
00000330: 389a a63d 8651 75bd 7da2 1d3d f893 5b3d
00000340: 00a6 223e 8333 cc3d a523 213c 03a8 373c
00000350: 0e19 a3bd 470b 603e df15 abbd 0b4f ef3d
00000360: 792e 3ebc 71fa b1bd 3aa0 3f3e 06c9 a1bd
00000370: 07ac bfba 1d81 1abe ce27 e93d 61f7 223d
00000380: 0cb5 0cbe 603d a2bd 55b4 4ebd d251 223e
00000390: 1fea 80bc d34e 1fbd df87 26be 2e6d e2bd
000003a0: 33b5 f93d 9151 d5bd 44a4 fe3d 30c3 223c
000003b0: 26ec a33c 31ad adbc d9d8 663c ce15 a33d
000003c0: 3bf9 9abd d998 923d e2ed 333e ee04 f8bd
000003d0: 5293 873d 67cb cabd c208 4f3d 3b64 0f3d
000003e0: 12e7 203d c77f 48be bf65 19be 9c8c 14be
000003f0: 627b 1e3e 1450 c93d 4516 523e 35bd e13d

model.f.4.bias f4 [64]
-0.011910295 0.48144218 -0.03801371 0.21032603 -0.36755806 -0.3313788 0.13710353 -0.112292804
0.27269056 -0.3632526 0.6169631 0.0345463 -0.36644405 0.054593217 -0.3434187 0.12528802
0.020759357 0.25498474 0.41597423 -0.24060822 0.22738267 0.09515799 0.05872506 0.25208104
0.1551395 -0.03554704 0.108795695 0.018063394 -0.29727933 -0.17182687 0.285068 -0.12036292
0.2610323 -0.010947477 -0.16281965 -0.3285601 -0.22254735 -0.06409364 -0.12954257 -0.04291716
-0.11284024 -0.4074435 -0.12681524 -0.24967042 0.20497207 0.1396382 -0.33709374 -0.11124045
0.13106103 -0.2392029 0.20542237 0.11300099 0.28092057 -0.026647339 -0.1636804 -0.31266463
-0.22657917 -0.64941436 -0.13147907 -0.1660249 0.32518595 0.21042153 0.23558061 0.3580643
00000000: 6623 43bc 977f f63e 44b4 1bbd b55f 573e
00000010: 9230 bcbe 7baa a9be de64 0c3e c5f9 e5bd
00000020: 199e 8b3e 3ffc b9be 4bf1 1d3f 6c80 0d3d
00000030: 8e9e bbbe 239d 5f3d 93d4 afbe 814b 003e
00000040: 870f aa3c 5c8d 823e 93fa d43e 0062 76be
00000050: 01d7 683e 31e2 c23d b089 703d c410 813e
00000060: e4dc 1e3e c699 11bd 47d0 de3d aff9 933c
00000070: ff34 98be 62f3 2fbe 6ff4 913e d680 f6bd
00000080: 07a6 853e 0c5d 33bc 32ba 26be 0839 a8be
00000090: 74e3 63be 8743 83bd cfa6 04be e7c9 2fbd
000000a0: c918 e7bd 6f9c d0be dbdb 01be 9aa9 7fbe
000000b0: 33e4 513e 51fd 0e3e 8d97 acbe 08d2 e3bd
000000c0: dd34 063e 9bf1 74be 3e5a 523e 106d e73d
000000d0: d2d4 8f3e 854b dabc d69b 27be 9415 a0be
000000e0: 5f04 68be 0540 26bf 73a2 06be 6e02 2abe
000000f0: c67e a63e be78 573e 0b3c 713e 3454 b73e

model.f.6.weight f4 [64, 64]
-0.13323022 -0.067328624 0.04554848 -0.07647774 -0.031201577 -0.027873414 -0.045604307 -0.013430707
-0.051300928 -0.09452708 0.002906979 0.07319011 0.07641082 0.11249548 -0.05825287 0.033277657
0.06364055 -0.07681117 -0.15130727 -0.017407157 0.07447598 -0.043257345 -0.11726978 -0.033652607
-0.02575972 0.01987025 -0.14338432 0.05726644 0.0007105814 0.0034987673 -0.01807465 0.02986757
0.0138100935 -0.08834225 0.041893337 0.0524119 0.01967502 0.055392448 -0.004346927 0.029285435
-0.026077475 -0.04972972 0.083697036 0.15588026 -0.00924326 -0.0027735985 0.009898019 0.0042323233
0.114650115 -0.016197508 -0.0017029389 0.020599594 0.09820883 -0.18557355 0.100604855 0.061509293
0.03877652 0.16272888 0.0037202477 -0.040596277 -0.058626026 0.16028778 -0.037164737 -0.013572995
-0.008072472 -0.12252915 -0.03986247 0.06691343 -0.04580831 -0.054916248 0.012567618 -0.06515451
-0.016591333 -0.035830162 -0.05906716 0.021927606 0.0042222133 -0.047130242 -0.14256713 -0.117620796
-0.15155092 0.06150285 -0.04656541 -0.07389003 -0.0011041367 -0.025562752 0.07992679 0.008536806
-0.030966897 0.09789685 0.06183997 0.008588886 -0.05073584 -0.12256192 -0.04375645 0.043175586
0.050194982 -0.05911676 -0.004159277 -0.008879802 -0.070891626 0.0025926824 0.07188593 -0.22968324
-0.032657564 -0.03188602 -0.039614126 -0.099520706 0.05963068 0.006877843 -0.07546805 -0.124802575
-0.05120333 -0.012514102 -0.062177293 0.016180282 -0.025882032 0.042947546 0.04630949 -0.032587763
0.02751307 0.007676925 0.11210965 -0.05149972 -0.012280089 0.03404322 -0.013659773 0.026385745
-0.03959904 -0.021571651 0.014499847 0.008059686 0.04645838 -0.0016809015 -0.0658505 -0.021070428
-0.11555968 -0.052785672 -0.052658744 0.107662976 -0.013046944 -0.04660937 -0.018461974 -0.015294961
-0.05758849 0.0037175112 -0.026566176 -0.07868799 -0.041773226 0.044918507 0.036940485 0.06325941
-0.06397033 -0.18288352 -0.050966945 0.07448837 -0.0038360977 -0.030921815 0.025789471 -0.17555687
0.043347668 0.017203508 0.19022143 0.04569359 0.21108337 -0.0076106917 0.06748723 -0.13447024
-0.00044731272 -0.0970422 -0.11284241 0.15875813 0.0019614857 -0.16040742 -0.16245107 -0.032832365
-0.029797025 0.123988375 0.0864746 -0.041909114 0.22649994 0.060111973 0.042804662 0.21074447
0.0018666591 0.0136077665 -0.14684254 0.10317281 -0.07574272 -0.15130551 0.07934334 -0.10390363
-0.038896617 -0.04978468 -0.07773997 -0.20370138 0.1397263 0.08617913 0.13777134 0.13969578
-0.0373732 -0.017940972 -0.031619985 -0.23813955 0.14032646 0.045677833 0.11286881 -0.0078117135
-0.105682224 -0.100620955 0.047116186 0.14340165 -0.038420208 -0.09085568 -0.16711156 -0.02881436
-0.09002673 -0.03518553 -0.016314147 0.021219557 0.12984797 -0.04107959 -0.15156968 0.042964548
-0.104380354 -0.013997383 -0.11351301 0.06458587 -0.075667515 0.040421773 -0.054941397 0.11612378
-0.008238451 0.27802083 0.17740507 0.058216516 -0.062468026 -0.11559039 0.02541444 0.01935258
-0.15894845 -0.058697164 0.26414943 -0.07250136 0.041272163 -0.11387581 0.09540996 -0.08482361
0.14822236 0.12949482 0.0011227351 0.15911773 -0.05629512 0.019276688 -0.09599925 -0.05296013
00000000: 816d 08be 97e3 89bd 0b91 3a3d 5da0 9cbd
00000010: 739a ffbc c956 e4bc 95cb 3abd 780c 5cbc
00000020: ec20 52bd 6a97 c1bd 0483 3e3b b2e4 953d
00000030: 477d 9c3d 0864 e63d 909a 6ebd 274e 083d
00000040: fa55 823d 2d4f 9dbd 4bf0 1abe 7499 8ebc
00000050: dd86 983d 9d2e 31bd 232b f0bd 51d7 09bd
00000060: 0c06 d3bc efc6 a23c 57d3 12be 3790 6a3d
00000070: 4f46 3a3a 934b 653b 4a11 94bc d6ac f43c
00000080: bb43 623c c8ec b4bd 5998 2b3d dcad 563d
00000090: 822d a13c 31e3 623d ab70 8ebb 02e8 ef3c
000000a0: 6ea0 d5bc 64b1 4bbd 5a69 ab3d 139f 1f3e
000000b0: 0b71 17bc 43c5 35bb 4d2b 223c 4daf 8a3b
000000c0: aecd ea3d a3b0 84bc 2635 dfba 7bc0 a83c
000000d0: b621 c93d fe06 3ebe eb09 ce3d 2bf1 7b3d
000000e0: 21d4 1e3d 66a2 263e 66cf 733b 4848 26bd
000000f0: d821 70bd 7b22 243e 0d3a 18bd 4461 5ebc
00000100: 6742 04bc 90f0 fabd d446 23bd e909 893d
00000110: 7fa1 3bbd dcef 60bd 69e8 4d3c ba6f 85bd
00000120: 8cea 87bc a6c2 12bd 68f0 71bd 86a1 b33c
00000130: 7e5a 8a3b a40b 41bd 1efd 11be 2ce3 f0bd
00000140: 2a30 1bbe 6aea 7b3d 5fbb 3ebd a853 97bd
00000150: aeb8 90ba fa68 d1bc a8b0 a33d f6dd 0b3c
00000160: 4aae fdbc 257e c83d e94b 7d3d 66b8 0c3c
00000170: 62d0 4fbd be01 fbbd f739 33bd e2d8 303d
00000180: 4199 4d3d 6a24 72bd 8b4a 88bb 977c 11bc
00000190: a12f 91bd fee9 293b ee38 933d 1532 6bbe
000001a0: f0c3 05bd ea9a 02bd 6c42 22bd 83d1 cbbd
000001b0: 4d3f 743d 875f e13b fe8e 9abd 7e98 ffbd
000001c0: 95ba 51bd f307 4dbc 9ead 7ebd 838c 843c
000001d0: 8e06 d4bc c4e9 2f3d 05af 3d3d bf7a 05bd
000001e0: 1763 e13c b78e fb3b bf99 e53d 5ff1 52bd
000001f0: 6d32 49bc e770 0b3d 3ecd 5fbc eb26 d83c
00000200: 9a32 22bd 08b7 b0bc c490 6d3c c60c 043c
00000210: 244b 3e3d b251 dcba a0dc 86bd e49b acbc
00000220: 8eaa ecbd ca35 58bd b2b0 57bd 687e dc3d
00000230: d9c2 55bc 77e9 3ebd 913d 97bc b797 7abc
00000240: e9e1 6bbd 7da1 733b 4fa1 d9bc 2b27 a1bd
00000250: 671a 2bbd 78fc 373d e84e 173d 268e 813d
00000260: e002 83bd d145 3bbe b7c2 50bd 5c8d 983d
00000270: 0a67 7bbb bf4f fdbc 7144 d33c 2ec5 33be
00000280: 538d 313d 5fee 8c3c 68c9 423e 3429 3b3d
00000290: 3d26 583e 1c63 f9bb bf36 8a3d 91b2 09be
000002a0: 4c85 eab9 10be c6bd ec19 e7bd 7e91 223e
000002b0: 458c 003b d841 24be 9359 26be 3b7b 06bd
000002c0: e418 f4bc 9eed fd3d 9819 b13d e4a8 2bbd
000002d0: 9aef 673e f937 763d f153 2f3d 66cd 573e
000002e0: b0aa f43a 1cf3 5e3c e45d 16be 444c d33d
000002f0: 001f 9bbd d5ef 1abe c37e a23d 6dcb d4bd
00000300: 0f52 1fbd 05eb 4bbd 2236 9fbd 1897 50be
00000310: 6914 0f3e af7e b03d ee13 0d3e 690c 0f3e
00000320: a414 19bd f2f8 92bc f583 01bd dbda 73be
00000330: bdb1 0f3e ae18 3b3d c327 e73d 67f9 ffbb
00000340: ec6f d8bd 5c12 cebd e7fc 403d e2d7 123e
00000350: 825e 1dbd 8b12 babd 4b1f 2bbe 180c ecbc
00000360: ef5f b8bd b41e 10bd 3fa5 85bc a3d4 ad3c
00000370: def6 043e 1243 28bd 1535 1bbe 98fb 2f3d
00000380: 5ec5 d5bd 4855 65bc 8279 e8bd 9945 843d
00000390: 92f7 9abd 4d91 253d 3b0a 61bd 4ed2 ed3d
000003a0: 91fa 06bc bf58 8e3e ada9 353e 7174 6e3d
000003b0: 79de 7fbd a8ba ecbd f231 d03c 4d89 9e3c
000003c0: 62c3 22be 706c 70bd 983e 873e 987b 94bd
000003d0: 000d 293d b837 e9bd 4c66 c33d 00b8 adbd
000003e0: 9ac7 173e 4a9a 043e bd28 933a c2ef 223e
000003f0: b695 66bd 25ea 9d3c 419b c4bd b9ec 58bd

model.f.6.bias f4 [64]
-0.3077092 -0.25417164 0.14389586 -0.21710366 0.14328183 -0.10352037 -0.3535456 -0.21036117
-0.522886 0.3437947 -0.32091713 -0.09231669 0.39917785 0.02298541 0.07698376 -0.15286388
0.27176854 0.592559 0.05823907 -0.19408615 -0.061209716 -0.04721468 -0.10298642 0.42323294
0.63890344 0.68207324 0.2796348 -0.12981373 -0.13114312 0.12930845 -0.008577436 -0.10018076
-0.65134925 0.18102068 -0.14397503 -0.05323288 -0.35867158 0.041070364 -0.050800018 -0.100686744
0.1833735 -0.16017477 0.20705232 0.11738877 0.45596004 -0.21655145 -0.18088393 -0.06757619
-0.35708547 0.16579068 -0.11818196 -0.07167965 0.07447321 0.19073103 -0.31369805 0.41449675
-0.01851965 0.20629263 0.09056532 -0.24295494 -0.36338636 -0.46664056 -0.17315188 -0.2180953
00000000: 0f8c 9dbe c922 82be 7059 133e 6c50 5ebe
00000010: 79b8 123e 7d02 d4bd ee03 b5be eb68 57be
00000020: dbdb 05bf dc05 b03e 404f a4be 8810 bdbd
00000030: 0a61 cc3e e64b bc3c a9a9 9d3d 5988 1cbe
00000040: 3f25 8b3e f2b1 173f 178c 6e3d 85be 46be
00000050: 0ab7 7abd 2e64 41bd 8bea d2bd fdb1 d83e
00000060: 2d8f 233f 5a9c 2e3f 4b2c 8f3e e4ed 04be
00000070: 624a 06be 6f69 043e 6088 0cbc 922b cdbd
00000080: d3be 26bf 7c5d 393e 316e 13be b80a 5abd
00000090: cda3 b7be 6639 283d ae13 50bd da34 cebd
000000a0: 43c6 3b3e db04 24be 8605 543e 8669 f03d
000000b0: 9873 e93e aabf 5dbe a339 39be 6365 8abd
000000c0: e8d3 b6be 08c5 293e 6209 f2bd c8cc 92bd
000000d0: 6985 983d ff4e 433e 089d a0be eb38 d43e
000000e0: 85b6 97bc 603e 533e 4f7a b93d 2ec9 78be
000000f0: c70d babe 83eb eebe ba4e 31be 6054 5fbe

model.f.8.weight f4 [10, 64]
-0.0037092275 0.018963449 -0.048632074 -0.022159316 -0.015817035 0.009346795 -0.0044390676 -0.024307132
0.030347466 0.004407265 -0.023627054 -0.00078728015 -0.0040155416 0.0024204801 0.03977173 -0.027581185
0.005802542 0.020249387 0.016436696 0.016111806 0.0058658193 0.00426805 -0.002602881 0.0053608967
0.073785335 0.04208404 -0.015856137 -0.024844943 -0.023268128 -0.055737615 -0.012590752 0.0039990256
-0.020407768 0.007399492 0.034595948 0.060959335 0.0028274597 0.0053448076 0.022251343 0.018974207
-0.00044869736 0.01910901 0.025368098 0.018285112 -0.0062824627 -0.03424144 0.0102070775 -0.0014343213
-0.021079117 -0.01342287 -0.03232358 0.0012446844 0.033102788 0.008822562 -0.0043857996 0.017039113
0.021894917 0.008498954 -0.01533751 -0.026720708 -0.0032271883 -0.027065009 -0.009407618 -0.012233394
-0.019912494 -0.0002631774 -0.006317251 -0.029390542 -0.012438561 0.0064084465 -0.020423943 -0.013961626
-0.03240594 0.020461353 -0.01245263 -0.00051912526 0.0047232755 0.0016658346 0.05901937 -0.06701625
0.036198806 0.020663563 0.025842175 0.022959953 0.018099686 -0.012719257 -0.0199549 0.03066046
0.05574061 0.04513948 0.019613598 -0.030984186 -0.0035060442 -0.011280399 0.0072773257 -0.028084666
-0.026853535 0.012864906 0.04410605 0.07454835 -0.033497192 -0.019221712 0.03929358 0.020447487
0.019039145 0.029958284 0.037871003 0.011661147 0.04146079 -0.048459135 -0.00673665 -0.0068099736
-0.05433253 -0.011688336 -0.051619712 0.00817472 0.032839216 0.039084435 -0.032536313 0.037812483
0.05075435 0.029836629 -0.02605654 -0.057861336 -0.049011 -0.0462756 -0.045859117 -0.035693843
-0.3878343 -0.072313204 0.80537075 -1.060843 0.28101763 -0.03035038 -0.40464416 -0.50443107
-1.7461505 1.3026732 -0.2729861 0.058131054 1.7426764 -0.07885052 0.863226 -0.83397305
0.32828104 1.3925666 0.7350165 0.067068696 -0.32410705 -0.068589866 -0.24499954 0.4735653
2.0900636 1.901497 0.3015156 -0.3629371 -0.010531324 0.9226139 -0.023579901 -0.81556743
-1.6623452 0.29429254 0.30568087 -0.23418152 -0.35576168 -0.07732275 0.4441395 0.23803289
0.23161875 -0.2525663 1.4549521 0.49361855 0.6907563 0.0772433 -0.22253944 0.14700225
-0.5820051 0.16291073 -0.6424568 0.24973558 -0.11812672 0.56291807 -0.58587134 0.6030985
0.77292335 0.4004328 -0.26072094 -0.42325032 -0.6428959 -1.070814 -0.6816098 -0.5139931
-0.014090828 -0.13489112 0.10118164 -0.048629653 0.12766413 0.022575013 0.020063076 0.037934184
-0.28600127 0.060023386 -0.017710874 -0.09227933 0.14214334 -0.02856245 -0.20693707 0.14051607
-0.010038506 0.2300209 0.017879946 -0.107252866 0.0061560753 0.016607642 0.026635941 0.014777387
0.38511747 0.3672039 0.024308473 -0.011961403 -0.0075824424 0.030441431 0.0030776868 -0.20317574
-0.46327955 0.040787898 0.0003474011 -0.0012656902 0.058845766 0.05580874 -0.006162557 -0.123216845
0.027406221 -0.01883263 0.06268384 -0.07060146 0.30942926 0.11892432 -0.052152563 -0.1824149
-0.14831372 0.04231503 0.123489864 -0.027635312 -0.17713633 0.061940856 -0.07696285 0.1835965
-0.17976886 0.049987003 0.15657362 0.10178699 -0.044946615 -0.26293418 -0.07223083 -0.05991593
00000000: 8316 73bb 3c59 9b3c 6d32 47bd 7487 b5bc
00000010: ba92 81bc 4d23 193c 9975 91bb c01f c7bc
00000020: 409b f83c d26a 903b 868d c1bc 7a61 4eba
00000030: ce94 83bb eba0 1e3b aee7 223d f0f1 e1bc
00000040: 4023 be3b 0be2 a53c 40a6 863c e8fc 833c
00000050: 0f36 c03b 00db 8b3b 1995 2abb 76aa af3b
00000060: c41c 973d 5060 2c3d bbe4 81bc 9f87 cbbc
00000070: cd9c bebc 204d 64bd 7149 4ebc 420a 833b
00000080: 312e a7bc 7077 f23b 7bb4 0d3d 7fb0 793d
00000090: e74c 393b 7f23 af3b 7348 b63c cc6f 9b3c
000000a0: 243f ebb9 808a 9c3c c2d0 cf3c a9ca 953c
000000b0: 1edd cdbb c140 0cbd 963b 273c d6ff bbba
000000c0: 1dae acbc 99eb 5bbc bb65 04bd ae24 a33a
000000d0: ca96 073d 828c 103c c1b6 8fbb 9c95 8b3c
000000e0: f85c b33c 323f 0b3c 2e4a 7bbc 63e5 dabc
000000f0: 3c7f 53bb 70b7 ddbc 6922 1abc 936e 48bc
00000100: 871f a3bc 13fb 89b9 f100 cfbb 6fc4 f0bc
00000110: 1bcb 4bbc f2fd d13b 1d50 a7bc 4ebf 64bc
00000120: 17bc 04bd 919e a73c 1e06 4cbc e815 08ba
00000130: b5c5 9a3b 2258 da3a 4bbe 713d d13f 89bd
00000140: 3345 143d a246 a93c f8b2 d33c 8316 bc3c
00000150: cb45 943c 6e64 50bc 7578 a3bc a52b fb3c
00000160: 4450 643d 2de4 383d b2ac a03c 8cd2 fdbc
00000170: a9c5 65bb 6cd1 38bc a276 ee3b d011 e6bc
00000180: f2fb dbbc 54c7 523c 8ca8 343d ceac 983d
00000190: 5a34 09bd da76 9dbc 4ef2 203d 7d81 a73c
000001a0: fbf7 9b3c 136b f53c a01e 1b3d 650e 3f3c
000001b0: cad2 293d 167d 46bd 1ebf dcbb 3326 dfbb
000001c0: c98b 5ebd 6f80 3fbc 316f 53bd 43ef 053c
000001d0: 6a82 063d 0017 203d cc44 05bd 43e1 1a3d
000001e0: cbe3 4f3d f26b f43c 8674 d5bc 0200 6dbd
000001f0: c2bf 48bd 7c8b 3dbd c5d6 3bbd b533 12bd
00000200: 3892 c6be f218 94bd c72c 4e3f b4c9 87bf
00000210: 8be1 8f3e 5ca1 f8bc 852d cfbe 6522 01bf
00000220: dc81 dfbf ffbd a63f d6c4 8bbe d41a 6e3d
00000230: 0510 df3f 627c a1bd 61fc 5c3f 427f 55bf
00000240: 7414 a83e 9f3f b23f 0b2a 3c3f 505b 893d
00000250: 5cf1 a5be d878 8cbd 29e1 7abe 2777 f23e
00000260: 9ac3 0540 4164 f33f 4160 9a3e e4d2 b9be
00000270: 938b 2cbc 6d30 6c3f a32a c1bc 07c9 50bf
00000280: bac7 d4bf 83ad 963e 3482 9c3e 48cd 6fbe
00000290: 6526 b6be 645b 9ebd 4166 e33e e5be 733e
000002a0: 772d 6d3e 5f50 81be df3b ba3f 92bb fc3e
000002b0: 68d5 303f bc31 9e3d 61e1 63be c287 163e
000002c0: 49fe 14bf 12d2 263e 0d78 24bf afba 7f3e
000002d0: 6cec f1bd 661b 103f aafb 15bf aa64 1a3f
000002e0: 4ede 453f 8705 cd3e 377d 85be 44b4 d8be
000002f0: d394 24bf 6f10 89bf fb7d 2ebf 0d95 03bf
00000300: 37dd 66bc e620 0abe 5238 cf3d e32f 47bd
00000310: 63ba 023e 3cef b83c 525b a43c e060 1b3d
00000320: c26e 92be 15db 753d 6516 91bc f2fc bcbd
00000330: 068e 113e cdfb e9bc 50e7 53be 72e3 0f3e
00000340: 8c78 24bc 998a 6b3e f778 923c 64a7 dbbd
00000350: e7b8 c93b c00c 883c 9e33 da3c da1c 723c
00000360: 1e2e c53e 2602 bc3e 9022 c73c c3f9 43bc
00000370: 2376 f8bb 4f60 f93c 04b3 493b 4d0d 50be
00000380: fa32 edbe 3611 273d 6323 b639 84e5 a5ba
00000390: 4208 713d b597 643d 46ef c9bb 1d59 fcbd
000003a0: 0383 e03c e346 9abc 6360 803d 8097 90bd
000003b0: 836d 9e3e 988e f33d ed9d 55bd f9ca 3abe
000003c0: 8ddf 17be 8652 2d3d 41e8 fc3d 7363 e2bc
000003d0: 3a63 35be b2b5 7d3d b39e 9dbd b900 3c3e
000003e0: 5415 38be 2cbf 4c3d d654 203e b375 d03d
000003f0: f119 38bd 4f9f 86be c2ed 93bd 686a 75bd

model.f.8.bias f4 [10]
-0.01170722 0.024429033 1.9249581 0.51521444 0.043724786 -0.05218028 -0.039501853 -0.05269552
-0.0019370771 0.5489885
00000000: a4cf 3fbc 651f c83c 0765 f63f 18e5 033f
00000010: c318 333d fdba 55bd b2cc 21bd 42d7 57bd
00000020: 86e5 fdba 838a 0c3f
