trained_models/find_p/P_param.pt (torch, 57284 bytes, 11 tensors)

par f4 [4]
000000 12 db 4e 3e e0 39 96 ba f6 c8 08 42 0a b3 94 bb
       0.20200756 -0.001146134 34.19625 -0.0045379447

model.f.0.weight f4 [64, 5]
000000 12 ef 8f bd 5b 3d 00 3e 55 0c a9 be 14 c5 0f 3d
       -0.07028021 0.12523405 -0.3301722 0.035100058
000010 a8 7d d1 bd bc cc 11 3d 6b fc 3f bd ba 6b 94 3e
       -0.10229045 0.03559564 -0.046871584 0.2898844
000020 c2 88 93 be e0 0f 1a 3e d8 f3 16 3e c6 06 d2 3d
       -0.28815275 0.15045118 0.14741457 0.10255198
000030 9a 48 1c bf d9 d5 87 3e cc 28 14 3e 75 87 9f 3c
       -0.6104828 0.2653034 0.14468688 0.01947377
000040 dc 13 8e 3e 22 09 85 3f 86 15 eb bd 3a 90 b5 3d
       0.27749527 1.0393412 -0.11478715 0.088654
000050 0f fb 67 3e 56 24 11 be 9e 84 fa be b1 ed 3c 3d
       0.22654365 -0.14174017 -0.48929304 0.046125118
000060 da 77 46 3d 7e 62 84 3c 65 52 72 bd ce f5 a5 be
       0.048454143 0.016160246 -0.05916061 -0.32414097
000070 66 cf bf bd 9a e4 24 3d 74 07 72 bb a0 1d 65 3c
       -0.0936573 0.040257074 -0.0036930712 0.013984114
000080 4e 17 98 bf cd bb 29 3c 58 01 6f bc c8 2c 0f bd
       -1.1882112 0.010359717 -0.014587723 -0.034954816
000090 a7 c8 f3 3c 4e 4c 7f 3f a9 8d 64 bd a4 83 38 bd
       0.029758764 0.99725807 -0.05579916 -0.045047417
0000a0 18 ae 14 3e f8 1f a5 3c da e6 98 3e 87 a4 cc bc
       0.14519536 0.020156845 0.29863626 -0.024980797
0000b0 7d 6c 87 3c 77 e0 3d bd 57 10 9e 3d 8d df 29 3f
       0.016531223 -0.046356644 0.0771796 0.66356736
0000c0 26 75 04 bb 28 cc 06 3c ea d2 53 3d 0f a7 82 3d
       -0.0020211427 0.008227386 0.051714815 0.0637952
0000d0 52 9e b7 3e a9 9e 42 bd d8 9a 8b 3a 3a f4 b6 bd
       0.35862976 -0.04751459 0.0010651005 -0.08933301
0000e0 88 1c c2 3d 0e b5 75 be f0 0e e8 3c 5e 60 ee 3b
       0.09478098 -0.23994848 0.028327435 0.0072746715
0000f0 8a 34 44 bc 66 22 8a bc 7a 32 07 bf 8e 19 de 3c
       -0.011975417 -0.016862106 -0.52811396 0.027111795
000100 7a 85 86 bd e0 46 cc bd 5f 0a c6 3e 45 a0 ae 3e
       -0.065684274 -0.09974456 0.38679788 0.3410665
000110 a2 cd 31 3e 6d 58 4f 3e f4 de fd bd 47 e5 50 bc
       0.17363599 0.20248576 -0.123960406 -0.0127499765
000120 49 61 96 3f 97 74 de 3e f5 04 0b 3e 9e 5e 57 3d
       1.1748439 0.43448326 0.1357611 0.05258047
000130 c1 a8 9a bd 30 6e 52 bf 6c a7 14 bd 86 39 e4 3c
       -0.075517185 -0.8219938 -0.03629248 0.02785946
000140 13 6f 3c bd df d8 39 3e e3 5a 39 3f 16 4a 73 3d
       -0.046004366 0.18149136 0.7240431 0.059396826
000150 9f e7 81 bc 91 90 a5 3d f9 aa c6 3d ad 22 03 bf
       -0.015857516 0.080842145 0.09700579 -0.51224786
000160 d1 99 69 3d 6e 0e e1 bd 6d eb 9a 3e 8b 71 75 3d
       0.057031456 -0.1098908 0.3025774 0.059922736
000170 c6 97 85 be 62 e4 a1 bc 58 dc f5 bb b7 77 2f bd
       -0.26092356 -0.019762222 -0.0075030737 -0.04283878
000180 a6 bd 54 bd b1 d4 06 be 03 61 19 bc e6 46 c1 bd
       -0.051938675 -0.13167073 -0.009361508 -0.09437351
000190 a8 35 10 3d 52 cc 3d be 3e 4c 95 bf e7 77 de 3c
       0.03520742 -0.18534973 -1.1663892 0.027156783
0001a0 8b eb c2 bb 60 ea 76 3d b9 8c bd 3e 12 21 ce 3e
       -0.005948489 0.06028211 0.37021425 0.40259606
0001b0 73 cc 04 3e 39 c0 08 3d 20 5a 0d 3c b0 98 a0 3d
       0.12968616 0.033386443 0.0086274445 0.07841623
0001c0 d4 80 be 3e 56 f2 01 3d 02 66 12 bb 5d ff a9 be
       0.37207663 0.03172525 -0.0022338633 -0.3320264
0001d0 29 98 03 bf b2 7b 96 3f 86 fb 9c 3e d8 b5 6a bd
       -0.5140405 1.1756499 0.30660647 -0.057302326
0001e0 1f 2d 9e 3b 22 61 32 3c 6f 9c 22 bf 5d 50 51 bd
       0.004827156 0.010887416 -0.6351995 -0.05110203
0001f0 80 37 35 3d 3a 59 01 3d d6 06 a8 bd 30 7d 0e bf
       0.044242382 0.031579234 -0.08204429 -0.5565977
000200 58 0d 0f bc d5 1c 61 bd ee e9 9e 3d e2 03 a5 3d
       -0.008731209 -0.054959137 0.07759462 0.08057381
000210 bb 67 2a bf d5 39 7f 3e 9b 17 35 bd c6 17 16 3e
       -0.6656453 0.24924405 -0.044211965 0.14657506
000220 bf 81 a8 bd de 8c a2 3e e2 a2 e1 3c 02 3b 15 3d
       -0.08227872 0.31748098 0.027543489 0.036433227
000230 2d d4 a6 3d bb ea 79 3e 79 e3 70 bf 89 9c 95 3e
       0.08145938 0.24405949 -0.94097096 0.2922099
000240 87 e7 3b be 51 3a 28 3c 18 28 cd 3d 90 53 52 3f
       -0.1835004 0.01026781 0.10017413 0.82158756
000250 09 42 fa 3c 4f f2 88 3d cb 96 36 3d f1 dc b5 ba
       0.030549066 0.06686842 0.0445774 -0.001387505
000260 87 6b 91 3e 91 56 e1 bc 31 52 03 bd 65 df fb 3c
       0.2840235 -0.027507098 -0.032060806 0.030746171
000270 67 6a 6f 3c 51 91 02 bf 62 ef 17 3c 60 93 b1 3b
       0.014612771 -0.51002985 0.009273382 0.00541918
000280 97 f7 3c 3a b9 29 bc 3d ce aa 0c bf ae 44 ec 3d
       0.00072085246 0.091876455 -0.5494813 0.11536537
000290 ed b7 1c be 44 10 5e bd b5 2a 8e bc 58 64 31 bf
       -0.15304537 -0.05421473 -0.017354349 -0.6929374
0002a0 fa ef 95 3d c9 df f5 bc 2c 91 22 3d 7a 74 af bd
       0.073211625 -0.030013936 0.039689228 -0.08567138
0002b0 03 75 b1 be 34 8e 07 3c 6c 62 b1 3b d9 bc b7 bd
       -0.34659585 0.00827365 0.005413344 -0.08971567
0002c0 21 f2 bb 3d 5a fd e0 3c a5 fb d0 3d d5 a4 3b 3d
       0.09177042 0.027464557 0.102042474 0.045811493
0002d0 e3 4e 32 bd 4d ee 2d 3e e6 b1 1c 3f f8 fc ff 3c
       -0.043532263 0.16985436 0.6120895 0.031248555
0002e0 c5 6f 25 bd 43 2f c1 bd d4 db 22 be 86 07 c2 bb
       -0.040389795 -0.094328426 -0.1590417 -0.005921307
0002f0 eb 82 82 bb db e7 25 bd 35 05 59 3d aa d7 5c bc
       -0.003982892 -0.040504318 0.05298348 -0.013479153
000300 82 77 a6 bf 6c 53 4b 3d 4d a3 1a 3d a4 d1 ad 3d
       -1.3005221 0.049640104 0.037753392 0.084872514
000310 3f 67 b1 3d e8 fc 4a bf 87 67 f8 3d d8 3e c4 ba
       0.08662271 -0.79292154 0.12129121 -0.0014972342
000320 6d d3 7e 3d fa 0e b1 3c 55 78 fd be a8 8d 07 be
       0.06221335 0.021613587 -0.4950587 -0.13237631
000330 de 3b 8d 3a 36 c8 b8 3c 49 8e 74 3d a4 28 ff 3e
       0.0010775288 0.022556406 0.059706006 0.49835694
000340 35 48 1a 3d 7d 73 e3 3d e7 95 84 bc b5 92 cf bd
       0.03766652 0.11106012 -0.01618476 -0.10135404
000350 9c bc 29 3e 41 ac 30 bd 60 89 53 3c 25 a6 cd 3d
       0.16575855 -0.043133024 0.012911171 0.10041455
000360 a8 7a 50 be bf 36 dc bf 64 63 88 3e 43 2a 73 bc
       -0.2035929 -1.7204207 0.2663833 -0.014841619
000370 6b 56 34 bc 96 46 00 3e 49 58 02 3f ce b2 9c 3d
       -0.011006932 0.12526926 0.5091596 0.07651292
000380 06 6f b8 bb 12 3f 9b bd af 75 15 be 3c ad 78 bf
       -0.0056284694 -0.07580389 -0.14595674 -0.97139335
000390 ab 46 82 3d dc 2b 95 bd 96 ba ce bb 9b f7 ea 3d
       0.06361135 -0.07283756 -0.006308864 0.11473008
0003a0 e9 ab 12 3f f0 fb 57 bd b2 85 5e bd d8 e8 2b be
       0.57293564 -0.0527305 -0.05432672 -0.16788042
0003b0 8b 1f 65 3e bb f5 a5 be db 61 d8 3c 97 f3 3e 3c
       0.22375314 -0.3241404 0.026413849 0.011654756
0003c0 10 26 88 bd c3 61 74 bb 8b 7d 56 bd a3 6c 81 3c
       -0.06647885 -0.0037289716 -0.05236582 0.015798872
0003d0 3b 2c 2a bd 5a 70 a3 bd 5f 7d 57 3d 27 4e 95 be
       -0.041546088 -0.07980414 0.052609798 -0.29161188
0003e0 89 63 b1 bd f0 a9 fd bd fa 22 90 bd d0 22 67 3d
       -0.08661563 -0.12385929 -0.07037921 0.056429684
0003f0 df cc 4d 3f a9 8f 50 3d 26 1e f9 bc 4f 95 b7 bd
       0.80390733 0.050918255 -0.030409884 -0.08964025

model.f.0.bias f4 [64]
000000 4e cf bd 3e 78 51 d0 3d ed cc d3 bc 47 76 92 bd
       0.37072223 0.10171789 -0.025854552 -0.07151466
000010 10 ca 15 3f af 90 c1 3d 71 7c c0 3e ff 5b 8a 3d
       0.5851145 0.09451424 0.3759494 0.06755828
000020 08 ec b0 3e 28 fc d5 be 39 45 c2 3d 45 9e fd be
       0.34555078 -0.41793942 0.094858594 -0.49534813
000030 3a 4c ab 3d ea 51 8f 3d 8d 3e 83 bf 7c e4 74 3e
       0.083641484 0.06998046 -1.0253464 0.23915285
000040 ba 46 a1 3d 80 24 97 3e aa 80 f5 3e 2a 10 17 3f
       0.07874818 0.29520035 0.47949725 0.5900904
000050 97 5a 47 3e 5d 0d 98 3e 8b 6f c5 3e ca 92 35 3f
       0.19468151 0.29697695 0.38561663 0.7092711
000060 85 0e 4f 3e 63 57 18 3f 1f c5 bf 3e 0d 5c b6 3e
       0.20220383 0.5950834 0.3745508 0.35617104
000070 3c 77 10 bf 7d 95 8e bd 52 25 f1 be 24 d8 6e 3e
       -0.5643194 -0.069621064 -0.47098786 0.23324639
000080 9d be 92 3e c3 c1 d6 be da 14 65 3e ed d1 da 3e
       0.2866105 -0.41944703 0.22371235 0.42738286
000090 38 d8 85 be bb 25 83 be 47 8d b3 be 36 c6 25 3e
       -0.26141524 -0.25614724 -0.35068724 0.16188893
0000a0 e2 fa 97 be b2 ac b5 be 9d d6 fa be ca 8c 20 3f
       -0.29683596 -0.3548332 -0.48991862 0.6271483
0000b0 26 27 a7 3d 4e 82 85 be 1b c4 49 3e ee 9f 11 bf
       0.08161764 -0.26075977 0.19703715 -0.5688466
0000c0 93 49 51 be 3d c0 8f bd 89 a7 83 be 66 65 9b bc
       -0.20438223 -0.070190884 -0.25713757 -0.018969249
0000d0 5c 77 aa bb d4 64 6f 3d 47 ed 3b 3e dc ce 75 3e
       -0.005202217 0.058445767 0.18352233 0.24004692
0000e0 1e 11 a1 3d cb d7 a1 3e ea 71 9c 3e 40 be 07 3f
       0.07864593 0.3160995 0.3055566 0.53024673
0000f0 4b 46 d6 3e 46 dc 59 3e 5d d5 0c be c7 03 d9 3e
       0.41850504 0.21275434 -0.13753267 0.42385694

model.f.2.weight f4 [64, 64]
000000 f6 a0 0c 3e 85 bb 5f 3e 39 38 2e bd 76 4f a3 bd
       0.13733277 0.21848877 -0.042534087 -0.0797414
000010 a3 cc 9b 3e 03 38 ba 3d 44 ef 9e 3b 13 5f e3 3d
       0.30429563 0.09092715 0.0048503 0.11102118
000020 06 e6 86 3d e9 89 9c be cc ad 2f be 7d 98 10 be
       0.06586842 -0.30573967 -0.17156142 -0.1412067
000030 00 b2 cf 3d a8 8d 2c 3d 46 c5 9a be 97 83 4c bd
       0.10141373 0.04212728 -0.30228633 -0.04993018
000040 50 fe 76 bd 3e fe 73 3d ef db ef 3d ee af 3a 3e
       -0.060301125 0.059568636 0.11711871 0.18231174
000050 e0 6f ea 3d 17 58 01 3e 40 dd 5b 3e 1b e8 86 3e
       0.1144712 0.1263126 0.21471119 0.26348957
000060 91 29 17 bc 95 14 33 3e d3 50 24 3e 12 0b 15 3e
       -0.009226219 0.1748832 0.16046457 0.14555004
000070 17 dd 18 3e 18 e9 5e 3d 50 13 9b be 4a b9 c2 bd
       0.14928089 0.054421514 -0.30288172 -0.09507997
000080 ae 47 90 3d 78 6a 65 be 49 31 2a 3e eb 76 b6 3e
       0.07044922 -0.22403896 0.16620363 0.35637602
000090 37 59 c9 bd c8 03 28 be 65 f0 a0 bd f3 fb fa 3d
       -0.098314695 -0.16407692 -0.078583516 0.12255087
0000a0 da cb 25 be 03 44 eb bd 4d c9 61 be c6 9c 62 3d
       -0.16191044 -0.114875816 -0.22049446 0.055325292
0000b0 20 56 8e 3d d0 9a 55 bd 38 f9 ee bd f1 d5 8c be
       0.06950021 -0.052149594 -0.116686285 -0.27506974
0000c0 fb ed 80 3d c0 76 32 bd 46 88 aa bc ec 17 2a be
       0.06295391 -0.04357028 -0.020816933 -0.16610688
0000d0 0b c8 82 3d d5 9a 09 3d c7 bc 6a bc 68 10 23 3d
       0.063858114 0.033594925 -0.014327235 0.039810568
0000e0 1c 57 99 bd be c6 f4 3d eb c5 0a 3d 7d b6 9a 3e
       -0.07487318 0.119519696 0.033880156 0.30217353
0000f0 e5 f0 07 bd 5d 65 7b 3e 2b fd dd 3c 6a 7a ce 3d
       -0.03318872 0.24550386 0.027098259 0.100819424
000100 23 05 1f 3d 01 33 ca 3c 8f 0e 30 3e 7f dc c3 3c
       0.038823258 0.024682524 0.17193054 0.023908852
000110 a4 b6 a9 3d bd 18 fa 3d c2 ff 66 bc e6 00 30 bd
       0.08286789 0.1221175 -0.014099063 -0.042969607
000120 eb c5 33 bc 18 15 45 3d 7f a0 4a be 20 cc 22 3d
       -0.01097248 0.04811582 -0.19787787 0.03974545
000130 42 aa 30 bd df b8 2f 3e 65 52 53 3e 63 d7 a1 bc
       -0.04313112 0.17160366 0.206369 -0.019756025
000140 d0 b7 ab bd ca 6c 0b bd 62 68 3b be 47 01 85 be
       -0.08384669 -0.034039296 -0.18301538 -0.25977537
000150 8b f5 5e bc e9 aa 9a 3b bb 19 34 3d ab 7f c4 bd
       -0.013608347 0.004720081 0.04396985 -0.09594663
000160 22 f1 25 3e b9 9b 3f be f2 61 eb 3d 7c 2b dc bd
       0.16205266 -0.18711747 0.11493291 -0.107504815
000170 8f 36 50 be 71 f3 45 3e 17 3a 27 be 1a d2 6d 3d
       -0.20333312 0.19331147 -0.16330753 0.058061697
000180 43 50 41 be 1d a1 78 bd 13 a1 4e bd 88 a8 e1 3d
       -0.18878274 -0.060700525 -0.05044658 0.11018473
000190 a8 22 c7 bc 39 7d fd 3c 67 1c 96 3e f0 77 03 3e
       -0.024308518 0.0309435 0.29318544 0.12838721
0001a0 88 5f bf 3d 48 a4 90 3d 81 66 78 3c 7c 80 6a bd
       0.09344393 0.07062584 0.015161158 -0.05725144
0001b0 68 8c 2b 3e 4c c6 d2 bd e2 f1 b2 bc a9 93 de 3d
       0.1675278 -0.102917284 -0.021843854 0.10868008
0001c0 3f ed 48 be 36 50 41 be b3 39 eb bb 87 76 e4 3c
       -0.19621752 -0.18878254 -0.007178509 0.02788855
0001d0 49 6a 1f be 9f 3e 09 3e 9a e6 d4 bd 9d 8c 12 3e
       -0.15567888 0.13402794 -0.10395546 0.14311452
0001e0 9b 39 10 3d 5b 75 da bd eb 9d 17 be f3 16 3c 3d
       0.035211187 -0.10666915 -0.14806335 0.045920324
0001f0 16 19 57 be 78 70 0b bd b5 85 b1 bd 65 4f 0a bd
       -0.21005663 -0.034042805 -0.08668081 -0.033767123
000200 2c 77 04 3d 6a 57 6a bc 41 1e a3 3c 78 72 aa bd
       0.032340214 -0.014303068 0.019911887 -0.083226144
000210 20 cc 65 be 51 7c bb 3d 45 13 64 3d 90 17 89 bc
       -0.22441149 0.09154571 0.05568244 -0.016734868
000220 16 d9 b9 bd 49 2a 99 3d 38 38 2d 3e d2 fa 85 3c
       -0.09074609 0.074787684 0.16915977 0.016354952
000230 25 60 c4 3b 9c d8 65 be d6 c4 57 3e fe 9d 2b bd
       0.0059929066 -0.22445911 0.2107118 -0.04189872
000240 79 9c 2a bd c6 25 ea bd 30 7b db bd d6 6e 84 3d
       -0.04165313 -0.11432986 -0.107168555 0.06466453
000250 ff bb 9c bd 9f 96 94 be 93 a5 cb bc 27 ae 18 be
       -0.07653045 -0.29021165 -0.024859225 -0.14910184
000260 43 f3 30 bd 6d 1c 44 be 1a b5 43 bd c0 21 ce bd
       -0.043200742 -0.19151469 -0.047780134 -0.10065031
000270 f7 c4 85 3b 57 f1 23 be 9e 1f ec 3c fb 66 22 3d
       0.004082318 -0.16010033 0.02882367 0.03964899
000280 9a 61 ef 3c 07 f4 e7 3d 1a 71 20 be 40 d2 01 be
       0.029221345 0.113258414 -0.15668145 -0.1267786
000290 40 c0 43 bd 51 43 6c 3e 22 eb f3 bd 25 96 11 bd
       -0.047790766 0.23072554 -0.119100824 -0.03554358
0002a0 50 2a cf 3d 01 71 f7 bd 8c d1 bc 3c 7b 98 d8 bd
       0.10115492 -0.12082101 0.023049138 -0.10575958
0002b0 68 cf 5d bd 3f b3 ab 3d 33 0e 27 3e 3b 34 0f 3e
       -0.054152876 0.08383798 0.1631401 0.13984768
0002c0 41 7b 0d 3e 52 82 0b 3d eb f8 8f bd 9c 39 91 3d
       0.13816549 0.03405983 -0.07029899 0.07091066
0002d0 a3 7f b9 bd cc a3 86 3d 8d 9f a0 3d 44 9b b4 bd
       -0.09057548 0.065742105 0.07842932 -0.08818677
0002e0 ef b8 15 3e 2d bf f6 bc 49 3b 88 3d 21 48 99 bd
       0.14621328 -0.030120457 0.06651933 -0.074844606
0002f0 80 74 f4 bc 5b a9 f1 39 65 d0 bc 3d 8b 35 02 be
       -0.029840708 0.00046093282 0.092194356 -0.12715738
000300 98 13 27 3e 6c 7f 11 bf 5f 7c 74 3d 13 07 6a 3e
       0.16316068 -0.56835055 0.059688922 0.22854261
000310 02 52 c3 be 91 b6 d9 be 0a 4f 9e be e0 69 b2 3c
       -0.38148504 -0.425221 -0.30919677 0.021779
000320 69 90 52 bd f1 bb 1e 3e 66 74 01 3b b8 b9 8e 3e
       -0.05140725 0.15501381 0.0019753217 0.27876067
000330 32 b7 16 3e eb 86 2c 3d 87 15 93 bd e3 79 40 be
       0.14718321 0.042120855 -0.071818404 -0.18796496
000340 23 be 07 3e 56 1e 79 3e b9 a0 21 be 2e 7d 98 3d
       0.13256125 0.24327978 -0.15783967 0.07445751
000350 d0 db 5d be 22 2b 64 3e f3 8d 9e bd b3 86 90 3e
       -0.21665883 0.22282079 -0.077419184 0.28227767
000360 ec 14 7c be da d7 e5 bd 31 56 46 3c 3d 8d b9 bd
       -0.24617356 -0.11222811 0.012105511 -0.09060142
000370 45 1f 40 3e e2 7a bb 3d f1 80 52 3e 84 bd 5e bc
       0.18761928 0.091542974 0.20557 -0.013594989
000380 62 41 89 3e ed 39 01 3e f5 51 e6 bd f4 c9 bf bd
       0.26807696 0.12619753 -0.11246101 -0.093646914
000390 7b 54 ad 3e 05 6e 7d bd 9d 60 ff 3b 0b 0b ca 3e
       0.33853516 -0.0618725 0.0077934996 0.3946155
0003a0 3a b7 f3 3d 4f 04 84 bd 80 7c b1 3d b6 af 0b be
       0.11900182 -0.06446134 0.086663246 -0.13641247
0003b0 df 51 38 3b ae f1 23 3e 91 50 3f bd c6 a5 2f 3e
       0.002812497 0.16010162 -0.046707693 0.17153081
0003c0 ce d5 0c 3e db a2 0e 3e 15 5b 51 3e 92 26 46 3e
       0.13753435 0.13929312 0.20444901 0.19350651
0003d0 a9 b5 9e be 21 a6 03 be 28 0d aa bd 9b 9f 4c be
       -0.3099797 -0.12856342 -0.083032906 -0.1998276
0003e0 54 a0 05 be cf d4 bc bd 19 52 9c bc 0d c5 24 be
       -0.13049442 -0.092202775 -0.019082116 -0.16090794
0003f0 68 ab 21 be be 23 db be 34 72 5b be 4c 56 9e bd
       -0.15788043 -0.42800707 -0.21430284 -0.077313036

model.f.2.bias f4 [64]
000000 8d 5e a3 3e fd 46 ac be 80 82 b5 be a9 b7 20 be
       0.31908074 -0.3364791 -0.35451126 -0.15695061
000010 70 81 81 3d ac a4 0a bf f2 f5 c7 3d a5 70 10 3e
       0.06323516 -0.5415752 0.09763707 0.1410547
000020 59 4e 3a be 48 ee 3e 3e 1a ec b2 3d f1 3f 41 bd
       -0.1819395 0.18645585 0.08736439 -0.04718012
000030 78 2b 64 3e 54 27 7a bc 6e 40 1d 3e fa 88 85 3e
       0.22282207 -0.015268166 0.15356609 0.26081067
000040 05 da 9d be 39 b4 6a 3e e5 7d 14 3e 1c 9d 82 3e
       -0.30830398 0.22920312 0.1450115 0.2551049
000050 96 72 9c 3e 74 cb 5f 3e 29 56 c3 be e1 2d 4b 3e
       0.30556172 0.21854955 -0.38151672 0.1984172
000060 7f 04 83 be 34 7c fe be 95 ca d6 3e f2 02 11 be
       -0.25589368 -0.49704134 0.41951433 -0.1416128
000070 92 28 31 3e 0d 83 84 be 68 48 38 3e 7b 98 ef 3e
       0.17300633 -0.25881234 0.17996371 0.4679602
000080 0c 9e 63 be 0b f8 bb be d6 04 de bc 64 a0 09 3e
       -0.22228259 -0.3671268 -0.027101915 0.1344009
000090 8d eb 67 be 15 12 58 be e6 1a 76 be dd 15 c2 be
       -0.22648449 -0.21100648 -0.24033698 -0.37907305
0000a0 ca f9 e5 3d 07 07 0d be e8 6f f3 3d 6b 63 d0 3e
       0.11229284 -0.13772212 0.11886579 0.4070085
0000b0 f7 95 a2 3e c5 35 2c 3e 6b b3 af 3e 1e bb 38 be
       0.3175504 0.16817386 0.34316573 -0.1804013
0000c0 bc 6e ae bc 6c 4e 9f bd 8f 9e 38 3e da fa a3 be
       -0.021293037 -0.0777863 0.18029235 -0.32027322
0000d0 88 59 40 be 02 1e 92 be 3d 28 a0 b9 75 1f aa 3d
       -0.18784153 -0.2853852 -0.00030547558 0.08306781
0000e0 cb eb 3e 3e f3 c6 c1 be 9a 8a 5d be 15 1d c1 be
       0.18644635 -0.378471 -0.21634904 -0.377175
0000f0 e9 0b c0 3e 8a 06 89 3e 5b 21 da 3e 5b 4f a9 3d
       0.37509087 0.267628 0.42603573 0.08267089

model.f.4.weight f4 [64, 64]
000000 24 25 84 be df af c1 3d 9e aa 71 3e 06 03 26 3e
       -0.25809586 0.09457373 0.23600242 0.16212091
000010 79 7c 8a be 20 fa 12 3e b7 2c 12 3d 15 9c 16 bd
       -0.2704809 0.14353228 0.035687175 -0.036769945
000020 94 c4 81 3e 96 ed 97 bc b1 67 87 bc b4 91 a9 3d
       0.2534529 -0.018545907 -0.016528936 0.08279744
000030 b7 bb 91 be c2 ee 47 3e fe 27 29 bc 15 e2 5b be
       -0.28463528 0.19524673 -0.010324476 -0.21472962
000040 9e 26 e6 3c 91 d2 81 bd d2 33 bd bd a0 c5 d8 bd
       0.028094586 -0.063389905 -0.092383996 -0.10584569
000050 60 69 a2 bd 71 ab 1d be 7e 2c a8 3d 8c 72 de 3d
       -0.07930255 -0.15397431 0.08211611 0.10861692
000060 1e d1 37 3e b7 a9 b0 3d f4 4c 4d be 27 9f 5b 3c
       0.17950866 0.086261205 -0.20048887 0.013404644
000070 60 50 7d bd 04 62 90 3e 8a f0 fd bd d8 7d 10 be
       -0.06184423 0.2819978 -0.12399395 -0.14110506
000080 04 ff 48 3d 68 0c a7 3d 38 0e 1c 3e 0a 2e 39 bc
       0.049071327 0.08156663 0.15239799 -0.0113024805
000090 c9 d5 27 3e 9a 09 5e 3d e2 99 d9 3d 77 39 31 3e
       0.16390146 0.054208376 0.10625054 0.17307077
0000a0 23 56 7c bd 22 6f a7 3d c4 d0 53 bd 0a 2b 04 be
       -0.061605584 0.08175494 -0.051712766 -0.12907043
0000b0 7d 4c af be a0 ac 45 be a3 66 f1 3d 3f 2e 03 be
       -0.34238043 -0.19304132 0.117871545 -0.1281061
0000c0 5e 87 ae 3d 4c 47 b1 bd 76 64 07 be 95 f0 b9 3e
       0.08521913 -0.08656177 -0.13221917 0.36316362
0000d0 6f fb ed 3d b7 30 f6 3c 43 68 00 3c 81 cf aa bc
       0.11620223 0.030052526 0.007837358 -0.020850899
0000e0 c3 e6 82 be 4a 81 42 3e f6 14 b0 3d 3d 87 90 3e
       -0.25566682 0.18994632 0.08597748 0.2822818
0000f0 98 b8 2c bd 66 2e 3d bd c7 c9 57 be 14 3f 58 bd
       -0.04216823 -0.046186827 -0.21073066 -0.05279453
000100 46 af 87 3e fb e2 54 bd b8 7f 06 be 85 c3 62 3d
       0.2650091 -0.051974278 -0.13134658 0.055362243
000110 a7 4c e4 3d 4d 7f 55 be f8 4b 25 bd 27 e5 68 3a
       0.11147433 -0.20849343 -0.040355653 0.0008884244
000120 9a 29 ac bd 4b 1b 7b bd a8 81 59 bd da 53 82 bd
       -0.08406372 -0.061305325 -0.053102165 -0.0636365
000130 f2 3e b2 3c 5f 2d b2 bd 80 c4 90 3d c1 28 95 bc
       0.02175853 -0.0870006 0.070687294 -0.01820791
000140 1c 0a 06 bd 95 7b 52 3e ff 05 3f 3c 88 40 3c 3d
       -0.032724485 0.20554955 0.011659144 0.04595998
000150 cf 5b c2 bd 01 27 b7 3d 6b d0 55 bd e8 ec 22 3d
       -0.09490167 0.08942986 -0.052200716 0.039776713
000160 85 d7 03 3e b7 6e 1c be 10 39 0a 3e 0c 8b d5 bd
       0.12875183 -0.1527661 0.1349833 -0.10426912
000170 21 17 a6 3c a3 47 94 bd 1c 56 bc 3d 2b 4c 39 3e
       0.0202747 -0.07240226 0.091961116 0.18095462
000180 c6 0c 2a bc b7 a9 b6 bc 9b 72 26 bc 78 c8 ea 3d
       -0.010379022 -0.022297723 -0.01015916 0.11464018
000190 77 ad a7 bd 8b 89 2e be 2a e7 5c be b5 58 e1 bd
       -0.08187383 -0.17044656 -0.21572557 -0.11003248
0001a0 f4 70 25 3d 14 30 02 be c3 c2 15 3e 62 0a 74 3d
       0.040390924 -0.12713653 0.14625077 0.059580214
0001b0 33 dd 34 3d 87 12 9a bd 8e 03 e8 bb 80 4b 46 3d
       0.044156265 -0.07523065 -0.007080502 0.048411846
0001c0 81 86 c8 3d d0 6c 0c be 4f df 86 3e bc 4b 47 3d
       0.097912796 -0.13713384 0.26342246 0.04865621
0001d0 d2 d7 14 be db b0 32 be 8c 6a b6 bd 19 8f bc bd
       -0.14535454 -0.17450278 -0.08907041 -0.09206981
0001e0 f7 5a 1d 3d 7c 46 f5 bd 60 79 0f bd 1f b8 3f be
       0.03841683 -0.119763345 -0.03502786 -0.1872258
0001f0 23 bd 67 3e 55 d6 c2 38 08 8b d6 3d f0 5c cf 3d
       0.22630744 9.290563e-05 0.10475737 0.10125148
000200 bd a3 eb bd 4a eb 4e 3e c6 ed 37 3e b0 77 0d 3e
       -0.1150584 0.20206943 0.17961797 0.13815188
000210 6e 47 20 be 16 69 12 3e 62 ca 08 bc 72 e6 e9 bd
       -0.15652248 0.142979 -0.008349033 -0.11420907
000220 f6 84 ce 3d 3b f9 79 bd 6c 69 f0 bd 53 cf 76 3d
       0.10083954 -0.0610287 -0.117388576 0.060256314
000230 40 d8 d0 bd 12 4b 87 3d 5b 9d 3a 3d 62 1a ce 3c
       -0.101974964 0.066061154 0.045560222 0.025159065
000240 52 4f 12 3e 6c e5 00 3c 2c e4 73 3c b5 96 a4 bd
       0.14288071 0.007867198 0.014885943 -0.080365576
000250 e5 02 8a bd 68 2b 05 be 3e df 8b 3d 14 5d 0a bd
       -0.06738833 -0.1300484 0.068296894 -0.033780172
000260 96 23 26 bd 03 70 78 3d 0f 1a 74 be 13 9f 8d 3c
       -0.04056128 0.060653698 -0.23838066 0.017287767
000270 5c 6f 16 be 2d 21 eb bc e0 6b 6d bc 56 dc 70 be
       -0.14690918 -0.028702343 -0.014491051 -0.23521551
000280 b2 e6 ce 3c e8 70 8e 3d 76 ec a4 3d 06 9c 58 3d
       0.025256488 0.06955129 0.08052914 0.05288317
000290 51 9f 4c 3e 96 b4 39 3e 44 dd 3a 3d f5 b0 af 3d
       0.1998265 0.18135294 0.04562117 0.08578674
0002a0 ac ea 01 3c 90 fd 0b bc 10 de 06 3d 86 d2 07 be
       0.007929485 -0.008544341 0.03292662 -0.13263902
0002b0 0b e9 01 be 14 4b 23 3d 9e 40 0e 3d 7e 7a 61 bd
       -0.12686555 0.039866522 0.034729593 -0.05504846
0002c0 57 7e 1a 3c f7 0f a6 bd 70 a0 1e be 44 ee 3a 3e
       0.009429536 -0.08108514 -0.1549089 0.18254954
0002d0 da fc 3e 3e b9 89 e9 3c 8e 9c b6 bb 39 46 5e bd
       0.18651143 0.028508054 -0.005572862 -0.05426619
0002e0 15 85 0e 3c 50 1a 0b 3e 31 20 a6 bd 82 c3 10 3e
       0.008698721 0.13584256 -0.08111609 0.1413708
0002f0 50 77 5b bd 6f 0f ba bd 88 3b 40 bd b3 dc e5 3c
       -0.053580582 -0.09084975 -0.046931773 0.02805934
000300 53 5b 0c 3e d7 79 14 bc 07 e9 0a be 04 66 1d be
       0.13706712 -0.009062252 -0.13565455 -0.15370947
000310 10 ff 62 3c 58 8c 2b be dc d5 0a 3e 49 4b 01 3d
       0.013854757 -0.16752756 0.13558143 0.03156594
000320 15 cc 1a be 68 cf 8d bd 85 d6 67 be db ff 80 3d
       -0.15116914 -0.06924325 -0.22640426 0.062988006
000330 f0 3e a3 3d 61 c6 6b bd a3 15 14 3d 61 be 60 3d
       0.07970989 -0.057562236 0.036153447 0.05486906
000340 66 0b 24 3e 27 a7 c8 3d 32 11 1a 3c ef 97 1a 3c
       0.16019973 0.09797507 0.009403514 0.009435638
000350 b8 c2 9f bd fe b4 5f 3e b1 f1 a7 bd 16 6b ec 3d
       -0.078008115 0.21846387 -0.08200396 0.115438625
000360 f8 eb d8 bb 7e 90 ae bd f2 0c 3f 3e 1f 86 a6 bd
       -0.0066199265 -0.085236534 0.18657282 -0.0813105
000370 c6 e8 7b bb fe df 17 be ee 19 e1 3d 90 90 1c 3d
       -0.0038438304 -0.1483154 0.10991274 0.038223803
000380 26 20 0d be c9 29 9f bd 74 4a 58 bd e7 e6 24 3e
       -0.13781795 -0.07771642 -0.05280538 0.16103707
000390 c9 ce 62 bc 4b 94 2c bd e8 dc 24 be 96 27 df bd
       -0.013843247 -0.04213361 -0.16099894 -0.10896222
0003a0 f4 fa f4 3d 7d 10 d2 bd 35 2f fb 3d 26 8c 09 3c
       0.11961928 -0.10257051 0.122648634 0.00839523
0003b0 8b a5 97 3c ba bb b9 bc 9d a2 4e 3c f0 e2 9a 3d
       0.018511554 -0.022672523 0.012612012 0.07562816
0003c0 5f 35 99 bd 60 b6 95 3d ab 4e 32 3e 42 b3 fe bd
       -0.07480883 0.07310176 0.17412822 -0.124365345
0003d0 aa 6d 82 3d d5 a0 c7 bd 4f 9b 56 3d 82 76 13 3d
       0.06368573 -0.09747473 0.052394208 0.03600169
0003e0 55 55 1a 3d 67 d5 46 be 2b b3 1c be b8 df 14 be
       0.037679035 -0.19417344 -0.15302722 -0.14538467
0003f0 2e e7 1c 3e d8 35 c6 3d 7a 84 50 3e d1 49 df 3d
       0.15322563 0.09678239 0.20363036 0.10902751

model.f.4.bias f4 [64]
000000 c7 7f 0d bd e8 b5 fd 3e f2 b9 86 bd a1 d1 55 3e
       -0.034545686 0.49552846 -0.06578435 0.20880748
000010 a9 e5 c7 be 6d eb a8 be c0 f2 0f 3e f1 d8 0f be
       -0.39042404 -0.32992116 0.14057446 -0.140476
000020 df f7 90 3e a6 51 c7 be 09 2d 24 3f 33 19 2f 3d
       0.2831411 -0.3892948 0.6413122 0.04274864
000030 67 35 ba be 58 f2 5e 3d 4d a7 b4 be b2 34 0e 3e
       -0.36368868 0.054430336 -0.3528389 0.13887289
000040 f3 a1 a6 3c 53 46 7f 3e f8 5a d4 3e ea 78 80 be
       0.020340895 0.2492917 0.41475654 -0.2509225
000050 3a e3 5a 3e 31 85 fc 3d d6 59 77 3d 7b 53 84 3e
       0.21375743 0.12330092 0.06038841 0.2584494
000060 fd f5 19 3e 44 b9 18 bd d3 81 b7 3d 3d f5 59 bb
       0.15035243 -0.037286058 0.08960309 -0.0033257746
000070 b6 a7 82 be 83 48 2a be c6 26 91 3e 08 47 9a bd
       -0.25518578 -0.16629224 0.28349894 -0.075330794
000080 ae 60 8f 3e f2 6b 10 bd aa 0f 07 be fc 42 ac be
       0.28003448 -0.035259195 -0.13189569 -0.33644855
000090 9a d6 68 be 45 a8 ae bc b9 af d3 bd 83 1b 57 bd
       -0.22738114 -0.021320472 -0.10336251 -0.05251647
0000a0 67 d0 b1 bd ab 78 c8 be 46 50 08 be 86 d0 82 be
       -0.08682328 -0.39154562 -0.13311872 -0.25549716
0000b0 5a 55 72 3e c3 4e 35 3e 90 c7 b2 be 19 ed b2 bd
       0.23665372 0.17705826 -0.3491788 -0.08736629
0000c0 02 c9 02 3e b2 63 6d be fe e8 3f 3e da 2e ec 3d
       0.12771991 -0.23182562 0.18741223 0.11532374
0000d0 3e ab 96 3e 8c 13 55 bd 4f 79 18 be 85 0c 9d be
       0.29427522 -0.052020594 -0.14890026 -0.30673614
0000e0 ce 95 69 be 7d 2c 27 bf e3 58 fb bd dc 6f 35 be
       -0.22811052 -0.6530226 -0.12272813 -0.17718452
0000f0 9d 0a ac 3e c0 16 52 3e ea 2f 84 3e 26 fc be 3e
       0.33601847 0.20516491 0.25817806 0.3730175

model.f.6.weight f4 [64, 64]
000000 d7 bf 0e be 82 d9 77 bd ee db 35 3d 20 e7 8f bd
       -0.13940369 -0.060510166 0.044399194 -0.070265055
000010 5e b4 1c bd 3c 07 06 bd 2c a9 51 bd 07 c5 9b bc
       -0.03825795 -0.032721743 -0.051186725 -0.019014848
000020 32 4f 37 bd 7a 2e d0 bd d7 ec 21 3c 0a cb a5 3d
       -0.04475326 -0.10165115 0.009883127 0.08095367
000030 91 02 8a 3d 31 17 d9 3d cf b5 83 bd 17 55 1f 3d
       0.06738771 0.106001265 -0.064311616 0.038899507
000040 8a c3 8f 3d 52 10 ab bd c8 2c 14 be 03 10 c9 bc
       0.07019718 -0.08352722 -0.14470208 -0.024543768
000050 33 f4 af 3d 29 9b 14 bd bd 82 e2 bd 1d 14 28 bd
       0.08591499 -0.036280785 -0.110600926 -0.041034807
000060 81 3a ae bc 54 ff 82 3c e9 85 fa bd 2c 6a 50 3d
       -0.021268131 0.01599089 -0.122325726 0.050882503
000070 d6 4f e8 3a f9 d1 35 3c a8 57 3d bc ba 48 12 3d
       0.0017723988 0.011097425 -0.011556543 0.03571389
000080 54 6b a2 3c bf 4f c1 bd d0 59 59 3d 57 d9 e6 3c
       0.019826569 -0.094390385 0.053064167 0.028179808
000090 9e a2 b1 3b a9 a3 73 3d ae 1c 4a bb 11 33 c7 3c
       0.005420997 0.05948225 -0.0030839848 0.024316343
0000a0 f6 b8 97 bc 2d 38 b2 bc da 3b 9d 3d fc b4 18 3e
       -0.018520813 -0.021755302 0.076774314 0.1491279
0000b0 cd 12 c3 bb ad e1 fb 3b 37 1d b2 3b 67 80 20 3c
       -0.005953169 0.0076868148 0.0054356116 0.0097962385
0000c0 b8 8c f8 3d 3a ba df bc f1 9c 0a bc 72 82 e1 3c
       0.12136215 -0.02731048 -0.008460269 0.027528021
0000d0 f6 ee a5 3d 46 71 44 be 6c 92 da 3d 44 08 96 3d
       0.08102219 -0.19183835 0.10672459 0.07325795
0000e0 95 bc fa 3c 9b d4 1f 3e 50 91 3e 3c 98 27 07 bd
       0.030607501 0.15608446 0.011631325 -0.032996744
0000f0 f2 43 53 bd 43 33 1d 3e b3 8b 81 bc 6a 21 50 bc
       -0.05157847 0.15351586 -0.015813684 -0.012703279
000100 93 86 60 bc d0 3c f0 bd 91 ce 35 bd 34 45 94 3d
       -0.01370396 -0.11730349 -0.04438645 0.07239762
000110 52 d2 50 bd b8 77 41 bd de f4 f7 3b 98 9d 90 bd
       -0.050981827 -0.047233313 0.0075670322 -0.070613086
000120 f6 a5 37 bc b6 ff 27 bd 2a 9b 5c bd 09 df da 3c
       -0.011209002 -0.04101535 -0.053858913 0.02671768
000130 08 c5 49 ba 56 cd 56 bd 63 fc 15 be 85 16 e6 bd
       -0.00076969014 -0.052441917 -0.14647059 -0.11234764
000140 6d c4 15 be eb 74 66 3d c1 f0 28 bd 69 6c a4 bd
       -0.14625712 0.056263845 -0.041245226 -0.0802849
000150 10 df 08 3b 29 8a aa bc b9 8c ae 3d 0e 9c a9 3b
       0.0020884909 -0.020817833 0.085229345 0.005176074
000160 6a 8e f0 bc bd 04 44 3d 20 21 5c 3d ec 87 5a 3b
       -0.029364783 0.04785608 0.053742528 0.0033345176
000170 22 db 6a bd ac f3 eb bd 35 40 1d bd 29 1c 09 3d
       -0.057337888 -0.11521086 -0.03839131 0.03347412
000180 f8 95 63 3d 85 c5 83 bd 24 52 0f ba 83 3a 10 bc
       0.055562943 -0.06434158 -0.0005467257 -0.008803013
000190 9c 40 01 bd fd c8 99 bb 81 9b d0 3d 9f ec 6f be
       -0.031555757 -0.004693149 0.1018591 -0.23430108
0001a0 b6 29 d2 bc 46 ea e5 bc ea b5 37 bd 38 9d d6 bd
       -0.025654655 -0.028065812 -0.04485122 -0.10479206
0001b0 46 84 7e 3d c7 63 24 3c 52 f0 b6 bd 1d 0e f4 bd
       0.062137865 0.010033554 -0.08932556 -0.119167544
0001c0 f3 ef 3c bd b8 24 17 bc e6 02 89 bd 74 31 af 3c
       -0.04612727 -0.009225063 -0.06690006 0.021385886
0001d0 f1 0a c6 bb ac 5f 19 3d 6e 19 51 3d 96 94 9c 3c
       -0.006043785 0.037444755 0.051049642 0.01911382
0001e0 b0 79 b9 3c 09 29 1a 3b a1 50 85 3d a2 54 06 bd
       0.022641033 0.0023522994 0.06509519 -0.032795556
0001f0 dc 01 e9 bb 40 ed e0 3c 3c bf ae 3d 6c 67 b6 3c
       -0.0071108174 0.02745688 0.08532569 0.022266112
000200 29 3c 6f bd 9a a5 7d bb 81 bc 2d bc 2a 0b d5 3c
       -0.058406983 -0.0038703443 -0.010604025 0.0260063
000210 ee e1 ec 3c eb db 00 bc b2 26 a7 bd 7d 38 25 bd
       0.028916325 -0.0078649325 -0.081616774 -0.040337075
000220 72 fa c7 bd bc 0f 90 bd c9 bf 0f bd d6 ee fd 3d
       -0.097645655 -0.07034251 -0.03509501 0.1239907
000230 85 2c fc bc 1b 44 83 bd c7 10 17 bd 05 0c 4b 3b
       -0.030782947 -0.064094745 -0.036881234 0.0030982506
000240 b6 cf 22 bd 3e 94 6d bc e1 62 0e bc ae 50 c4 bd
       -0.03974887 -0.014500676 -0.008690567 -0.09585701
000250 f1 19 e8 bc c2 05 80 3d b1 d2 5f 3d 7e 2c 3d 3d
       -0.028332682 0.06251098 0.05464429 0.04618501
000260 4b 19 36 bd 16 d4 1f be 05 10 be bd e1 83 62 3d
       -0.044457715 -0.15608248 -0.09280399 0.05530155
000270 4c e5 c9 bc 35 74 6a bc f4 f4 32 3d 73 e2 1d be
       -0.02464547 -0.0143099325 0.043690637 -0.15418415
000280 55 e0 7c 3d a0 32 47 bb 0b ad 4f 3e 05 ad 2a 3d
       0.061737377 -0.0030395165 0.20280854 0.04166891
000290 e7 83 64 3e 44 4a fa bc 38 1a b1 3d 48 e3 1c be
       0.22315942 -0.03055299 0.08647579 -0.15321076
0002a0 f0 d3 82 3c 1e 78 85 bd 75 7e 05 be 30 65 10 3e
       0.0159702 -0.06517051 -0.13036521 0.141011
0002b0 5c de c1 3c 6f 5d 15 be a2 b6 34 be aa da 60 bc
       0.0236656 -0.14586423 -0.17647794 -0.013724009
0002c0 c2 4a 42 bc 99 d1 d4 3d 55 81 8c 3d 9d f5 c6 bc
       -0.011858644 0.1039154 0.068606056 -0.02428704
0002d0 90 44 84 3e d1 1a 2b 3d a7 b2 7a 3d 4b 93 57 3e
       0.2583356 0.04177362 0.061205532 0.21052282
0002e0 30 8b 71 bc 78 ee 8a bb 03 a0 08 be 58 e1 9c 3d
       -0.014742658 -0.0042398535 -0.1334229 0.076601684
0002f0 82 64 6e bd a1 e0 2c be 72 8e 8b 3d d3 7b a4 bd
       -0.05820132 -0.16882564 0.06814279 -0.0803143
000300 da d8 1d bd 23 4c 4d bd fc 26 9d bd cf fc 50 be
       -0.038536884 -0.050121438 -0.07673451 -0.20408939
000310 07 65 0f 3e e8 8f bc 3d 7d 94 0d 3e cd 6d 0f 3e
       0.14003383 0.092071354 0.13826175 0.1400673
000320 73 9e 1a bd 69 8e 90 bc 7d c8 02 bd 99 07 74 be
       -0.037748765 -0.017646031 -0.03192948 -0.23831023
000330 da e5 0f 3e c3 8a 3c 3d 17 f6 e7 3d 0e 7a 09 bc
       0.14052525 0.04603077 0.11326235 -0.0083909165
000340 fb fb d8 bd 96 78 cd bd ce 75 3f 3d 48 48 13 3e
       -0.105949365 -0.100327656 0.046743207 0.14383042
000350 6b 10 1c bd da a2 ba bd bc 7c 2b be 28 b5 e9 bc
       -0.038101595 -0.09113093 -0.16746801 -0.028528765
000360 65 03 b9 bd 4a 50 1c bd 83 2f 76 bc 96 5a b0 3c
       -0.090338506 -0.038162507 -0.015025976 0.02152757
000370 8a 3f 06 3e 78 81 28 bd 7e 97 1b be f0 a5 31 3d
       0.13110176 -0.041139096 -0.15194508 0.04337114
000380 f7 91 d6 bd 18 8c 60 bc 43 22 e8 bd a0 ea 7d 3d
       -0.10477059 -0.013705276 -0.1133466 0.061991334
000390 22 f4 85 bd 45 51 30 3d 35 39 53 bd 85 29 e8 3d
       -0.06540705 0.043046255 -0.05156823 0.11336044
0003a0 69 b0 0a bc ca d9 8f 3e 76 fd 35 3e fb e1 6f 3d
       -0.008464911 0.28095847 0.17772469 0.05856512
0003b0 16 5c 81 bd bc db ec bd ac 43 d2 3c a9 69 9b 3c
       -0.06316392 -0.115653485 0.025667034 0.018971281
0003c0 4f e2 23 be 11 f9 6e bd f2 68 87 3e 04 35 95 bd
       -0.16004299 -0.058342997 0.26447254 -0.072855026
0003d0 34 63 1e 3d 6b 72 e8 bd 1e 5b c2 3d b2 8c a1 bd
       0.038668826 -0.113499485 0.094900355 -0.078881636
0003e0 91 f4 17 3e 26 f8 04 3e 56 ea 5d 3a 89 ea 26 3e
       0.14839388 0.12985286 0.00084654 0.16300406
0003f0 41 d8 67 bd 25 83 a0 3c 01 29 c6 bd 36 13 67 bd
       -0.05660272 0.019593785 -0.096757896 -0.056414805

model.f.6.bias f4 [64]
000000 d8 2d 9a be 4e cd 7e be bc a1 25 3e 49 b2 5e be
       -0.301131 -0.24883005 0.16174978 -0.21747698
000010 58 56 11 3e 55 61 d5 bd b6 a3 b1 be 02 f5 5c be
       0.14193094 -0.10418955 -0.34695214 -0.21577838
000020 10 54 08 bf ed 1c b0 3e 47 47 a6 be f9 2a c7 bd
       -0.5325327 0.3439707 -0.32476255 -0.09724993
000030 ca 4d cd 3e 6a ce 9b 3c b6 1d ab 3d 9a a5 1f be
       0.4009841 0.019019324 0.08355276 -0.15590516
000040 4b 73 8b 3e 68 47 18 3f ea 4a 6c 3d dd db 4d be
       0.272364 0.5948396 0.05768863 -0.20103402
000050 48 f8 9a bd 8e 9c 22 bd 43 2d cc bd fc fd d6 3e
       -0.07566887 -0.039700083 -0.099695705 0.4199065
000060 89 22 24 3f b3 1d 2f 3f 4f 43 8e 3e d1 76 05 be
       0.64115196 0.6840469 0.27785727 -0.13033606
000070 9b a5 08 be c7 26 fd 3d 89 eb 15 bc ce db cc bd
       -0.13344423 0.12360912 -0.009150394 -0.10002862
000080 48 58 28 bf 66 5a 3c 3e a0 5f 10 be dc 0e 84 bd
       -0.65759706 0.1839386 -0.14098978 -0.06448147
000090 3c aa b6 be 58 1b 31 3d 1b 65 52 bd 6c 52 d7 bd
       -0.35676754 0.043238968 -0.051365953 -0.105137676
0000a0 9e 9b 3e 3e 6d 60 23 be 01 4e 57 3e 22 9d 00 3e
       0.18614051 -0.15954752 0.2102585 0.12559941
0000b0 7b 5b e4 3e d5 9c 68 be 29 8d 37 be 98 09 8f bd
       0.44601044 -0.22716077 -0.17924942 -0.06984252
0000c0 da 40 ba be ea bc 2a 3e 18 1b f7 bd 64 a3 9e bd
       -0.36377603 0.16673627 -0.120657146 -0.07746008
0000d0 77 c3 9a 3d eb 3c 46 3e 89 88 a5 be fa b6 d4 3e
       0.07556813 0.19359176 -0.3233073 0.4154585
0000e0 47 fb 3b bc 1d 83 54 3e 0f f1 c5 3d 32 11 7f be
       -0.011473483 0.20753141 0.09665119 -0.24908903
0000f0 80 05 bc be 99 9e ef be cc 1c 30 be c6 7b 63 be
       -0.36722946 -0.46800688 -0.17198485 -0.22215185

model.f.8.weight f4 [10, 64]
000000 85 d9 0f bc 1b 31 87 3c dc 8e 80 bd 40 95 c4 bc
       -0.008779888 0.016502907 -0.06277248 -0.02399695
000010 69 44 1b bc d6 4a 82 bb 00 30 6b bc 46 f9 dd bc
       -0.0094767595 -0.0039762063 -0.014354706 -0.027096402
000020 d2 a9 e9 3c e2 df cb 3b eb 6b f4 bc 0a a3 f7 3b
       0.02852336 0.0062217573 -0.029836616 0.0075572776
000030 c6 67 10 bb aa d4 99 bb 60 b6 2a 3d ad 6c f1 bc
       -0.002203451 -0.004694541 0.041677833 -0.029470766
000040 f0 30 f8 3b 93 bd b4 3c 5c 65 96 3c 01 86 50 3c
       0.007574193 0.022063052 0.018358879 0.0127272615
000050 a2 2d 9e 3b 9a 6e c0 3a 56 98 1e bc 48 da 9b 3c
       0.004827217 0.0014681399 -0.009679874 0.019024983
000060 21 d4 9a 3d 32 d5 33 3d c1 a5 4f bc 51 5a c7 bc
       0.07559992 0.04390449 -0.012673796 -0.024335058
000070 4e 82 bb bc 89 54 94 bd 8e c0 5d bc 7f 33 0a 3b
       -0.022889283 -0.07242686 -0.013534678 0.0021087823
000080 ae 7e b6 bc 9d 15 bd 3c 63 64 1b 3d 0b f2 76 3d
       -0.022277202 0.023081595 0.037937533 0.060289424
000090 ef 95 fe bb dc 9c 20 3b 3a ae ec 3c 11 67 d9 3c
       -0.0077693383 0.0024507558 0.028891671 0.026538404
0000a0 1b b4 cf 3b 89 5e d1 3a 63 04 df 3c f2 40 a9 3c
       0.006338609 0.0015973608 0.027223771 0.020660851
0000b0 53 e7 be 3b b2 f7 19 bd d0 19 61 bb 83 65 72 3c
       0.005825916 -0.037589736 -0.003434766 0.01479471
0000c0 bf c6 fc bc 34 d8 6b 3b 01 1a 0d bd 38 22 c4 39
       -0.030856488 0.0035987021 -0.034448627 0.00037409528
0000d0 2b 5b aa 3c 69 58 3a 3c 6d 78 8c bc f9 2d c0 3c
       0.020795425 0.011373618 -0.017147267 0.023459421
0000e0 f7 4b c3 3c 01 11 a1 3b 03 32 49 bc f9 72 f6 bc
       0.023839934 0.004915357 -0.01227999 -0.03008412
0000f0 ba 39 a6 bb 0f e9 ec bc 0d de 34 bc 52 3b ac bc
       -0.0050727995 -0.028919725 -0.011039269 -0.02102438
000100 39 41 2b bc 16 db 05 3b 70 0c aa bc 6b 74 e8 bc
       -0.010452562 0.0020424775 -0.020757884 -0.028375825
000110 04 cf 00 bc 6e f0 4c 3c ef 46 4e bc 3a 1c 5c bc
       -0.007861856 0.012508495 -0.012590154 -0.013434464
000120 4f 88 00 bd 78 3a 9f 3c 43 53 10 bb 0a ca a2 bb
       -0.031379994 0.01943706 -0.0022022284 -0.0049679326
000130 87 50 72 3b 2a 1d 7a 3b 5f fb 6d 3d 97 32 87 bd
       0.0036974268 0.0038164356 0.058101054 -0.06601446
000140 09 ce 02 3d 4c ef a0 3c 6f cd cb 3c f0 72 2e 3c
       0.03193477 0.019645356 0.024878232 0.01064752
000150 fb 1c 9d 3c 6a 2d c2 bb dd 19 74 bc f9 da cc 3c
       0.019178858 -0.005925824 -0.014898744 0.025006758
000160 62 20 60 3d bf b5 34 3d f9 5a 81 3c 61 ac bf bc
       0.054718383 0.04411864 0.01579045 -0.023397626
000170 bf 02 cd 3a 12 d0 e7 bc a9 c5 02 3c da 9b dd bc
       0.0015641077 -0.028297458 0.007981696 -0.027051855
000180 7c 8c d3 bc ab be f4 3a 22 54 39 3d e0 54 c0 3d
       -0.025823824 0.0018672546 0.04524625 0.093911886
000190 32 c0 eb bc 71 8d 46 bc d7 21 1e 3d c8 0a 11 3c
       -0.02877817 -0.012118683 0.03860649 0.008852668
0001a0 d3 3f a4 3c b1 e7 d2 3c 00 17 17 3d 5a 88 85 3c
       0.020049965 0.025745245 0.03688717 0.016300369
0001b0 4a 86 2c 3d 8b 15 56 bd 8c 14 d0 bb e8 e9 1c bc
       0.042120256 -0.05226664 -0.0063501056 -0.009577252
0001c0 04 94 5d bd c0 5c 14 bc f0 92 51 bd 77 b2 02 3c
       -0.054096237 -0.009055316 -0.05116552 0.00797712
0001d0 b8 23 b8 3c 7e 96 03 3d 02 69 f3 bc e2 dc 1a 3d
       0.02247797 0.032125942 -0.029713158 0.037808307
0001e0 d4 aa 4c 3d 7b ae b6 3c 90 b4 eb bc cd 60 6c bd
       0.049967602 0.022299996 -0.028772622 -0.057709504
0001f0 83 97 44 bd 75 84 39 bd ec 6d 3a bd 36 aa 02 bd
       -0.047996055 -0.045292336 -0.045514986 -0.031900607
000200 41 e0 b2 be 76 89 6a bd b9 95 49 3f 9b c5 90 bf
       -0.34936717 -0.05726 0.78744084 -1.1310304
000210 ca 06 7f 3e 42 42 9d bc 27 11 c9 be 58 63 12 bf
       0.24904934 -0.019196633 -0.392709 -0.57182837
000220 e9 81 e8 bf d8 be af 3f b2 80 6d be 1d 29 9a 3d
       -1.8164645 1.3730116 -0.23193625 0.07527373
000230 be 0f e8 3f bc 67 53 bd 9d e9 6e 3f a1 ca 67 bf
       1.8129804 -0.0516126 0.93325216 -0.9054356
000240 95 e3 a4 3e 74 3f bb 3f 3a 64 4e 3f 82 e1 8c 3d
       0.3220488 1.4628739 0.80621684 0.0687895
000250 87 17 c5 be df 6c 5f bd 7e fb 6f be 24 15 f0 3e
       -0.38494512 -0.054547187 -0.2343578 0.4689113
000260 6e 43 0a 40 ee 63 fc 3f d0 1c 87 3e 71 07 b6 be
       2.1603656 1.9717996 0.2638917 -0.35552552
000270 66 03 0c 3c d3 c6 69 3f 63 16 39 bc f9 ed 62 bf
       0.008545732 0.91319007 -0.011296841 -0.8864437
000280 9d cf dd bf 40 cb 89 3e 03 95 b9 3e de ca 56 be
       -1.7328984 0.2691288 0.362465 -0.20975825
000290 d5 2f b5 be 53 86 a6 bd ea f7 ed 3e 7b dc 7b 3e
       -0.35388055 -0.08131089 0.46478206 0.24595825
0002a0 b0 90 60 3e 91 f7 77 be 1b 35 c3 3f 9c d1 0e 3f
       0.21930194 -0.24215533 1.5250582 0.5578859
0002b0 b3 bc 2a 3f 2c dc 47 3c c2 b9 3f be 0c 92 22 3e
       0.6669418 0.012198489 -0.18723205 0.15876025
0002c0 a4 a3 16 bf f5 ae f8 3d 76 ce 35 bf ba ff 7b 3e
       -0.58843446 0.121427454 -0.7101816 0.2460927
0002d0 2b 68 b8 bd d4 3c 15 3f 1c e9 1d bf ae c3 17 3f
       -0.090042435 0.5829594 -0.6168382 0.5928296
0002e0 a0 09 58 3f b0 09 cf 3e 9e 8a 99 be 61 2d f9 be
       0.84389687 0.40437078 -0.2998857 -0.48667434
0002f0 7c da 36 bf e3 08 92 bf 3b fa 3e bf 5f 81 0a bf
       -0.7142713 -1.1408962 -0.7460057 -0.54103655
000300 ec 43 11 3c c9 07 da bd a7 16 9c 3d 26 73 49 bd
       0.0088662915 -0.10646016 0.07621508 -0.04918208
000310 20 d2 d8 3d f0 26 fe bb 4d 43 09 3d 7f c5 15 3d
       0.10586953 -0.0077561066 0.03351145 0.0365653
000320 70 b8 92 be a9 1d 78 3d 70 12 99 bd 15 23 d6 bd
       -0.2865634 0.06057516 -0.0747422 -0.1045591
000330 83 1e 12 3e 15 10 59 bd e2 2e 53 be 76 4f 0f 3e
       0.14269452 -0.052993853 -0.20623353 0.13995156
000340 8b 01 ff 3a cb 1d 6c 3e d8 98 97 3c eb 5b f7 bd
       0.0019455416 0.2305824 0.018505499 -0.12078079
000350 fe 10 d3 3b ac 0e ba 3c 38 39 87 3b 25 2b a4 3c
       0.0064412346 0.022712074 0.004126694 0.020040104
000360 01 77 c5 3e 54 4b bc 3e 2d ab f2 3c 9b 5a 1d bd
       0.38567355 0.3677622 0.029622639 -0.038416486
000370 62 07 76 bd 21 4e c1 bc ac e4 2a bd 83 96 50 be
       -0.060065635 -0.023596825 -0.041721985 -0.20369916
000380 50 7c ed be c7 8e b1 3d 8e 21 6c 3b 7d 8e fe 3c
       -0.46383905 0.08669811 0.0036030742 0.031073803
000390 3f 1f 64 3d 48 63 2a 3d 81 a9 96 bb dc 0a e4 bd
       0.05569386 0.04159859 -0.004597843 -0.11134884
0003a0 eb 5b 2f 3d 56 f6 b8 bc 53 9b 81 3d e7 9f 72 bd
       0.04281227 -0.0225784 0.06328454 -0.059234526
0003b0 70 83 95 3e 10 1c e0 3d 4f f3 80 bd 0f ca 23 be
       0.2920184 0.109428525 -0.062964074 -0.15995048
0003c0 00 06 1a be a0 a4 89 3d 6a 31 fa 3d 24 6f 61 bd
       -0.15041351 0.06720853 0.12216456 -0.055037633
0003d0 7f f1 14 be 43 87 8a 3d 0c 9d a5 bd cc dc 4c 3e
       -0.14545248 0.067640804 -0.08086595 0.20006102
0003e0 a8 1c 37 be 13 da 23 3d 33 d6 23 3e 29 ff cb 3d
       -0.17882025 0.040002894 0.1599968 0.09960777
0003f0 1f 7b 3a bd 37 ef 86 be 6c 7d 96 bd c7 58 55 bd
       -0.045527574 -0.2635438 -0.07348141 -0.052086618

model.f.8.bias f4 [10]
000000 fb 1b 22 bc 1f bb bf 3c 05 65 ff 3f 3b 09 04 3f
       -0.009894366 0.023404656 1.9952704 0.51576585
000010 57 44 40 3d f1 b5 90 bd fc c7 23 bd f6 d4 7b bd
       0.046940174 -0.070659526 -0.03998564 -0.061482392
000020 6c 6d 54 3a 87 a1 0d 3f
       0.00081034633 0.55324596
